processing/mil classifier/hyperparam_select_batch_6/weights/05142023/1.pth (torch, 343887 bytes, 8 tensors)

module.i_classifier.fc.0.weight f4 [2, 512]
000000 e1 02 33 bb dc cf 84 3b 67 25 58 bc 3f bc 3d 3c
       -0.0027314948 0.004053099 -0.013192511 0.011580526
000010 50 06 fc bc e3 2a 42 bc b8 23 01 3d 1f 26 5f 3d
       -0.030764729 -0.011851045 0.031528205 0.054479714
000020 de d2 14 3c 8a b6 92 bc 66 34 91 3b 74 5a 12 bb
       0.009083478 -0.017909307 0.004431295 -0.0022331746
000030 88 dc 1d 3d 9c 22 2b 3b a5 33 a5 3c 53 15 51 3d
       0.038540393 0.0026113158 0.020166228 0.051045727
000040 cc 5d 48 bb 13 63 f0 39 cf 33 74 3c 34 9c 1b bb
       -0.0030573485 0.00045850183 0.01490493 -0.0023744227
000050 d7 31 30 bb f3 ea 1f bd 33 76 e3 bc 8d a4 2f bd
       -0.0026885176 -0.039042424 -0.027766323 -0.042881537
000060 24 7c 18 bd 16 88 33 bd a2 dd 08 bd f5 f5 38 bd
       -0.037227765 -0.043830954 -0.03341449 -0.045156438
000070 5f cc 2f bd 8f 68 f5 3c 2e 1b 10 3d 2f 52 07 3d
       -0.042919513 0.029957084 0.03518217 0.03303736
000080 5d 81 d1 3c 1d 78 c5 3c ff cd fe 3c 48 55 d0 bc
       0.02557438 0.024105126 0.031104086 -0.02543129
000090 80 dd 66 3d 4f 2c 93 bb d3 ea 3f 3d 9d bf 02 3d
       0.056363583 -0.004491366 0.046854805 0.031921018
0000a0 6e 55 12 3d 04 32 0d 3d ec ce 5f bc 31 b3 83 bc
       0.035726003 0.034471527 -0.013660174 -0.016076656
0000b0 63 78 73 3c 27 20 0d 3c 1d 6a 44 3c 54 53 ba 3c
       0.014860245 0.008613623 0.01198819 0.022744812
0000c0 0b 01 13 bd e2 e5 5b 3c 30 53 ea bc 1a 9f 2c 3d
       -0.035889667 0.013421508 -0.02860412 0.04214392
0000d0 42 50 c9 bc 2d 39 ed 3b 18 2b f9 bb 7d 15 cf 3c
       -0.024574403 0.007239482 -0.007604014 0.025278801
0000e0 95 5e 5b 3a fc f1 0d bc f1 a4 0d 3d 4b a7 4c 3d
       0.0008368281 -0.008663651 0.03458113 0.04996423
0000f0 dc 84 62 bc 6a c2 e7 bc 40 53 2a 3c b0 1a 83 3c
       -0.013825621 -0.028290946 0.010395825 0.016003937
000100 e9 5c 5d 3c 0e 53 4d 3d 22 63 19 3d c2 c5 6b bb
       0.013510921 0.050128035 0.037448056 -0.0035976027
000110 88 8c db bc 83 52 3c 3d d4 15 50 3d 34 9d a0 bc
       -0.026800409 0.045977127 0.050802067 -0.01960621
000120 48 d6 a2 bc 2f ad c1 3c 2e 7e f1 bc c0 dc 9f 3b
       -0.019877568 0.02364215 -0.029479112 0.0048786104
000130 fe 94 10 bd c7 87 a1 3c 81 8b 77 bc 43 ff 0a bd
       -0.03529834 0.019718064 -0.015108944 -0.033934843
000140 27 01 de bc de bc 61 bc ef ab d0 3c c2 25 a1 bb
       -0.027100159 -0.01377794 0.02547261 -0.004917831
000150 ae d1 26 3d c8 d3 39 bc 1b 7a 5c bb 94 a8 4f 3d
       0.04072731 -0.0113419965 -0.0033642116 0.050697878
000160 fe 4a 15 bd 4d 6a 77 bc e8 e9 bd bc 55 cc 3d 3d
       -0.03644847 -0.015101028 -0.023182824 0.046337444
000170 a2 13 f3 3c 83 3a 8c bc 34 a9 a2 bc c5 99 90 3c
       0.029672448 -0.017117744 -0.019856073 0.017651448
000180 bc a5 cc bb 7a ee a5 3c 24 4b 76 bc 9e 4f c5 bc
       -0.006245343 0.020255316 -0.015032563 -0.024085816
000190 97 44 7c 3b 98 f3 03 3d b4 77 34 3d 26 e4 d2 3b
       0.0038493031 0.03221473 0.04405947 0.006435889
0001a0 a9 50 9a bc ef 8d e0 3c 47 d4 bf 3c 1f c9 de 3c
       -0.01883729 0.02741143 0.023416651 0.027195511
0001b0 36 a1 b8 bb 41 26 25 3c 78 e3 84 3c ef c7 dc 3c
       -0.005634452 0.010079921 0.016221747 0.026950805
0001c0 fe 80 05 3d ac 7b 16 bb 38 d3 19 3d b1 f6 0c bb
       0.03259372 -0.0022961898 0.03755495 -0.0021509344
0001d0 2b 30 44 3c 8c bf 61 bc 79 a3 62 bb d6 f8 fa 3c
       0.011974375 -0.0137785785 -0.00345823 0.030636232
0001e0 96 00 18 3d 7e 26 ab 3c 89 3f f4 bc 6c e2 8e bc
       0.037109934 0.020892378 -0.029815452 -0.01744195
0001f0 8d b4 04 3d ad 25 e2 bb eb 08 cf bc 6a 12 ad 3c
       0.03239875 -0.006901464 -0.025272807 0.021126945
000200 1d 84 1a bd a6 21 cf 3b a2 1f 47 3c ce dd d7 3b
       -0.03772365 0.00632115 0.012153538 0.0065877205
000210 b6 b6 00 bc af aa bb 3c 0e d3 f2 bc 0b 1a bb bc
       -0.007856062 0.022908537 -0.029641654 -0.022839567
000220 9d b7 d1 3c 3f a1 24 3d bb 96 f4 bc cd 9e 21 bd
       0.025600249 0.04019284 -0.02985703 -0.039458085
000230 a9 a5 7e bb a8 36 46 3d ba 6b 2f 3d a3 dc 0e bd
       -0.0038856065 0.048391968 0.042827345 -0.034878384
000240 ca 1b 48 3c 5c a4 8b 3c 48 de 2f 3d 91 5a b4 bb
       0.012213657 0.017046146 0.042936593 -0.0055039604
000250 d6 b5 b5 3c 52 46 8f bc 85 9d 1b bd 42 ca 3f 3b
       0.022181433 -0.017489586 -0.03799202 0.0029264842
000260 f3 46 86 bc 6b 17 05 bc 71 17 59 bc b3 c4 fd bc
       -0.016391253 -0.008123259 -0.013250218 -0.030977583
000270 3b 9f 1d 3d f1 bf e4 3c d0 2e 02 3d 86 f3 7a 3c
       0.038481932 0.027923556 0.031782925 0.01531685
000280 8e 1f 26 bd 98 53 cc bc 4f 9e 63 bb 3e 91 4b 3c
       -0.040557437 -0.024942204 -0.003473181 0.012424765
000290 0c 64 f3 bc 52 79 17 3d 81 60 fb bc 47 de 6c 3b
       -0.029710792 0.036980934 -0.030685665 0.003614323
0002a0 ee 39 38 bd 6d 72 32 3c c2 20 b3 3a 98 48 e3 3c
       -0.04497712 0.010891539 0.0013666379 0.027744576
0002b0 40 c9 4a 3b 4e 18 05 bd 13 c5 3c 3d 58 bd 2c bd
       0.0030942708 -0.032493882 0.046086382 -0.04217276
0002c0 dd 36 9a 3c b6 54 b8 bc a8 92 b4 3c 81 11 47 3c
       0.018824989 -0.02250133 0.022042587 0.012150169
0002d0 b2 97 50 3c 1a 6c 34 bc eb f4 35 3d ab 5f 51 3d
       0.0127314795 -0.011012102 0.044423025 0.051116627
0002e0 a2 09 3a 3b 8e 67 25 bc 5f f3 93 3b 95 55 01 3d
       0.002838709 -0.01009549 0.004515096 0.031575758
0002f0 26 53 2a 3d f0 57 35 3d e1 f4 9d 3c 37 54 5c 3c
       0.041583203 0.044273317 0.019281806 0.013447813
000300 42 e4 cd bc e6 bb 85 bc 73 00 ea 3c d3 6b 15 bd
       -0.025133256 -0.016324949 0.028564667 -0.036479782
000310 3d d9 03 3b aa c1 28 3d 0c e5 23 bd b6 06 bb bc
       0.0020118498 0.041200317 -0.040013358 -0.022830348
000320 7b 0a 1d bd 17 d7 a1 3c 3e ae a3 3c aa 2d e9 3c
       -0.038340073 0.019755883 0.019980546 0.028464157
000330 bc 2f 40 ba 83 a4 93 bc 0b b2 57 3d e3 89 ff bc
       -0.0007331332 -0.018022781 0.05266003 -0.03119368
000340 79 28 57 bc ae 58 f2 3c d0 c8 40 3d 00 f7 41 bc
       -0.013132208 0.029583301 0.04706651 -0.011838675
000350 a5 44 44 bd c6 92 89 3a 5e 00 b5 3b df c8 56 3c
       -0.047917027 0.0010496012 0.0055237254 0.013109415
000360 a3 19 f8 3c b6 17 f8 3b 77 d3 bc bc 5c 8e cc bb
       0.030285662 0.007571186 -0.023050053 -0.0062425565
000370 b5 13 d6 3c a3 f7 c1 3c 28 05 0a bd 62 cd 91 bb
       0.026132444 0.023677653 -0.033696324 -0.0044495324
000380 54 80 27 3b 54 93 1a bb b9 ea c4 3c 7b e7 e7 3c
       0.0025558667 -0.002358635 0.024037706 0.02830862
000390 b7 6b 2b 3d 53 2f 29 3d fc 73 52 3b 66 d3 0b bd
       0.04185077 0.041304898 0.003211259 -0.034137152
0003a0 56 a3 98 3c 5b 8b a2 3c ce 86 e1 3c 86 71 06 3d
       0.018632572 0.01984184 0.0275301 0.032823108
0003b0 50 94 b5 3c f5 8c d4 3b 62 13 3c bb f8 0b f3 3c
       0.022165447 0.00648653 -0.0028698076 0.029668793
0003c0 54 06 ed bc 9b 47 ce 3c b3 b8 22 3d 58 90 22 3c
       -0.028933682 0.025180629 0.039726924 0.00992211
0003d0 18 b0 26 bc a2 f7 94 3c 21 95 a2 3c 60 e2 2b bd
       -0.01017382 0.018184487 0.0198465 -0.041963935
0003e0 64 10 86 bc ad ab b1 3c 5e 91 bb bc cc ea 1f bc
       -0.016365238 0.021688307 -0.022896465 -0.00976057
0003f0 d5 95 fc 3c cd e0 a6 3c ae 5d fb bc d5 99 e2 3c
       0.030833164 0.020370865 -0.030684318 0.027661243

module.i_classifier.fc.0.bias f4 [2]
000000 de 58 a7 bc 8f 9b 15 3d
       -0.020428117 0.036525305

module.b_classifier.q.0.weight f4 [128, 512]
000000 1b 36 1b b8 0b 8d dd b6 19 f8 a6 37 b6 44 fa b6
       -3.700527e-05 -6.602733e-06 1.9904272e-05 -7.4585796e-06
000010 a5 fd e7 b7 39 5e 31 b7 a4 dd 5e b8 96 78 1a 38
       -2.7655458e-05 -1.057196e-05 -5.3135343e-05 3.6828766e-05
000020 1a 4a 5e 38 d7 b7 c5 37 67 f5 d1 b6 26 52 7e 38
       5.2997937e-05 2.3569837e-05 -6.257254e-06 6.0634826e-05
000030 78 8c 28 38 42 b7 e7 b7 18 5d 6a b7 94 36 73 b7
       4.0185143e-05 -2.7622682e-05 -1.3969162e-05 -1.4496636e-05
000040 99 e0 a6 37 e6 a4 c6 b7 0c 2e 0f b7 66 39 a1 b7
       1.9893328e-05 -2.3680226e-05 -8.534185e-06 -1.9219424e-05
000050 8d a2 80 b8 8a 9f 91 37 ea 34 85 37 a6 20 ab 38
       -6.133793e-05 1.7359638e-05 1.5879476e-05 8.159997e-05
000060 1b 19 27 b7 00 85 56 b7 ac ae 4e b6 c6 25 a1 38
       -9.959821e-06 -1.27863605e-05 -3.0798064e-06 7.684114e-05
000070 c8 78 24 b8 d1 d4 b5 b7 7d f1 02 b8 0d 46 c4 b6
       -3.9213133e-05 -2.1675982e-05 -3.121932e-05 -5.84941e-06
000080 d8 e2 75 b8 15 f0 19 b7 a3 e8 75 b7 ed f2 b0 37
       -5.8623817e-05 -9.175409e-06 -1.4657303e-05 2.1093956e-05
000090 14 ec 5e b8 c6 e2 9a 37 00 2d 92 37 75 1a 73 38
       -5.314879e-05 1.846383e-05 1.7425511e-05 5.7960355e-05
0000a0 e1 f1 3d b7 0f e5 c6 37 b9 d4 89 38 53 e2 08 b8
       -1.1321595e-05 2.3710103e-05 6.572292e-05 -3.2635708e-05
0000b0 00 97 37 37 dd 66 73 38 ed ec 68 38 7e c4 06 b7
       1.0942807e-05 5.8031514e-05 5.5533765e-05 -8.032772e-06
0000c0 a8 29 f1 37 c8 98 21 38 77 69 8f 37 d5 35 74 b8
       2.8748836e-05 3.852768e-05 1.709604e-05 -5.822427e-05
0000d0 b3 e2 a4 b7 78 4c c1 35 97 75 c9 37 be a3 56 b7
       -1.9655889e-05 1.4401876e-06 2.4015824e-05 -1.2793518e-05
0000e0 e7 5a a4 b7 4e ba 68 b8 8b ff e5 b7 f4 90 4c b8
       -1.9592653e-05 -5.548662e-05 -2.7417924e-05 -4.877239e-05
0000f0 ed f5 07 b8 e3 0e 0f 37 f0 cd f3 37 57 50 bd b7
       -3.2415544e-05 8.52693e-06 2.9063754e-05 -2.2567967e-05
000100 52 17 03 37 b9 c2 1c b8 75 dc 80 b8 5a f8 01 35
       7.813638e-06 -3.7374648e-05 -6.144579e-05 4.8417644e-07
000110 fa a5 bd b7 11 0b 79 b8 12 3d e6 37 fb 31 20 37
       -2.2607845e-05 -5.9376533e-05 2.7446575e-05 9.54838e-06
000120 64 c3 60 b8 65 81 92 b7 a2 2a 0b b8 ca 17 03 b8
       -5.3587733e-05 -1.746481e-05 -3.3179887e-05 -3.125499e-05
000130 78 96 18 38 82 b7 3f b8 5e dc 05 38 7f a0 11 38
       3.637976e-05 -4.5708854e-05 3.1914904e-05 3.4720168e-05
000140 87 a4 8b 37 bb 32 e1 b6 a6 e2 88 b7 c9 fa 5e b8
       1.6646705e-05 -6.7114283e-06 -1.6318005e-05 -5.3162486e-05
000150 cf 91 bd 37 af e8 c5 37 1a f5 93 b7 92 19 14 35
       2.2598453e-05 2.3592582e-05 -1.76379e-05 5.5171506e-07
000160 8c cf d3 36 a8 5f 33 38 d5 f3 4d 37 36 4c 80 b7
       6.3124517e-06 4.2766012e-05 1.2275724e-05 -1.5294278e-05
000170 60 f7 3e b7 54 48 98 b7 a9 b9 5e b7 ce d8 d5 37
       -1.1382479e-05 -1.8153492e-05 -1.32754585e-05 2.5492536e-05
000180 56 ad 31 b8 5c 88 e6 36 ab 38 ea b5 b0 0b 55 b8
       -4.236152e-05 6.8704085e-06 -1.7450851e-06 -5.0794042e-05
000190 5f f6 df 37 01 b6 26 38 d5 30 36 37 ac f5 a1 b7
       2.6698397e-05 3.974699e-05 1.0859415e-05 -1.9307095e-05
0001a0 03 c2 99 37 2a b4 c0 b7 66 b4 e6 37 53 4b 42 37
       1.8329365e-05 -2.2972079e-05 2.7502141e-05 1.1580839e-05
0001b0 e9 76 af b7 90 1d 2c b7 b4 1c e9 36 44 7c 8d b7
       -2.0916998e-05 -1.0258882e-05 6.9472826e-06 -1.6866376e-05
0001c0 41 b1 ef b7 be 82 a0 b6 b2 81 e5 36 ec 52 65 37
       -2.857356e-05 -4.783592e-06 6.8398303e-06 1.366877e-05
0001d0 fe bb 5c b8 52 bd 76 b8 f4 33 46 38 3a 32 38 38
       -5.262717e-05 -5.882729e-05 4.7255264e-05 4.3915796e-05
0001e0 b8 5c 06 38 a7 e1 4c b8 9c a4 04 38 2f 5f 8c 36
       3.203444e-05 -4.8847545e-05 3.1624557e-05 4.183406e-06
0001f0 53 18 2c 38 50 87 7a b7 e4 0a 58 b7 91 c1 58 37
       4.103065e-05 -1.4932666e-05 -1.2877139e-05 1.29196715e-05
000200 66 78 a0 b7 22 cd af 37 37 48 5b 38 ff 4f 18 b7
       -1.9129551e-05 2.0957148e-05 5.2280924e-05 -9.078532e-06
000210 a1 f8 c0 b7 1c 9b bb 37 63 f4 f6 b6 cd f4 6e b8
       -2.300396e-05 2.2364366e-05 -7.3598217e-06 -5.697161e-05
000220 16 2c 4b b8 2f 11 d2 37 c9 81 31 38 96 fd f0 b7
       -4.844003e-05 2.5041953e-05 4.232096e-05 -2.8728315e-05
000230 21 88 90 b7 08 9d 8b 37 d6 8c 2b 37 43 98 2d b8
       -1.7229528e-05 1.6643215e-05 1.0225185e-05 -4.138822e-05
000240 ec c1 4c 37 da 54 69 b7 ae c3 94 37 14 b6 00 b7
       1.22044985e-05 -1.3907638e-05 1.7734095e-05 -7.671788e-06
000250 3d a8 a1 b7 65 ff 2f b7 10 08 61 38 00 b8 bf b5
       -1.9271038e-05 -1.04902765e-05 5.365169e-05 -1.428416e-06
000260 3b 29 7f 37 65 0d 8a b7 fd c8 ac b7 e5 24 53 37
       1.5208784e-05 -1.645712e-05 -2.059759e-05 1.258517e-05
000270 6a de cc b7 e4 72 53 b7 af cb de b7 cd d3 1d b8
       -2.4422265e-05 -1.260333e-05 -2.655931e-05 -3.762897e-05
000280 e0 4e 79 b6 01 7e 56 b8 28 82 53 37 84 5d be 37
       -3.7149803e-06 -5.1138926e-05 1.2606884e-05 2.2693312e-05
000290 56 68 65 38 6f fa 14 b8 a5 5e 98 37 01 9d 0f b7
       5.4695025e-05 -3.5519184e-05 1.8163884e-05 -8.5600195e-06
0002a0 5b 21 e3 b7 c4 b6 2f 38 1c 8c 78 b7 1b 0f 17 b7
       -2.7076041e-05 4.1893465e-05 -1.4814574e-05 -9.003818e-06
0002b0 3f 7f 5d 38 e3 27 0d 38 d7 0e a0 b8 e0 1d 91 37
       5.2809013e-05 3.3654167e-05 -7.632159e-05 1.7299259e-05
0002c0 68 e7 78 37 70 15 7c b7 53 03 ad 37 88 99 11 38
       1.483583e-05 -1.5025362e-05 2.0624755e-05 3.471368e-05
0002d0 e2 60 5d b7 a9 f6 5d 38 32 1a c8 b7 bd e2 1a b7
       -1.3195184e-05 5.2920226e-05 -2.3854056e-05 -9.231907e-06
0002e0 f1 d1 33 b6 ba b5 8b b7 23 ec 52 b8 74 f4 89 37
       -2.679528e-06 -1.6654714e-05 -5.028782e-05 1.6445505e-05
0002f0 02 58 6f 38 92 2c 50 b7 63 e3 65 b7 2d 08 34 b5
       5.7064004e-05 -1.2408143e-05 -1.3702406e-05 -6.706712e-07
000300 65 50 59 b7 a1 61 92 b7 1a 92 b2 37 3b cb c1 b7
       -1.2952926e-05 -1.7450018e-05 2.1287287e-05 -2.310203e-05
000310 91 4a 09 38 6f 27 57 35 fe 6a e9 b7 73 ee 1c b7
       3.273279e-05 8.0151125e-07 -2.7825587e-05 -9.353843e-06
000320 57 69 ed b7 8c 98 06 38 22 4f 5f 38 55 4d 26 b7
       -2.8301654e-05 3.209016e-05 5.324104e-05 -9.912376e-06
000330 08 52 d7 37 a1 58 9f 37 fb 43 ff 37 34 e3 9d 37
       2.5668196e-05 1.8995548e-05 3.0430025e-05 1.8821658e-05
000340 6f ba 1f b7 64 66 dc b7 87 a0 c1 37 ee 89 6a 37
       -9.520546e-06 -2.6273723e-05 2.3082144e-05 1.3979601e-05
000350 27 24 d9 36 21 57 d8 37 fa d3 04 b8 f3 3f 3c 38
       6.4713126e-06 2.578978e-05 -3.166867e-05 4.488225e-05
000360 52 6e 66 38 8e 8f bb b7 30 60 b7 b7 96 1c 01 38
       5.4939017e-05 -2.2358985e-05 -2.186009e-05 3.078262e-05
000370 a9 72 04 38 84 34 5e b7 6b 34 07 b7 b3 19 7e b8
       3.1578038e-05 -1.3244458e-05 -8.058832e-06 -6.0582253e-05
000380 c1 e0 62 38 25 c4 cf 37 4b 0d 6c b8 39 c6 62 38
       5.4091917e-05 2.476766e-05 -5.6279165e-05 5.4067208e-05
000390 45 ad 81 37 fc c8 05 b8 c3 0d 8c 37 c9 e0 14 38
       1.5458683e-05 -3.1896852e-05 1.6695709e-05 3.5495297e-05
0003a0 12 ad 1d 36 0e bb ec b7 23 aa de 37 0f 08 0c b7
       2.3495563e-06 -2.8220496e-05 2.6543688e-05 -8.346527e-06
0003b0 9f 22 c9 b7 ce 47 50 b8 89 d3 6e 37 b5 bd 03 b8
       -2.3977189e-05 -4.9657938e-05 1.4235157e-05 -3.1409512e-05
0003c0 8a 55 31 38 4b 03 09 37 cc 11 82 b6 42 eb 03 b7
       4.2279753e-05 8.166603e-06 -3.8763737e-06 -7.862984e-06
0003d0 a3 7c 25 b8 a7 1e 29 37 e8 cd 84 36 c2 44 06 35
       -3.9455143e-05 1.0080322e-05 3.957877e-06 5.0018946e-07
0003e0 08 ed 30 b8 93 ca b2 b7 c3 8f 33 b8 40 8a 8a b7
       -4.2182422e-05 -2.1313585e-05 -4.2810814e-05 -1.651526e-05
0003f0 aa e5 34 35 0b c3 28 37 a7 ff 5e 38 3d eb 4a 37
       6.738943e-07 1.0058992e-05 5.316702e-05 1.2094909e-05

module.b_classifier.q.0.bias f4 [128]
000000 ff 54 1a b8 40 c1 29 34 5a 6b d8 b7 f0 bd 5e 38
       -3.679562e-05 1.5809655e-07 -2.5799196e-05 5.3105818e-05
000010 bb 26 1b 38 0a c0 b4 b7 93 ce 66 b8 bc 23 ac b7
       3.699095e-05 -2.1547097e-05 -5.502866e-05 -2.0520638e-05
000020 f0 15 2d b8 61 22 80 b8 cf a2 3d 37 da 68 97 b7
       -4.1266845e-05 -6.109919e-05 1.1303185e-05 -1.8049428e-05
000030 87 44 66 b7 ca 66 01 b6 f4 1b f8 37 03 1f be b7
       -1.3725024e-05 -1.928233e-06 2.957692e-05 -2.2664206e-05
000040 1d cd 58 b8 56 93 3b b7 31 32 5c 37 84 f1 b0 b7
       -5.168944e-05 -1.1180373e-05 1.3124708e-05 -2.10933e-05
000050 df ca 02 b8 d2 5b f1 b6 2b 85 c3 b7 bb e3 fa b7
       -3.1183354e-05 -7.193049e-06 -2.3307823e-05 -2.9908368e-05
000060 79 82 68 b7 11 f5 03 b7 83 67 8a b7 db 2f 65 38
       -1.3858656e-05 -7.865267e-06 -1.6499083e-05 5.4642423e-05
000070 78 5c 56 b7 14 00 44 b8 b3 2f 5e 38 88 9e 3f b5
       -1.27769235e-05 -4.6730114e-05 5.2973348e-05 -7.138374e-07
000080 2e 60 d6 b7 9e b3 1c b8 28 79 21 b8 b2 ca a6 b7
       -2.5555575e-05 -3.736058e-05 -3.8498227e-05 -1.988313e-05
000090 dc 1b f8 b6 d2 00 fa b6 15 0e 3f 38 c1 2a d3 37
       -7.394219e-06 -7.450676e-06 4.5551064e-05 2.5173069e-05
0000a0 cf 51 5b 37 e6 d5 b6 b7 2d 24 09 b8 3f 30 90 b7
       1.3072465e-05 -2.1795695e-05 -3.2697037e-05 -1.7188604e-05
0000b0 f4 d0 a3 37 37 36 15 37 48 5f fe b6 99 27 98 b7
       1.9528416e-05 8.893715e-06 -7.580882e-06 -1.8138251e-05
0000c0 11 f2 cf 35 57 bd 93 b7 b8 ca 26 b8 bf 7e 6e b8
       1.5493152e-06 -1.7611934e-05 -3.976628e-05 -5.6861663e-05
0000d0 05 fe 43 b8 a4 42 5d 38 99 94 c2 b7 0a 34 34 b7
       -4.6728197e-05 5.275257e-05 -2.3195798e-05 -1.0740952e-05
0000e0 ab 91 6d b8 df 79 80 37 1a da 15 b8 ee 84 50 37
       -5.6640867e-05 1.531554e-05 -3.572749e-05 1.2428716e-05
0000f0 25 37 06 38 a8 b8 56 b7 f9 b9 4d 38 ef 0a 38 b6
       3.1999447e-05 -1.2798388e-05 4.904901e-05 -2.74245e-06
000100 fa 9e bf 37 74 29 68 37 c8 6d 08 b7 9c ea ee 37
       2.2843004e-05 1.3837929e-05 -8.131792e-06 2.848106e-05
000110 03 e7 c9 b7 33 8e 97 b7 a2 94 67 b8 90 9b 5c 38
       -2.406864e-05 -1.806682e-05 -5.5213117e-05 5.2596966e-05
000120 87 61 79 38 31 87 30 37 3d 3b 3c b6 af 66 92 37
       5.9457056e-05 1.0521894e-05 -2.8048664e-06 1.7452372e-05
000130 f7 ca 0f b8 93 4a ab b7 e0 25 a4 37 dc 25 90 37
       -3.4282883e-05 -2.0419515e-05 1.956796e-05 1.7183767e-05
000140 2e 73 3b b7 e5 8c 7f b7 d2 11 5b b7 86 a7 bd 37
       -1.1172886e-05 -1.5231989e-05 -1.3057566e-05 2.2608565e-05
000150 c7 12 f1 b7 fc e1 df b7 06 5f 0f 37 13 72 de b7
       -2.8738183e-05 -2.6688904e-05 8.545589e-06 -2.6517582e-05
000160 3a 4a d0 37 a9 11 96 b7 49 20 b5 b7 8f 92 c3 b7
       2.4830097e-05 -1.7889617e-05 -2.1591915e-05 -2.3314058e-05
000170 3c 1f b1 37 88 0f 17 37 23 64 48 38 48 70 84 b7
       2.1114589e-05 9.0039175e-06 4.7776975e-05 -1.5787911e-05
000180 e8 16 d8 b7 43 51 8f 37 ce 7a f5 36 e5 cc fd 37
       -2.5759873e-05 1.7084769e-05 7.3158653e-06 3.0255362e-05
000190 33 bc 90 b7 1d da 37 38 d0 4d 9c b7 13 52 22 b7
       -1.7253775e-05 4.3833734e-05 -1.8632883e-05 -9.675062e-06
0001a0 b3 14 9c 35 eb ca 68 38 66 c9 2c 37 d2 ee 6f b8
       1.162893e-06 5.5502092e-05 1.0298891e-05 -5.720446e-05
0001b0 47 e6 55 37 d5 0e 26 36 4f 2c b5 37 bc ae 1c 36
       1.2749405e-05 2.474456e-06 2.1597514e-05 2.334752e-06
0001c0 c9 c0 45 38 f5 6e 5c 35 71 ec 61 b7 f5 b3 ae 37
       4.7148005e-05 8.211785e-07 -1.3466096e-05 2.0826215e-05
0001d0 e4 15 a4 37 c6 1a 68 b8 34 d9 76 b7 1f 61 be b7
       1.9560517e-05 -5.5338045e-05 -1.4713314e-05 -2.269499e-05
0001e0 74 3b 70 b8 56 05 53 b8 f2 fc a6 b5 22 c0 fb 37
       -5.727583e-05 -5.031129e-05 -1.244158e-06 3.0011e-05
0001f0 cf 04 99 b7 06 b5 53 38 fc cb 1b 38 e2 a5 39 b7
       -1.824126e-05 5.047491e-05 3.7144855e-05 -1.1065482e-05

module.b_classifier.q.2.weight f4 [128, 128]
000000 d9 87 aa 34 c8 30 a4 37 64 c7 93 37 ab 69 a8 b6
       3.176381e-07 1.9573039e-05 1.7616614e-05 -5.0190915e-06
000010 99 6a 30 b7 23 d0 01 38 7f 12 b5 36 d8 6f 26 38
       -1.0515237e-05 3.094984e-05 5.3963736e-06 3.9681647e-05
000020 52 a0 77 b7 68 d6 ff 36 1e 0d 86 37 dd 29 b8 b7
       -1.4759675e-05 7.6245524e-06 1.5980153e-05 -2.1954003e-05
000030 5d ba 91 36 85 8b 7b 38 62 f9 6c b7 72 54 09 b8
       4.3430323e-06 5.9973e-05 -1.412476e-05 -3.274199e-05
000040 07 78 f3 b7 36 18 95 b7 a8 35 5e 34 4e b6 6a b8
       -2.902375e-05 -1.7773458e-05 2.0694881e-07 -5.5959732e-05
000050 b0 27 14 38 03 7f 44 37 a6 26 57 b8 81 2c 4f b7
       3.532291e-05 1.1712083e-05 -5.129599e-05 -1.2348523e-05
000060 5a 56 3d 38 5d b0 e3 35 4a d1 1f 38 34 f4 9a b7
       4.5141533e-05 1.6964146e-06 3.810347e-05 -1.8471947e-05
000070 84 5e 97 b7 ae d3 93 37 21 34 be b7 da 0e e3 b6
       -1.8044615e-05 1.7622337e-05 -2.267404e-05 -6.766856e-06
000080 d1 c3 01 38 fc b3 a4 b7 3d 75 09 38 0f cf 2f 37
       3.0938365e-05 -1.9634135e-05 3.2772532e-05 1.0479022e-05
000090 58 0d b6 37 59 3f 24 b8 c0 56 5b b7 be b2 6a b8
       2.1702304e-05 -3.9159644e-05 -1.3073615e-05 -5.5956414e-05
0000a0 10 11 58 b8 e0 3f a4 b7 60 2e 5c b7 48 73 91 b7
       -5.1514304e-05 -1.9580068e-05 -1.3123819e-05 -1.7339029e-05
0000b0 fe 4a 80 37 77 56 4a 36 4c 31 41 38 6d d1 48 37
       1.529371e-05 3.0150675e-06 4.6060697e-05 1.196969e-05
0000c0 b5 f0 d6 b6 5b e0 67 37 a1 ce 7b b6 dc 75 19 36
       -6.405719e-06 1.382091e-05 -3.7522188e-06 2.286738e-06
0000d0 33 71 96 b7 34 90 54 37 1b f4 5b b7 53 c3 61 b7
       -1.7934106e-05 1.266976e-05 -1.3110252e-05 -1.34565225e-05
0000e0 d6 eb 76 b8 9e 5b 60 38 52 77 3c b8 ab ac 2f b7
       -5.887061e-05 5.3491087e-05 -4.493382e-05 -1.0471015e-05
0000f0 d6 ac 67 b7 f6 82 19 38 07 f0 cb 37 38 eb e5 b7
       -1.3808914e-05 3.660001e-05 2.4311257e-05 -2.740846e-05
000100 c2 35 a0 38 1f e4 ad b6 42 cb d2 b7 81 1b 95 37
       7.639408e-05 -5.1823586e-06 -2.51286e-05 1.7774992e-05
000110 25 8b 23 37 ed fc 44 b6 cc d0 95 37 fe e9 06 b8
       9.747954e-06 -2.9353498e-06 1.7859413e-05 -3.216601e-05
000120 32 d5 a8 36 94 69 0c 38 c0 7f 78 38 cb 15 5f b7
       5.0316094e-06 3.347693e-05 5.9246784e-05 -1.329691e-05
000130 7a 0f 24 37 a6 e2 86 b7 0a 46 bc b7 70 a8 00 b8
       9.778765e-06 -1.6079586e-05 -2.2443961e-05 -3.0674448e-05
000140 23 17 73 b8 f2 d7 ac b7 24 7d 15 b8 2b 23 65 b7
       -5.7957262e-05 -2.0604555e-05 -3.5640915e-05 -1.3657652e-05
000150 17 cb 79 37 40 b7 98 b7 67 e5 c6 37 55 84 2a 37
       1.4888842e-05 -1.8205144e-05 2.3710263e-05 1.0163601e-05
000160 ed 25 c9 b6 38 9a fa 36 da 99 62 37 ae 18 18 b8
       -5.994682e-06 7.468534e-06 1.3506471e-05 -3.626261e-05
000170 af 7f 91 b7 fe 2a 35 38 c1 fd 6a 38 f1 5a 92 37
       -1.7344804e-05 4.3193802e-05 5.6026274e-05 1.7446904e-05
000180 d0 a6 0a 37 62 58 50 b7 04 dd 40 37 ca 84 86 b7
       8.26428e-06 -1.2418344e-05 1.1495551e-05 -1.603588e-05
000190 2f 2d 77 b8 58 b3 3f 37 2a 8d 09 b6 5c 2b 59 b8
       -5.893147e-05 1.1426244e-05 -2.049676e-06 -5.1777213e-05
0001a0 04 de 97 b7 92 6d b9 b3 d3 59 93 37 4a 5a 28 b6
       -1.8103987e-05 -8.6346645e-08 1.7565593e-05 -2.5086506e-06
0001b0 d7 80 89 b8 e5 e7 9a b7 d2 0c 02 38 75 0a 81 b8
       -6.556667e-05 -1.8466215e-05 3.1006355e-05 -6.153147e-05
0001c0 4a 48 c1 37 83 a8 87 37 93 cc 74 b7 31 c3 85 38
       2.3041055e-05 1.6171723e-05 -1.45911645e-05 6.3782914e-05
0001d0 67 b2 89 37 30 d9 70 37 a3 44 07 b8 20 bd a3 b6
       1.6414748e-05 1.4355683e-05 -3.225043e-05 -4.8797956e-06
0001e0 bd 25 9a b7 2a 8b 03 38 d1 ca 82 b7 da 80 54 38
       -1.8375804e-05 3.136244e-05 -1.5591651e-05 5.066474e-05
0001f0 43 72 3f b7 a4 7a 34 38 90 0e 17 b7 f0 a3 4a 38
       -1.1411091e-05 4.3029562e-05 -9.003692e-06 4.831323e-05
000200 56 62 7f b8 9f 79 be 35 fc f8 6c b8 84 a8 5b 37
       -6.088832e-05 1.41915e-06 -5.649867e-05 1.3092653e-05
000210 31 b5 26 b8 6d 89 21 b8 3f 4b 08 38 8e f9 fc b6
       -3.974623e-05 -3.851338e-05 3.2495005e-05 -7.5392372e-06
000220 cf 24 2e 37 8b 58 94 b6 ec 30 1b b8 8e 1d 09 b8
       1.0379778e-05 -4.4210515e-06 -3.700044e-05 -3.269087e-05
000230 c6 af 8d 38 59 43 1f 38 d9 7d e1 36 e8 b5 55 b8
       6.756144e-05 3.7971276e-05 6.720173e-06 -5.095257e-05
000240 a4 c6 5d 37 71 85 84 b7 ed 17 19 b8 c5 c2 07 b8
       1.3218876e-05 -1.5797765e-05 -3.6500325e-05 -3.23679e-05
000250 82 18 a5 36 e3 b8 2a b8 30 19 90 36 50 4a 62 b8
       4.9202363e-06 -4.0703348e-05 4.2944666e-06 -5.3951808e-05
000260 a7 06 a1 b6 32 3b 4d 38 ba e6 2a b8 b9 3a 1e b8
       -4.7989483e-06 4.893094e-05 -4.074604e-05 -3.7724825e-05
000270 91 c2 cf 37 48 94 1b b7 1f 81 77 35 a9 99 21 37
       2.4766925e-05 -9.273244e-06 9.2202566e-07 9.632125e-06
000280 f7 0b bd b7 5f 9b 55 b7 fd 73 c9 36 33 fa 18 38
       -2.2536127e-05 -1.27319645e-05 6.0037696e-06 3.647264e-05
000290 98 72 1b b8 16 2a af 36 d7 ad 3c 38 10 6b 67 35
       -3.7061604e-05 5.220306e-06 4.4984594e-05 8.621e-07
0002a0 b0 a7 18 b8 62 f5 1b b8 f8 da 92 b7 07 0a ca b6
       -3.6395795e-05 -3.718341e-05 -1.7506522e-05 -6.0212365e-06
0002b0 6f d2 b9 b7 b3 44 92 b7 f4 16 1e b7 16 07 81 b7
       -2.215171e-05 -1.7436547e-05 -9.422878e-06 -1.5381298e-05
0002c0 7d 26 a1 b7 63 91 10 36 bc 4c 87 35 35 d5 b5 b7
       -1.9210618e-05 2.1542298e-06 1.0080616e-06 -2.1676164e-05
0002d0 a5 c0 f6 b7 e6 0b 56 b8 44 2c f3 37 e5 11 81 38
       -2.9415192e-05 -5.1032657e-05 2.898847e-05 6.1545325e-05
0002e0 1a bd 21 38 34 b5 34 b8 7d 84 30 b7 07 32 4e b8
       3.8561506e-05 -4.3084103e-05 -1.0521265e-05 -4.916082e-05
0002f0 db 1a a0 b7 85 40 eb b7 25 8a 38 b7 c4 e7 a6 37
       -1.9085992e-05 -2.8044227e-05 -1.0999419e-05 1.9896666e-05
000300 9f c4 6c b7 c6 0d 4f 38 61 2e 27 38 7c 36 25 38
       -1.4112476e-05 4.9365473e-05 3.9859096e-05 3.9389808e-05
000310 a3 45 5e 38 f3 3f 88 37 91 08 a8 37 2b 6c eb b7
       5.299378e-05 1.6242242e-05 2.003115e-05 -2.8064553e-05
000320 d1 a2 a7 b7 cb 4e 42 37 cb 26 e8 37 ad db 03 38
       -1.9983769e-05 1.15816465e-05 2.767462e-05 3.1437423e-05
000330 3a 22 02 b8 d8 c4 9b 37 3e 0b 95 b8 93 eb c6 b7
       -3.102629e-05 1.8569102e-05 -7.106968e-05 -2.3713137e-05
000340 0b 06 fb 37 9d a2 4e 38 6b 21 26 38 5f 2a ea 37
       2.9924346e-05 4.9265673e-05 3.9608607e-05 2.7914704e-05
000350 5f f9 96 37 e4 84 95 b7 c8 7d 6a 38 37 59 80 b7
       1.7997516e-05 -1.7824066e-05 5.590709e-05 -1.5300333e-05
000360 4c ce 4e 37 93 0a 45 b7 57 a6 12 38 36 00 93 b7
       1.2326589e-05 -1.1744577e-05 3.496403e-05 -1.7523864e-05
000370 ea 00 2d b7 72 da da 37 fe df 00 37 91 3c 45 38
       -1.0311816e-05 2.6089347e-05 7.681547e-06 4.7024867e-05
000380 89 0b d3 37 bf ce af 37 dd 0b 90 37 b9 05 3f b7
       2.5158532e-05 2.09579e-05 1.7171662e-05 -1.138582e-05
000390 74 12 36 36 d8 7b 83 37 43 8c 62 b8 6a 44 93 37
       2.7130855e-06 1.5674086e-05 -5.4013228e-05 1.7555623e-05
0003a0 65 28 79 b7 c5 74 d7 36 cc b3 53 38 1c e1 d6 38
       -1.4850962e-05 6.421093e-06 5.047377e-05 0.00010246245
0003b0 fd 70 46 b7 a4 9a 04 38 84 da 02 b8 21 1b e9 b7
       -1.1828027e-05 3.1615273e-05 -3.1197924e-05 -2.7788397e-05
0003c0 4d 14 51 37 c0 01 81 37 84 62 76 37 f6 27 9b b4
       1.2462097e-05 1.5378813e-05 1.468568e-05 -2.8900075e-07
0003d0 ef 42 88 b7 41 14 96 37 39 fb 80 38 1b 22 c6 36
       -1.6243632e-05 1.7890825e-05 6.1503095e-05 5.9048302e-06
0003e0 92 05 01 38 47 02 c7 37 64 b9 f6 37 d6 d0 ae b7
       3.0761184e-05 2.372371e-05 2.9411814e-05 -2.0839663e-05
0003f0 b6 83 b8 37 8a b3 5a 38 99 af 8e 36 d0 61 77 37
       2.1995842e-05 5.214246e-05 4.252372e-06 1.4745121e-05

module.b_classifier.q.2.bias f4 [128]
000000 97 c1 08 b8 13 bd 1f 38 59 c4 11 b4 3d bb 92 b5
       -3.260522e-05 3.8084643e-05 -1.3575608e-07 -1.0932341e-06
000010 cf a5 72 37 78 00 fe 37 3c 76 e9 b6 21 6e 72 37
       1.4462929e-05 3.0279378e-05 -6.9577054e-06 1.4449965e-05
000020 24 78 b0 b7 fb 68 db b7 f6 45 8f 38 ff 45 85 37
       -2.103678e-05 -2.615572e-05 6.8318026e-05 1.588743e-05
000030 fd ec 57 37 92 d7 6b b8 8c 2c 02 b8 83 2e c6 36
       1.2870177e-05 -5.622913e-05 -3.1035903e-05 5.9062745e-06
000040 d7 21 a9 b7 3d 94 3a 38 45 f9 84 b7 dc 46 73 37
       -2.0162128e-05 4.4483913e-05 -1.5851701e-05 1.4500427e-05
000050 65 b1 8d 38 1a 11 42 b8 89 7a 80 36 08 a5 f4 37
       6.756446e-05 -4.626913e-05 3.8289622e-06 2.9163915e-05
000060 50 9a c3 b6 2f 92 be 37 96 5f 36 b7 11 66 6a b8
       -5.829417e-06 2.2717837e-05 -1.0870301e-05 -5.5885004e-05
000070 ca d1 10 b7 33 f3 55 b7 7f 17 0f 38 7a 01 86 38
       -8.631914e-06 -1.2752414e-05 3.411574e-05 6.389893e-05
000080 25 5f c9 b7 7c 97 f9 b6 1d 17 ec 37 67 68 69 b7
       -2.4005372e-05 -7.4384134e-06 2.8144155e-05 -1.391219e-05
000090 7a 05 1e 37 bc 5f 53 b8 58 ad 9b 37 82 b7 3a 38
       9.418809e-06 -5.039548e-05 1.855816e-05 4.451676e-05
0000a0 bb 79 b7 37 b3 79 4e 37 e3 47 75 37 c2 63 31 b8
       2.1871985e-05 1.2306892e-05 1.4619875e-05 -4.2292995e-05
0000b0 6d aa 61 b8 7a 2a 9e 37 cb be 31 37 21 20 c7 b7
       -5.38029e-05 1.8854847e-05 1.0594445e-05 -2.373761e-05
0000c0 97 ef 89 37 58 99 42 38 ec e5 f1 37 ee e3 68 38
       1.644324e-05 4.6396017e-05 2.8836504e-05 5.5525386e-05
0000d0 bd a7 1b b8 b4 57 51 b8 8d b1 f3 37 ab 54 97 b6
       -3.71111e-05 -4.9911163e-05 2.9050536e-05 -4.5100073e-06
0000e0 3a ad 2b b8 e6 5d 34 37 e5 98 5a 37 71 b6 ec b7
       -4.0930907e-05 1.07506985e-05 1.3029411e-05 -2.8218348e-05
0000f0 27 1e 79 36 41 51 05 38 18 b8 5a 38 6b fd d9 36
       3.7121442e-06 3.1785345e-05 5.21467e-05 6.4966057e-06
000100 9d c4 5c 37 8b 09 92 37 7d 7e 04 b7 d2 a3 3e b7
       1.3158799e-05 1.7409e-05 -7.8972635e-06 -1.1363025e-05
000110 40 26 bc b6 d5 ee 20 b6 5e 35 9c b7 65 68 7b 37
       -5.6072895e-06 -2.3980876e-06 -1.86215e-05 1.4985072e-05
000120 cf 47 cd 34 88 a6 b2 37 9f 8f 85 b7 4d bb 03 b8
       3.8236473e-07 2.12968e-05 -1.5921714e-05 -3.140727e-05
000130 42 e7 c3 38 40 61 4b b6 60 1f 21 b7 39 7e 70 38
       9.3414e-05 -3.0305964e-06 -9.603653e-06 5.7338013e-05
000140 12 24 36 b6 8a 76 a3 b7 18 20 85 37 2f 30 78 38
       -2.714111e-06 -1.9486313e-05 1.586978e-05 5.9172682e-05
000150 94 1c 87 b8 f5 67 9a b5 eb 85 f1 36 7b 3c dc b7
       -6.442625e-05 -1.150415e-06 7.19795e-06 -2.6254207e-05
000160 21 95 92 b8 92 c4 5d 37 e1 b7 8f b7 b4 dd 5e 38
       -6.9896e-05 1.3218394e-05 -1.7132554e-05 5.31354e-05
000170 70 93 70 b7 5e c3 56 37 68 c5 5b b8 bc a9 13 38
       -1.4339443e-05 1.2800881e-05 -5.2397518e-05 3.520561e-05
000180 df 72 a7 38 db 30 80 37 b3 c4 5d b4 11 98 82 37
       7.984577e-05 1.528154e-05 -2.0653788e-07 1.5568019e-05
000190 87 32 44 b8 c0 ae 0a 37 c2 17 42 b8 c0 ee 5d 38
       -4.67771e-05 8.266128e-06 -4.627533e-05 5.291286e-05
0001a0 b8 07 11 38 1c 39 39 37 3e 68 86 37 45 64 1e b7
       3.4577883e-05 1.1040156e-05 1.6022586e-05 -9.44088e-06
0001b0 7a a5 32 38 80 b9 4b 37 7f f3 e5 b6 3a a7 a2 38
       4.259262e-05 1.2142933e-05 -6.8530785e-06 7.75591e-05
0001c0 58 7c 8a b8 3b 07 61 b7 8b 42 ae b6 b8 7f 94 b5
       -6.6035136e-05 -1.3412729e-05 -5.1933507e-06 -1.106403e-06
0001d0 b7 39 8f b7 a8 5b ad b7 1a 02 4b b7 d3 80 3b b6
       -1.7073804e-05 -2.0665888e-05 -1.2100232e-05 -2.7940157e-06
0001e0 1d bf d6 37 4a bd 96 b7 ac 52 82 37 3b 55 8f 37
       2.5599782e-05 -1.7969538e-05 1.5535705e-05 1.7086617e-05
0001f0 4f c6 7c b7 3f a2 85 37 f3 6d 01 b8 35 a5 15 38
       -1.5066543e-05 1.5930387e-05 -3.0858395e-05 3.567823e-05

module.b_classifier.fcc.weight f4 [2, 2, 512]
000000 6b 46 f9 3c ca 10 fa 3c f6 10 70 bb b9 40 26 3c
       0.030429086 0.030525584 -0.0036631203 0.010147267
000010 ec 6b 00 3c 20 d1 e4 bc 72 11 2b 3c 5b f9 2e bc
       0.007838231 -0.02793175 0.010441171 -0.010679568
000020 13 ec 64 3c 5b ea 42 3c 13 e2 9c 3c 8e a8 0c 3d
       0.0139723 0.011896695 0.01915077 0.034340434
000030 c9 3d 44 bc 91 68 3c bb 87 f0 b1 bc 39 7e 92 3a
       -0.011977621 -0.002874885 -0.021721138 0.0011176533
000040 3a 23 4d bc df 21 b6 3c e3 e8 ae 3c 3b 7b 0b 3d
       -0.012520606 0.022232948 0.021351283 0.03405307
000050 82 28 f5 3c 6b 4c 8f bc 7a c2 ef bb 59 17 8d 3b
       0.029926542 -0.017492494 -0.0073168846 0.004305762
000060 68 69 44 bc 62 e7 cb 3c 65 8d ce 3c 5d ea c4 bc
       -0.011988021 0.024890605 0.025213907 -0.024037534
000070 8e ba 74 3c 5b e8 cf 3c 18 a7 0b 3d f9 e0 c9 3c
       0.014937056 0.02537935 0.0340949 0.024643408
000080 53 e2 ef bb 9c c5 84 bc 3f 4f 34 3c 90 97 d6 3c
       -0.007320681 -0.016207509 0.011005222 0.026195318
000090 3f 61 ea bb 99 bb b0 3c 11 8f 52 bc ba a9 09 3c
       -0.007152706 0.021573829 -0.0128514925 0.008402282
0000a0 3f dc a1 bb d4 5d 05 bc b8 ed 25 bb 1f d0 a8 bc
       -0.0049395855 -0.008140046 -0.0025318693 -0.020607052
0000b0 d7 b2 eb bc c4 f6 30 bb 52 81 2c bc 79 10 fa 3c
       -0.0287718 -0.0027002553 -0.010528879 0.030525433
0000c0 6c b9 f9 3c 4c 59 8a 3c 74 3e 80 bc cf b5 9d 3c
       0.030483924 0.016888283 -0.01565478 0.019251732
0000d0 02 b3 bc 3c d7 61 94 3c d0 c5 25 3a 95 2d b5 3c
       0.023034576 0.01811306 0.0006323727 0.022116462
0000e0 c4 9c 95 bc cc 83 61 3b ce 7a 01 3d 99 5d 7b 39
       -0.018263228 0.0034410832 0.031611256 0.00023972093
0000f0 1a 7d 04 3c 76 4d 98 bb f4 7a 82 bc fe 9e e0 3c
       0.008086467 -0.004647906 -0.01592777 0.027419563
000100 ce 63 0c 3d 61 a9 5d 3b cf 59 ce bc 10 6e e4 3b
       0.03427487 0.0033822882 -0.025189308 0.0069711283
000110 93 8d ee bb 60 bc ae ba 12 c7 9e bb 7c 62 b2 bc
       -0.0072800606 -0.0013331287 -0.0048455084 -0.021775477
000120 1d 8f 1c bc ae 22 fa 3c ab 99 af bc 1d 41 8b bc
       -0.009555605 0.030534115 -0.02143558 -0.016998822
000130 ab f4 6a bb 35 ec a7 3c 18 60 10 3b c3 5b b4 bc
       -0.00358514 0.020498374 0.0022029933 -0.022016412
000140 0b a7 07 3d 0b b8 ef bc ff c1 82 39 7c 0d d6 bc
       0.03311829 -0.029262563 0.0002494007 -0.026129477
000150 42 71 e2 3b 96 60 ba 3c af eb 00 bb 4b 7b 0c bc
       0.006910474 0.022751134 -0.0019671728 -0.008574317
000160 b7 f2 da bc fd 21 b7 3c 8a 94 ac bc 45 77 1f bc
       -0.026727064 0.022355074 -0.021066923 -0.009733026
000170 66 1d 0e bc 06 c5 a9 3c 66 2c 17 bc b2 4a 14 3c
       -0.008674001 0.02072383 -0.009226894 0.009051012
000180 04 45 d3 bc f6 1b 77 bc 99 99 8d 3c a6 bb 81 bc
       -0.025789745 -0.01508235 0.017285155 -0.015836548
000190 65 6e b0 bc 1d a4 4d 3b d6 09 3a 3c 2c 91 9a bc
       -0.021537015 0.0031378337 0.011354884 -0.018868051
0001a0 f9 51 be bb 25 75 8e 3c 73 69 2c 3c c3 7c 0b 3d
       -0.0058081117 0.017389843 0.010523188 0.03405453
0001b0 68 00 0c 3d 95 80 9b 3c 02 18 ba bc 6e 32 8d bc
       0.034180075 0.018982211 -0.022716526 -0.01723596
0001c0 df 47 9c bc 83 fe ce 3c 0c 21 61 3c cb b1 11 3d
       -0.01907724 0.025267845 0.013740789 0.035569947
0001d0 1c c1 4c 3b 31 fb d9 3b e7 93 36 3c ce 08 aa bb
       0.0031243032 0.006652259 0.011143661 -0.005189038
0001e0 59 77 45 bc 17 25 e3 3b 49 12 01 3c df 11 cb bc
       -0.0120523805 0.0069319117 0.007877895 -0.024788795
0001f0 da 12 0f bc b4 05 b9 3c 51 b5 d3 3c 21 d4 0f 3d
       -0.008732522 0.022585727 0.025843294 0.03511441
000200 88 a5 3b b9 04 f2 a4 bc d4 97 af bb bc d4 ba bb
       -0.00017895375 -0.020134933 -0.0053586755 -0.0057016294
000210 1a 44 df 39 db 45 9b 3c 1f 81 88 bb 82 44 c2 bc
       0.00042584614 0.018954208 -0.004165783 -0.023714308
000220 9e 45 5f 3c 27 2f 01 3b 18 b7 eb 3c 9e 78 c1 3c
       0.013627438 0.0019711943 0.02877383 0.023617085
000230 94 aa 9f 3c de f1 09 bc 78 da 3c bc 8f 4e da 3c
       0.019490518 -0.008419482 -0.011526696 0.026648788
000240 b7 6a 9a 3c f8 a6 c3 bc 5c 4b d8 3b 17 4b 4e bc
       0.018849714 -0.023883328 0.0066007804 -0.012591145
000250 80 a5 e7 3b 6f 7a 8d bc f1 4c 0a 3d e9 4d 5a bc
       0.0070692897 -0.017270295 0.033764783 -0.013324239
000260 43 a7 14 bc 95 b8 e0 bb 3a 20 ea 3b 9b da 3a bc
       -0.009073081 -0.0068579414 0.007144955 -0.011404659
000270 8a 27 e4 3c 3e ff bf bc 05 bd 14 3c a8 9a 3c bc
       0.027850885 -0.023437139 0.009078269 -0.011511482
000280 0f 15 25 bc 78 07 cb 3c 9a a1 8f bc 63 77 79 bc
       -0.010075822 0.024783835 -0.017533112 -0.015226218
000290 84 65 4b bc 93 fd c8 3c 3d 2b c2 3b 6c 9d c6 3c
       -0.01241434 0.024534976 0.0059255646 0.024244986
0002a0 1d d4 c2 bc 4a 1a aa 3c 95 d6 80 3c d1 08 b3 3c
       -0.023782784 0.020764489 0.01572732 0.02185479
0002b0 b3 41 f7 3b fe 8b 9d 3c 4d 84 97 3c c4 18 cb bc
       0.0075456738 0.019231793 0.018495703 -0.024792083
0002c0 63 fe 1f 3c fb 60 61 bc e9 b4 91 3c 78 45 ea bc
       0.00976524 -0.013756032 0.01778646 -0.028597578
0002d0 6e 3a c7 3a 41 33 eb 3c 59 ae b7 3c 75 ee b7 3c
       0.0015199909 0.028710963 0.022422003 0.022452572
0002e0 02 97 db ba f5 8d c9 bc f6 bb 02 bc b4 e0 e7 bc
       -0.0016753378 -0.024603823 -0.007979384 -0.028305389
0002f0 25 b2 91 bc a9 c9 1b 3b 39 d4 cc bc d2 fb f0 bb
       -0.017785141 0.0023771322 -0.02500354 -0.007354238
000300 ed 32 0f bc 98 a1 36 3c 03 43 83 3c 90 a6 d3 3c
       -0.008740169 0.011146925 0.016023165 0.02583626
000310 74 45 ae bc df 10 f6 3c 49 94 a7 bc 60 db dd 3c
       -0.021273352 0.030037342 -0.02045645 0.027082145
000320 be d3 99 bc 63 2d dd 3c 9b 6d b0 bc 64 21 d7 3b
       -0.018777724 0.026999181 -0.021536639 0.00656526
000330 2b da db 3c 13 58 7f bb 36 3f 5a 3c 3d 7e 0d bc
       0.026837429 -0.0038962408 0.013320735 -0.008636055
000340 27 88 df bc 0c 59 7d 3b 34 93 90 bc f0 ff 76 3c
       -0.027286602 0.0038657812 -0.017648317 0.015075669
000350 ca 8a 5d bc 55 0a ba bb 04 b4 b1 bc 39 41 a0 3b
       -0.013521859 -0.005677501 -0.021692283 0.0048905876
000360 36 6f cf bb ca 3a 7f bc c1 da 0b 3b 57 e0 93 3c
       -0.006330396 -0.015577981 0.0021340104 0.01805131
000370 ea 5d 1d ba f1 50 be 3c 25 49 7d 3c 63 a0 a6 3c
       -0.0006003069 0.023231955 0.015459334 0.02034015
000380 d5 50 ab bc 7a 7d f1 3c 19 67 fc 3c 6e 90 b1 bb
       -0.020912567 0.029478777 0.03081088 -0.0054188287
000390 50 86 4d 3c 8e ce 9c 3c 09 fb cf 3b 6d 84 7b ba
       0.01254423 0.019141462 0.0063470644 -0.0009594623
0003a0 e0 66 c6 bc 3e dc 2d 3a 3e 3d ce bc a9 4e 59 3c
       -0.024218976 0.0006632245 -0.025175687 0.013263383
0003b0 92 b0 32 3c 64 56 1a bc e7 0a 7e bc 06 3e dd bc
       0.010906355 -0.009420011 -0.015505529 -0.027007114
0003c0 97 78 b8 bc 76 fd c5 bc ee d1 11 3d fb 62 f1 bb
       -0.02251844 -0.024168711 0.035600595 -0.0073665357
0003d0 56 92 be bc a4 de 25 3c 7f 1d dc bc af 75 f2 bb
       -0.023263138 0.010123882 -0.026869534 -0.007399283
0003e0 6d 47 cb b8 e7 57 a4 bb de 8d 63 3c 7c 86 0f bb
       -9.6930984e-05 -0.0050153616 0.013888804 -0.0021900227
0003f0 17 56 1f 3c b1 06 90 3b 9d 58 93 3c 36 33 3b bb
       0.009725115 0.004395329 0.01798659 -0.002856446

module.b_classifier.fcc.bias f4 [2]
000000 2b 2f 43 bc 3c 04 95 bc
       -0.011913101 -0.018190496
