processing/mil classifier/hyperparam_select_batch_6/weights/05142023/3.pth (torch, 343887 bytes, 8 tensors)

module.i_classifier.fc.0.weight f4 [2, 512]
000000 d9 7a 8e 3a 13 19 8d 3b 62 cd 5e bc f9 c1 60 3c
       0.0010870352 0.0043059676 -0.013598772 0.013718122
000010 73 0a d1 bc 80 40 fd bb e0 9b d5 3c 12 18 3d 3d
       -0.025517678 -0.0077286363 0.026075304 0.046165533
000020 95 39 3d 3c b7 6a 6d bc 07 3b e2 3b d3 05 3d ba
       0.011549373 -0.014490775 0.0069040093 -0.00072106457
000030 03 e1 02 3d 22 44 be 3b eb 94 9d 3c 20 ed 4f 3d
       0.03195287 0.005806462 0.019236049 0.05076325
000040 d5 30 0d bc 70 aa 3c 3a 43 04 44 3c d6 86 de 36
       -0.0086175995 0.0007197028 0.011963907 6.6318125e-06
000050 d0 d6 08 ba 79 da 1d bd c8 4d f6 bc b0 83 23 bd
       -0.0005219998 -0.03853843 -0.030066386 -0.03992051
000060 ca c8 1e bd 73 80 2f bd a7 86 04 bd 2a 33 23 bd
       -0.038765706 -0.042847108 -0.032354977 -0.039843716
000070 f8 ba 29 bd d4 23 d2 3c 81 d4 10 3d c5 9c fc 3c
       -0.041438073 0.02565185 0.03535891 0.030836472
000080 8f 69 db 3c fa 21 a3 3c 91 c1 f5 3c 63 a6 b4 bc
       0.026783733 0.019913662 0.029999526 -0.022051996
000090 9c 74 4c 3d 2f 0a 37 bb 90 03 2b 3d dc 67 ae 3c
       0.049915895 -0.0027929654 0.041751444 0.021289758
0000a0 97 93 1b 3d ea 85 15 3d 44 2c 0c bc 1d 61 59 bc
       0.03798255 0.036504664 -0.008555476 -0.0132677825
0000b0 95 c1 2f 3c 8d 6b 8f 3b d8 b5 3c 3c e9 60 cd 3c
       0.010727306 0.0043768347 0.011517964 0.025070624
0000c0 1a b5 02 bd 78 7e d9 3b 86 55 01 bd 87 57 31 3d
       -0.031910993 0.0066373907 -0.031575702 0.043296363
0000d0 cd f2 d8 bc ae da 27 3c e1 55 88 bb 16 49 e3 3c
       -0.026482964 0.010245008 -0.004160628 0.027744811
0000e0 80 d8 01 3b 4d 8b 79 bb 98 82 11 3d 49 c4 43 3d
       0.0019812882 -0.0038077415 0.035524935 0.047794614
0000f0 da a1 a6 bc eb 54 0c bd 69 0f 03 3c 8a 6a 97 3c
       -0.020340849 -0.03426067 0.00799928 0.018483419
000100 10 5f 78 3c bc a3 38 3d 6f d9 d5 3c 64 24 4c bc
       0.015159383 0.045078024 0.026104657 -0.012459848
000110 bc ee ed bc 15 17 32 3d 86 26 47 3d 85 8f 8e bc
       -0.029044501 0.043479044 0.048620723 -0.01740242
000120 de 66 a6 bc df c6 c4 3c 76 d7 ea bc bb d7 ee ba
       -0.020312723 0.02402061 -0.028667193 -0.0018222252
000130 ba 07 19 bd 8a ac 9f 3c 1f 0a 2f bc 85 85 d8 bc
       -0.037360884 0.019491453 -0.010683565 -0.026430855
000140 1f f7 cb bc a3 7f 52 bc 09 26 dc 3c f3 f9 e0 3a
       -0.02489811 -0.012847814 0.026873605 0.0017164334
000150 82 a2 23 3d a4 ec 47 bc 5f 77 b1 bb 2f cf 48 3d
       0.0399499 -0.012202416 -0.0054158415 0.04902571
000160 d6 bf 12 bd 6c f3 64 bc b3 c9 bc bc 31 15 35 3d
       -0.03582748 -0.013974052 -0.023045396 0.044209663
000170 da 01 f0 3c ae 95 5d bc 2f 81 a3 bc 21 4b 90 3c
       0.029297758 -0.013524456 -0.01995906 0.01761395
000180 0f cb 25 bc d9 78 92 3c 2c c7 74 bc 7b ab c9 bc
       -0.010119214 0.01787989 -0.014940064 -0.024617901
000190 41 fb 93 b9 1b 5f 04 3d 4c e1 2e 3d d1 3a 4b 3c
       -0.00028225224 0.032317262 0.04269533 0.01240416
0001a0 8d 38 9d bc fa 50 ee 3c aa dc c7 3c 42 56 d7 3c
       -0.019192005 0.029091347 0.024397213 0.026286248
0001b0 56 11 1a bc 29 71 8b 3b 2f 0e 9c 3c 3b e5 c3 3c
       -0.009403547 0.004255433 0.019049732 0.023913017
0001c0 b3 62 03 3d 46 75 7e bc 21 8a 10 3d b9 7b 14 bc
       0.03207655 -0.01553089 0.03528798 -0.009062701
0001d0 a3 88 34 3c 80 b9 5b bc 4a 54 28 bb ce a8 0e 3d
       0.011018905 -0.013410926 -0.0025685006 0.034828953
0001e0 45 4b 1e 3d ab b3 a2 3c 22 04 f7 bc 20 71 5d bc
       0.038646 0.019861063 -0.030153338 -0.013515741
0001f0 62 10 0f 3d f1 8f af bb c2 e5 02 bd 3f 7d a9 3c
       0.034927733 -0.0053577353 -0.031957395 0.020689605
000200 37 eb 17 bd a3 22 f9 3b 51 c9 c3 3b f2 ea 87 3b
       -0.037089553 0.007603006 0.0059749265 0.0041478807
000210 38 bd 04 bc c5 e0 33 3c f0 10 d3 bc 0a 54 b8 bc
       -0.008101754 0.010978882 -0.025764912 -0.02250101
000220 01 79 ba 3c 74 99 2b 3d f4 e0 fc bc 67 fb 1d bd
       0.022762777 0.04189439 -0.030868985 -0.038569834
000230 ab 0a 47 bc f4 af 42 3d 83 1c 3a 3d 3c 4f 12 bd
       -0.01214854 0.047531083 0.045437347 -0.035720095
000240 d8 6a 71 3c 53 c1 66 3c 6c 45 2c 3d 2b 67 20 bc
       0.014734946 0.014084178 0.042058393 -0.009790222
000250 9e 6b b8 3c e9 e0 76 bc 34 a4 17 bd e5 26 db 3b
       0.022512253 -0.015068271 -0.03702183 0.006687986
000260 e8 72 88 bc 44 3d c5 ba e6 bb 2a bc 34 fc f7 bc
       -0.016656354 -0.0015048166 -0.010420775 -0.030271627
000270 9e 5d 0d 3d 5e de f4 3c 3d 0c 14 3d 2c 66 47 3c
       0.03451311 0.02989119 0.036144484 0.012170356
000280 57 52 1f bd 8a ee e0 bc 44 66 b0 bb e0 9e ee 3b
       -0.038896885 -0.027457494 -0.0053832848 0.007282123
000290 c9 3c 05 bd 45 6c 0e 3d 4b ca e0 bc a4 a4 c6 3b
       -0.032528672 0.034771223 -0.02744021 0.006062107
0002a0 2a 17 26 bd 43 65 77 3c 5f b1 3e 3b f2 3a 03 3d
       -0.040549435 0.015099826 0.002909742 0.032038637
0002b0 f9 f1 e6 3b 72 c5 f3 bc 8b cc 42 3d ca fd 17 bd
       0.0070478884 -0.029757235 0.04755835 -0.037107266
0002c0 ca 42 a0 3c 45 e1 c3 bc 55 ba c2 3c 9e d8 78 3c
       0.019563098 -0.023911128 0.02377049 0.015188364
0002d0 39 4f 49 3c 88 43 e2 bb 3b b6 34 3d 54 95 56 3d
       0.012286955 -0.006905023 0.0441191 0.052388504
0002e0 0b 1e 0f 3b 65 1c 41 bc d6 86 d9 3b 81 f9 0b 3d
       0.0021837975 -0.011786555 0.006638388 0.034173492
0002f0 ee e2 2c 3d 38 01 31 3d 8d ce bb 3c a9 32 36 3c
       0.042208605 0.043214053 0.02292564 0.011120477
000300 85 16 d9 bc 67 e9 b2 bc 46 28 02 3d d7 34 0f bd
       -0.026499996 -0.02183981 0.03177669 -0.0349625
000310 10 3f d1 3a e4 a3 24 3d 22 e8 15 bd da db d2 bc
       0.0015964229 0.04019536 -0.036598332 -0.025739599
000320 db 8f 1c bd 18 e0 c2 3c ee 45 78 3c 4f b5 f8 3c
       -0.03822313 0.023788497 0.015153391 0.030359892
000330 d3 f2 b2 ba dd 04 5f bc 2f f0 3c 3d d4 38 e7 bc
       -0.001365269 -0.013611999 0.046127494 -0.02822534
000340 f2 6f aa bc 88 04 f5 3c e9 81 33 3d bd aa 7a bc
       -0.020805333 0.029909387 0.043825064 -0.015299496
000350 6f 66 2a bd 4b fb 8c 3b 72 52 c1 3b d1 32 82 3c
       -0.041601595 0.0043024174 0.005899721 0.015893372
000360 94 94 f4 3c e4 de 99 3b 1b 59 be bc 89 33 26 bb
       0.029856004 0.00469576 -0.023235848 -0.0025360307
000370 72 b7 de 3c fb 79 61 3c 2c dc 07 bd 75 b5 fe ba
       0.027187083 0.013761993 -0.033168957 -0.001943274
000380 2d 83 5c bb ee ec 0c bc 86 cf d0 3c d4 f8 cd 3c
       -0.0033647523 -0.00860141 0.02548958 0.025143065
000390 55 0c 26 3d a7 df 24 3d be 7f 55 3b 51 37 07 bd
       0.040539104 0.040252354 0.003257736 -0.03301174
0003a0 d3 d1 a8 3c cd f5 c0 3c a8 81 de 3c a6 99 0e 3d
       0.020607864 0.023554707 0.027161434 0.0348145
0003b0 e5 9a da 3c 8b 8d 18 3c 9e 50 6d 3b 26 ef e1 3c
       0.026685188 0.00931109 0.0036211382 0.027579855
0003c0 ca 9d 0d bd bc 9d d3 3c 56 68 c7 3c c6 0b 47 3c
       -0.034574308 0.02583205 0.024341743 0.012148803
0003d0 bb 28 1a bc a7 37 8e 3c d7 2b 6d 3c d6 a3 2a bd
       -0.009409125 0.017360521 0.014475784 -0.041660152
0003e0 73 0c 83 bc 03 26 b7 3c 47 86 cb bc 45 93 3c bc
       -0.015997147 0.022356993 -0.024844302 -0.011509721
0003f0 b6 6c e6 3c 96 98 d1 3c fc a5 03 bd b7 67 c5 3c
       0.02812801 0.025585454 -0.032140717 0.024097307

module.i_classifier.fc.0.bias f4 [2]
000000 e4 fe 6f bc ea c6 07 3d
       -0.014648173 0.033148684

module.b_classifier.q.0.weight f4 [128, 512]
000000 e6 50 d6 37 01 99 ec 36 56 1d 54 b7 44 0e a5 37
       2.554846e-05 7.05116e-06 -1.2643015e-05 1.9676176e-05
000010 dd d5 9a b7 35 77 95 37 fd 6f f1 37 0c 56 a1 37
       -1.8457818e-05 1.7817694e-05 2.8781587e-05 1.9232764e-05
000020 72 ad 13 38 5a 49 1f 38 9d 50 8a b7 cd 36 25 b7
       3.5209065e-05 3.7976868e-05 -1.648842e-05 -9.847526e-06
000030 78 f2 7c b8 4d b2 55 b7 7d 09 dd 37 60 d3 c9 37
       -6.03073e-05 -1.2737303e-05 2.6349671e-05 2.4059496e-05
000040 66 8c 23 38 d0 eb 98 38 a4 89 1d 37 53 41 9f b7
       3.8992985e-05 7.291848e-05 9.389976e-06 -1.8984696e-05
000050 1d 41 9f 38 b6 40 8f 38 29 e4 3d b6 04 53 83 37
       7.593839e-05 6.830825e-05 -2.8296001e-06 1.5655074e-05
000060 4a e2 8c 37 24 f0 96 b8 72 3b b9 38 e0 f0 a6 37
       1.6794675e-05 -7.197287e-05 8.83256e-05 1.9900908e-05
000070 59 6a 7c 37 dd eb 95 b7 f5 5a a3 37 bc 00 c4 37
       1.50451315e-05 -1.7872017e-05 1.947347e-05 2.3365363e-05
000080 81 bd 2f 37 7a 8d 2c 38 12 74 14 37 bf 45 20 b8
       1.0474935e-05 4.1139756e-05 8.848512e-06 -3.821193e-05
000090 99 cc 11 b7 7e 57 d4 33 2f 2b 7d b7 08 7b c1 36
       -8.69031e-06 9.887934e-08 -1.509003e-05 5.766171e-06
0000a0 d4 16 80 37 32 0d 5c 37 cf fb 1c b5 c9 36 5a 38
       1.526942e-05 1.3116094e-05 -5.848096e-07 5.2026273e-05
0000b0 b4 6a 1d 37 48 27 d1 35 c8 38 0f b8 97 21 5b b8
       9.382773e-06 1.5583146e-06 -3.414674e-05 -5.224495e-05
0000c0 d2 b7 9b 38 2a 2f ab b6 a2 ac b3 38 13 9e b4 b7
       7.425215e-05 -5.1016877e-06 8.5675405e-05 -2.1531281e-05
0000d0 30 5d 0b b7 8c eb 3c 37 1b 0e 8f b8 9f 1a 9a 37
       -8.3067425e-06 1.1260516e-05 -6.821399e-05 1.8370627e-05
0000e0 7c ef 8e 38 5e 43 c4 36 2e 7e 9f b7 4b d0 94 b7
       6.815695e-05 5.8490978e-06 -1.9013034e-05 -1.7739969e-05
0000f0 33 2d 65 38 6a f7 45 36 20 52 36 35 7f 8c 25 37
       5.463995e-05 2.9499301e-06 6.791979e-07 9.867478e-06
000100 6d f2 9b 38 51 8a ad 37 7c b5 5b b6 44 f4 ad b7
       7.436131e-05 2.0687616e-05 -3.273918e-06 -2.0736952e-05
000110 58 f0 29 b7 cb c9 0a 38 a6 af cd b7 f2 66 cc 37
       -1.0129144e-05 3.30897e-05 -2.4519697e-05 2.4366633e-05
000120 45 ac d1 b5 74 c7 70 37 94 34 e2 35 4d 04 4d 38
       -1.562185e-06 1.4351554e-05 1.6853614e-06 4.8879814e-05
000130 17 b1 40 37 27 df 9f b7 21 b6 1a 37 8e 4d 94 37
       1.1485324e-05 -1.905819e-05 9.2215205e-06 1.7679089e-05
000140 33 a2 8b b7 2b 38 98 37 b1 db 6f b7 bf 81 26 b7
       -1.6645621e-05 1.8145967e-05 -1.4296661e-05 -9.92458e-06
000150 e7 eb 83 b8 50 1d a0 b6 0d f5 3b 37 47 30 d6 b6
       -6.290507e-05 -4.771784e-06 1.1203124e-05 -6.383317e-06
000160 0f 28 01 38 49 73 fd b7 5f dc ad b5 a6 88 7a b7
       3.0793304e-05 -3.0213634e-05 -1.2953641e-06 -1.4932977e-05
000170 51 7a 8f 37 37 fd b6 b7 c2 0d 9c 38 25 79 8b b7
       1.7103886e-05 -2.1814003e-05 7.441222e-05 -1.6626504e-05
000180 6d e8 13 b6 10 8e 8d b7 ef 70 91 b8 c9 9f 65 38
       -2.2039997e-06 -1.6874663e-05 -6.935174e-05 5.4746666e-05
000190 f1 1f 84 b7 cd 03 31 37 ee ce 43 37 aa 21 c4 b8
       -1.57505e-05 1.0550907e-05 1.1671085e-05 -9.352279e-05
0001a0 6d dc a5 b8 51 89 8d b8 18 0b 9a 38 20 a3 c8 b7
       -7.9088706e-05 -6.748981e-05 7.3453586e-05 -2.3917819e-05
0001b0 8b 6a a3 36 a9 a2 bf 37 16 b4 c4 b6 7d 18 33 37
       4.870182e-06 2.2844719e-05 -5.86222e-06 1.0674933e-05
0001c0 af fd 5f 38 b4 2e 5e b7 f8 ee 08 36 9a ca c7 38
       5.3403604e-05 -1.3243105e-05 2.0404677e-06 9.526797e-05
0001d0 7d 77 ce b7 85 d7 5c 38 0d b3 a3 b7 a4 a6 65 b8
       -2.4612755e-05 5.2652806e-05 -1.9514491e-05 -5.475305e-05
0001e0 4a 51 54 37 c9 25 86 38 b9 7e bd 38 b2 76 dc 36
       1.2655111e-05 6.396656e-05 9.035826e-05 6.570329e-06
0001f0 3d dd 25 b8 e0 3e 1a b7 0c f1 20 b7 45 a3 76 b8
       -3.954511e-05 -9.1937545e-06 -9.592866e-06 -5.8803027e-05
000200 ca 59 64 b7 e6 26 eb b7 27 6f 0d b8 ad 9f 2a b6
       -1.3610765e-05 -2.8032297e-05 -3.372054e-05 -2.5424918e-06
000210 0e 2f 8a 34 41 57 1e b8 6b 93 fb 37 ff 9f ac b7
       2.573874e-07 -3.7751397e-05 2.9990179e-05 -2.0578502e-05
000220 6e 4f 61 38 2f 05 f3 36 3a 93 13 b8 3b 32 e0 37
       5.3718155e-05 7.242568e-06 -3.5184647e-05 2.6726271e-05
000230 0f 02 76 38 ff dc ed b7 f0 7c a0 37 de 50 7a 37
       5.8652888e-05 -2.8355511e-05 1.9131665e-05 1.491999e-05
000240 d8 e5 5a 37 a3 c1 45 38 c7 99 7b 38 9b b9 98 37
       1.3047327e-05 4.71488e-05 5.998628e-05 1.8206241e-05
000250 62 90 49 37 f6 50 c1 37 71 47 b5 b5 98 83 96 b7
       1.201415e-05 2.3045093e-05 -1.3506343e-06 -1.7942672e-05
000260 3f 87 64 37 66 28 3b b7 74 9f a1 36 85 34 52 b7
       1.3621348e-05 -1.1155475e-05 4.8167367e-06 -1.2529204e-05
000270 d5 fd 27 36 b0 3e df 37 5a aa f3 37 b2 d9 27 38
       2.503269e-06 2.6612863e-05 2.9047183e-05 4.0018647e-05
000280 99 bc a5 b7 90 6c d6 37 c4 09 ea b5 f1 ce 9c 35
       -1.9757355e-05 2.5561341e-05 -1.7437201e-06 1.1683134e-06
000290 95 ab 90 37 41 99 8f b7 9b ee 51 b7 3e 84 99 b6
       1.7246037e-05 -1.7118293e-05 -1.2512925e-05 -4.5751503e-06
0002a0 90 96 71 38 97 92 86 35 d4 22 5c 36 17 d1 84 b8
       5.75991e-05 1.0026441e-06 3.2802827e-06 -6.3331965e-05
0002b0 4b dc 3f b8 10 80 45 b8 54 7f 89 38 b6 e5 1b b8
       -4.5743112e-05 -4.7087728e-05 6.556386e-05 -3.7168815e-05
0002c0 dc e2 3f b7 6c 6d 9a 37 b4 65 fc b6 3c 45 33 37
       -1.1437307e-05 1.8409184e-05 -7.522025e-06 1.0685351e-05
0002d0 08 6a d4 37 a3 cb a3 b7 ce 06 4b 37 53 8d 3d b7
       2.5321744e-05 -1.952594e-05 1.2101327e-05 -1.12981825e-05
0002e0 27 84 f8 b6 81 8e cb 37 75 aa 8d b8 0f 32 70 b8
       -7.4063605e-06 2.4265844e-05 -6.755154e-05 -5.726708e-05
0002f0 09 68 d1 b6 4f 2b 21 37 ad 2f a0 b6 5a d0 43 37
       -6.2407967e-06 9.606431e-06 -4.773922e-06 1.1671416e-05
000300 a9 4a 9b 36 e3 18 29 37 c7 9c 8c b7 89 36 35 b7
       4.6280516e-06 1.0078979e-05 -1.6762306e-05 -1.0801138e-05
000310 fd 38 87 b7 ee b5 98 37 17 0a 6b b8 38 fc ad 37
       -1.6119791e-05 1.820453e-05 -5.6037763e-05 2.0740656e-05
000320 af d6 7a 38 6c 83 45 b5 a6 29 ab 36 99 86 42 38
       5.9804584e-05 -7.3579463e-07 5.1010456e-06 4.637856e-05
000330 af 45 3c b7 96 67 97 b8 4d 36 ff b7 32 a1 c8 37
       -1.1221898e-05 -7.2195355e-05 -3.0423655e-05 2.391692e-05
000340 c2 84 3e 36 a2 4d 55 b6 de d4 31 b8 e5 99 e9 b7
       2.8389481e-06 -3.1784662e-06 -4.2398337e-05 -2.7847427e-05
000350 ea f4 05 b8 4e 6f e2 37 3f 42 3f 38 1e 77 bb 36
       -3.1937765e-05 2.699313e-05 4.5599645e-05 5.5869014e-06
000360 c3 4a 91 36 9f 87 5b 37 4e 16 07 38 eb 0e 7e 38
       4.33004e-06 1.3084994e-05 3.220728e-05 6.0572213e-05
000370 7a 36 c9 b7 b9 7f ae b5 b5 8e e7 37 4a 1a 31 38
       -2.3986435e-05 -1.3001182e-06 2.7603799e-05 4.2224572e-05
000380 70 6a 8d b4 70 20 0a 37 80 95 7a 38 dc ed 6e 37
       -2.634074e-07 8.232993e-06 5.9743878e-05 1.4241286e-05
000390 ae 0f 8f 38 d8 93 1d b7 9f 7b d7 b6 4a 10 bd 37
       6.821692e-05 -9.392352e-06 -6.4218907e-06 2.2538141e-05
0003a0 9e 81 51 36 bb 01 fc 36 d3 24 ac b6 20 e4 3d b8
       3.1218874e-06 7.5103867e-06 -5.1302864e-06 -4.527357e-05
0003b0 cd 49 89 38 58 94 10 b7 72 e6 de b7 e2 99 f5 37
       6.5464155e-05 -8.617608e-06 -2.6571772e-05 2.9277933e-05
0003c0 32 50 ac 37 71 44 bd b7 6b 2a 29 38 b1 4b 17 b7
       2.0541342e-05 -2.2562426e-05 4.0332245e-05 -9.017925e-06
0003d0 d8 2c ef 37 29 4e 9b 38 7e 00 b3 b7 16 e2 9c 35
       2.8511902e-05 7.4055344e-05 -2.1338692e-05 1.1688705e-06
0003e0 0a cd f4 b7 cb 2d 69 38 ff 64 ed b7 6d fe cc 37
       -2.9182545e-05 5.5594177e-05 -2.8299632e-05 2.4437171e-05
0003f0 ce 7d 1b b7 33 39 86 38 2e 84 4c b8 ee f7 8c 38
       -9.268011e-06 6.400272e-05 -4.8760492e-05 6.721901e-05

module.b_classifier.q.0.bias f4 [128]
000000 01 24 83 37 2b 23 b4 37 ce 26 ea 37 fe d1 54 37
       1.5633183e-05 2.1474048e-05 2.7913044e-05 1.2685077e-05
000010 0a 57 bc b7 ab 9d 9c 36 e4 08 b3 b7 03 a7 8c 38
       -2.2451877e-05 4.6675173e-06 -2.1342603e-05 6.7068286e-05
000020 a5 19 c6 b7 5e 77 e2 b6 8f af 36 b7 87 1f 95 38
       -2.3615381e-05 -6.749221e-06 -1.0888921e-05 7.110746e-05
000030 92 d8 d1 36 92 cd 57 37 7b e5 37 37 66 d6 70 38
       6.2538975e-06 1.2862862e-05 1.096108e-05 5.7420133e-05
000040 bb 27 fa 38 fb df 51 b7 32 5b 70 38 87 fb 25 38
       0.00011928329 -1.250952e-05 5.730539e-05 3.957332e-05
000050 a0 7a 0e 36 90 d8 7a 37 a8 2a 84 b6 5f c9 4d b8
       2.1231026e-06 1.4951584e-05 -3.9388724e-06 -4.906335e-05
000060 f2 21 b9 b6 84 82 27 37 ec c8 22 37 55 59 9a 36
       -5.5173814e-06 9.984364e-06 9.702733e-06 4.5999573e-06
000070 94 07 02 b7 1f 70 52 38 f8 dd 2e 37 6e ac a9 37
       -7.750368e-06 5.0172323e-05 1.0422889e-05 2.0226664e-05
000080 dc 74 ae 37 5c ef f7 37 96 ee 02 37 0b 24 43 38
       2.0796833e-05 2.9556155e-05 7.804154e-06 4.652519e-05
000090 46 c5 7e b6 c8 a6 18 37 2b ac 86 38 a1 fa 52 37
       -3.7963778e-06 9.098738e-06 6.421687e-05 1.25753295e-05
0000a0 12 4d 9d 38 b6 81 9e b4 e9 70 ef b5 99 51 5e 37
       7.500699e-05 -2.952417e-07 -1.7839749e-06 1.325123e-05
0000b0 14 39 fa 37 ee 2a cb 36 56 66 a3 37 85 e5 ab b8
       2.9828901e-05 6.054869e-06 1.9478768e-05 -8.196667e-05
0000c0 aa 05 f1 37 83 26 98 37 90 98 58 b8 a7 62 2c 38
       2.8732076e-05 1.8137745e-05 -5.1640498e-05 4.1099873e-05
0000d0 bf 0c 3c 37 51 3f 3f b7 bc 36 6f 35 f2 57 d6 b8
       1.1208641e-05 -1.1399229e-05 8.9114087e-07 -0.00010220696
0000e0 e0 4a e1 b5 23 c7 39 b7 59 6c c7 b6 50 b1 21 b8
       -1.6785598e-06 -1.1073224e-05 -5.9432755e-06 -3.8550526e-05
0000f0 66 b6 4f 37 ea 5c 44 37 63 30 0a 37 f3 7b 83 b7
       1.2380629e-05 1.1704144e-05 8.236707e-06 -1.5674135e-05
000100 e7 4b 64 b7 3a f4 55 38 f2 65 b9 36 2e f1 05 b8
       -1.3607531e-05 5.101061e-05 5.5252976e-06 -3.1934287e-05
000110 d1 ca 4f 37 f7 da 28 b7 a4 23 f7 35 76 10 21 b7
       1.2385383e-05 -1.0064562e-05 1.8413307e-06 -9.60018e-06
000120 d8 e5 25 b8 3b ce f8 b6 f0 f7 bd 36 65 e3 91 38
       -3.9553124e-05 -7.4149843e-06 5.6615027e-06 6.956494e-05
000130 ba ce 13 38 a1 93 94 36 d9 48 3c 36 36 77 43 36
       3.524006e-05 4.42793e-06 2.8056586e-06 2.9126654e-06
000140 2e 74 6a 37 3d 03 1d 37 81 d4 8a 37 10 59 9e b8
       1.3974537e-05 9.358683e-06 1.6549837e-05 -7.550616e-05
000150 eb a6 8b b8 fb d2 3f 38 ac 38 6c 35 2d fd 18 b7
       -6.6591274e-05 4.573444e-05 8.799932e-07 -9.118853e-06
000160 f8 4f 75 37 d6 7b 6f 38 36 5c e8 b7 45 78 e8 b6
       1.4621757e-05 5.709737e-05 -2.7699494e-05 -6.92814e-06
000170 fc 89 72 b8 b1 6d 2e 38 81 06 d4 37 a0 64 84 36
       -5.7825804e-05 4.158699e-05 2.5275398e-05 3.945621e-06
000180 4f 2f f7 37 83 97 8d b8 83 fd 95 37 3f 08 a9 b7
       2.9466724e-05 -6.751625e-05 1.7880235e-05 -2.015021e-05
000190 d1 ae 9f 37 e4 2f 4d b6 0f b6 d6 37 1f 8b 69 37
       1.9035682e-05 -3.0575256e-06 2.5595566e-05 1.3920274e-05
0001a0 22 36 84 b7 47 7e 2d 37 6e ba bb 37 da 60 36 38
       -1.5760834e-05 1.0341005e-05 2.237895e-05 4.348238e-05
0001b0 1c d5 74 b8 9c 54 74 b7 31 48 5e b7 74 ae 7e b8
       -5.8372607e-05 -1.4563233e-05 -1.32490395e-05 -6.072079e-05
0001c0 b1 28 9c b7 3c 0b d9 b6 45 7c d5 b7 40 67 77 b6
       -1.8615598e-05 -6.468412e-06 -2.5449446e-05 -3.6865968e-06
0001d0 67 2d 38 38 5e ab 9c b8 db 75 50 37 da 9d 8b b7
       4.3911303e-05 -7.470579e-05 1.24252065e-05 -1.6643597e-05
0001e0 23 d3 22 b7 7d a0 70 38 4a 9e 7b b7 c7 5e ae b5
       -9.705112e-06 5.7369925e-05 -1.499762e-05 -1.2991594e-06
0001f0 55 96 94 38 c0 64 b8 b6 01 fc 12 38 bb 2c 00 37
       7.0851915e-05 -5.495356e-06 3.504381e-05 7.639809e-06

module.b_classifier.q.2.weight f4 [128, 128]
000000 33 19 8b 38 9b 03 f7 37 29 8d f7 37 d6 7e 26 37
       6.63273e-05 2.9446373e-05 2.9510427e-05 9.923902e-06
000010 be 84 61 b7 50 95 07 3a 49 58 26 b7 83 b3 b0 b5
       -1.34419515e-05 0.00051720906 -9.9149265e-06 -1.3165267e-06
000020 9f 89 fd 37 66 7a a9 b7 1e bc 94 b7 79 0c a1 b7
       3.0224035e-05 -2.0203366e-05 -1.7730574e-05 -1.9198504e-05
000030 ab c3 65 b8 03 e6 f2 33 7b a3 6f 37 c5 7d 6a b7
       -5.4780085e-05 1.1310842e-07 1.4283573e-05 -1.397677e-05
000040 f6 29 02 38 e9 c1 95 37 9a 5c 6e 37 23 bb 73 38
       3.1033494e-05 1.785248e-05 1.4207466e-05 5.811e-05
000050 11 bb 04 38 01 6f 91 38 29 71 58 38 88 2f cf b9
       3.164547e-05 6.934815e-05 5.16038e-05 -0.0003951753
000060 8a 06 b2 35 3e e9 8d 32 92 fe 63 b8 46 02 31 3b
       1.3263937e-06 1.6520627e-08 -5.4358105e-05 0.0027009412
000070 d7 5a 36 37 01 84 93 b8 ae b8 aa b3 cd d0 7c 38
       1.0869196e-05 -7.034094e-05 -7.949835e-08 6.0275943e-05
000080 ce ed a1 b8 39 2f 38 38 00 51 aa 37 29 d9 14 b7
       -7.721373e-05 4.3912998e-05 2.0303298e-05 -8.872049e-06
000090 76 d5 76 b7 00 46 ed b7 fd 15 48 b0 b9 62 6b 37
       -1.4712443e-05 -2.8285198e-05 -7.2790823e-10 1.4030077e-05
0000a0 b9 8a ee b7 01 4e 54 38 68 dd a5 36 9d 94 96 b7
       -2.8436409e-05 5.0617386e-05 4.9431583e-06 -1.7950597e-05
0000b0 10 71 19 b7 1f 38 a2 b7 66 86 82 b7 42 7c 8a b7
       -9.145835e-06 -1.9338038e-05 -1.5559792e-05 -1.6508744e-05
0000c0 ed e6 28 b7 51 44 95 37 25 0d 54 b8 d8 36 b4 37
       -1.0067347e-05 1.7793996e-05 -5.055698e-05 2.148321e-05
0000d0 6c 65 a0 b8 25 29 1b b7 62 8d 2b b7 c4 ba 88 32
       -7.648286e-05 -9.2483e-06 -1.02253125e-05 1.5917415e-08
0000e0 c6 86 3a b5 3a d6 66 b8 c1 f9 e5 b2 51 c0 be b7
       -6.948652e-07 -5.5035787e-05 -2.6772684e-08 -2.273932e-05
0000f0 f3 bf b9 b6 6a 75 03 b8 4d a5 b9 b4 72 5e b5 b9
       -5.5357755e-06 -3.1342184e-05 -3.4579207e-07 -0.00034593377
000100 16 65 60 34 d4 a1 25 38 99 a3 8e b8 3d ae fc b6
       2.08984e-07 3.948978e-05 -6.80156e-05 -7.5304692e-06
000110 50 78 ae 3a 2c c2 27 37 e5 6d 13 b6 5b 05 30 37
       0.0013311002 9.999185e-06 -2.1968674e-06 1.0491664e-05
000120 80 c1 53 37 64 38 55 b8 8b 29 9f b5 7a 80 ae 37
       1.2621633e-05 -5.0835675e-05 -1.1858514e-06 2.0802243e-05
000130 37 e8 5a b8 27 46 82 37 a1 22 2b 35 e1 a1 2e 37
       -5.2191517e-05 1.5529875e-05 6.3752856e-07 1.0408899e-05
000140 7c c7 2d 31 de 30 ac 33 10 12 5f 32 ff 5d b9 37
       2.5288207e-09 8.018263e-08 1.2984415e-08 2.2097489e-05
000150 6f af 24 b8 04 d2 26 b7 65 88 95 b7 3a e7 c3 36
       -3.9264032e-05 -9.943269e-06 -1.7825698e-05 5.838371e-06
000160 61 71 94 34 bc 7e 25 b7 67 24 a5 38 f3 2f 75 37
       2.7649642e-07 -9.864274e-06 7.8745936e-05 1.4614302e-05
000170 c5 72 99 37 1c 3c d5 b3 70 c7 12 b8 7f 1e bc b7
       1.8292465e-05 -9.929519e-08 -3.4994853e-05 -2.2425547e-05
000180 99 86 ed b6 fe 69 8a b8 05 16 97 b7 0f 9d a6 34
       -7.0788196e-06 -6.6000954e-05 -1.8010856e-05 3.1034185e-07
000190 6e c3 99 38 12 8c cd b7 ca ca ea 36 b4 a5 ec b0
       7.33201e-05 -2.450313e-05 6.997351e-06 -1.7218356e-09
0001a0 e5 6d 97 37 8c c0 09 b6 c1 03 b2 b6 41 60 a0 38
       1.8051776e-05 -2.0526668e-06 -5.3052504e-06 7.647323e-05
0001b0 b8 d6 bd 36 86 00 37 37 70 17 da 36 4f 5c cf 37
       5.6576355e-06 1.0907772e-05 6.4996348e-06 2.4719307e-05
0001c0 07 38 44 37 26 ae a9 34 de b8 df 33 23 f1 45 35
       1.1695555e-05 3.1605413e-07 1.0417874e-07 7.373912e-07
0001d0 d2 4a 6c b3 bd ca 2b 37 f2 f8 52 b8 21 22 42 36
       -5.501608e-08 1.0239598e-05 -5.029975e-05 2.8928118e-06
0001e0 d4 ae b2 36 d4 8c 6a b7 30 5e cf b6 c4 34 90 b1
       5.325166e-06 -1.3980276e-05 -6.1800456e-06 -4.1969503e-09
0001f0 db 6f d6 b5 d1 28 a5 b0 5a 8c 32 3a da 33 81 36
       -1.5976797e-06 -1.2016931e-09 0.0006811075 3.850536e-06
000200 0b 70 d2 b7 fa d9 99 b7 82 ed b9 37 98 b9 1b 36
       -2.5086125e-05 -1.8340525e-05 2.2164317e-05 2.320483e-06
000210 84 49 87 b7 45 a4 80 2f e2 ec 11 b6 8d 91 89 3a
       -1.6127487e-05 2.3399785e-10 -2.1744568e-06 0.0010495648
000220 d6 50 30 b3 ba 94 b1 37 23 58 9b b7 0c 6c 2f b7
       -4.1051713e-08 2.11693e-05 -1.8518482e-05 -1.04559695e-05
000230 01 4a 93 b5 22 37 47 b7 74 15 7f 37 2f 91 1b 36
       -1.0973891e-06 -1.1874161e-05 1.5204179e-05 2.3181308e-06
000240 86 1d 85 ba 41 54 26 b7 7c 7e 85 b7 17 ec cb 36
       -0.0010155893 -9.913988e-06 -1.5913734e-05 6.077356e-06
000250 d2 1c 93 ba ce 93 9a b7 43 cb 11 bb 8a 5a 0c b7
       -0.0011223799 -1.8427058e-05 -0.0022246398 -8.3657305e-06
000260 b1 54 8b 37 de 64 3f b3 85 3f 93 b8 fc 24 b8 b7
       1.6609529e-05 -4.456239e-08 -7.021338e-05 -2.1951731e-05
000270 ec ea 03 b4 5a c5 0d b7 c5 ab 98 37 bc 2a 98 37
       -1.228579e-07 -8.450204e-06 1.8199798e-05 1.8139712e-05
000280 32 76 ea 35 a9 75 ae ba d2 95 d3 37 e2 5c 80 b6
       1.7468758e-06 -0.0013310212 2.5222926e-05 -3.8255102e-06
000290 97 64 79 b8 29 d5 ca 37 19 38 96 b5 db 29 48 b7
       -5.9459908e-05 2.4179537e-05 -1.1192197e-06 -1.1930674e-05
0002a0 17 80 a4 ba 0b dc 40 38 f3 02 8c b6 88 ec 50 37
       -0.0012550381 4.5981298e-05 -4.1726685e-06 1.2452838e-05
0002b0 3f ce ca b7 13 06 e9 39 34 5c f7 37 0f 37 ef 37
       -2.4176317e-05 0.0004444575 2.948763e-05 2.8516659e-05
0002c0 69 13 e4 37 9b 0b 56 37 5d e5 8a bb 9c 4b c0 35
       2.7188757e-05 1.2758096e-05 -0.004238768 1.432712e-06
0002d0 00 6d 83 37 4f b8 91 33 38 33 6e 37 9e 48 1d b8
       1.5667174e-05 6.785614e-08 1.4197831e-05 -3.7499347e-05
0002e0 31 1f 60 b8 8a 0d 06 ba 20 f4 a4 37 46 92 13 38
       -5.343481e-05 -0.0005113712 1.9664003e-05 3.518376e-05
0002f0 7c d1 01 b2 aa 90 15 34 05 b9 85 b8 87 c9 61 b8
       -7.5564195e-09 1.3929335e-07 -6.376397e-05 -5.3831867e-05
000300 05 68 91 37 76 0d 12 b6 cd c8 92 b7 01 b5 07 3b
       1.7333785e-05 -2.176353e-06 -1.7498061e-05 0.0020707252
000310 34 db 46 b8 01 e4 8f 36 c6 30 8f 37 45 20 9a 37
       -4.7411027e-05 4.2882752e-06 1.706964e-05 1.8373257e-05
000320 6c 2b 4a 36 f4 ff 88 b7 07 ef 0e b4 15 3a c8 b7
       3.012562e-06 -1.633165e-05 -1.3311738e-07 -2.3868904e-05
000330 e4 4c 0e 36 db e7 3b 37 a7 17 6b b7 19 50 98 37
       2.1204405e-06 1.1200052e-05 -1.40125985e-05 1.815711e-05
000340 5d 68 2b 36 4d f5 23 b4 b8 8b 89 36 62 bf a4 b4
       2.5541733e-06 -1.5269798e-07 4.0991836e-06 -3.068663e-07
000350 98 5e 9b b7 39 0a e9 37 67 ae 7b 37 63 76 70 38
       -1.8521489e-05 2.7780525e-05 1.5001372e-05 5.7330715e-05
000360 96 0f 9d b8 6d a7 05 b7 92 cc d2 b7 80 2c 75 37
       -7.4892465e-05 -7.9664e-06 -2.5129211e-05 1.4613499e-05
000370 5d 65 80 37 f6 47 9e b7 5b 73 01 37 c1 3b e2 b6
       1.530599e-05 -1.8868577e-05 7.7158575e-06 -6.742281e-06
000380 77 12 d2 b6 0b a6 aa b5 45 a2 8a b8 5a 8c ae b8
       -6.2606373e-06 -1.2714312e-06 -6.610578e-05 -8.323109e-05
000390 f1 71 68 b7 ac 3a a1 b5 e2 9d 9e b6 4e 56 1c b8
       -1.3854807e-05 -1.201251e-06 -4.727147e-06 -3.7273676e-05
0003a0 64 2a 62 37 d5 ee 7c 37 4e 06 fd 38 be e9 c5 31
       1.348052e-05 1.5075978e-05 0.000120651544 5.760028e-09
0003b0 55 a1 8b b7 75 20 27 b8 25 13 42 3b d6 a0 5a 36
       -1.6645217e-05 -3.984613e-05 0.0029613462 3.257815e-06
0003c0 04 19 15 b8 3f 89 65 38 82 42 fa 36 98 05 d3 37
       -3.5547666e-05 5.4725675e-05 7.458323e-06 2.5155765e-05
0003d0 0e cd 1e 34 70 b2 3e b4 f3 cd fc b7 42 21 16 b8
       1.4789495e-07 -1.7760044e-07 -3.0136644e-05 -3.579376e-05
0003e0 ab 09 0d 32 11 10 cb 37 6c 8c 97 b4 b7 a5 5d b8
       8.209478e-09 2.4206967e-05 -2.8228112e-07 -5.284484e-05
0003f0 7e 33 1d 37 53 ba 81 36 ec 29 f8 b7 3e 53 3c 30
       9.369918e-06 3.8661906e-06 -2.9583425e-05 6.8512296e-10

module.b_classifier.q.2.bias f4 [128]
000000 5f a9 06 38 81 96 cb b8 d4 76 b8 38 e2 30 47 38
       3.210583e-05 -9.707828e-05 8.795937e-05 4.7490823e-05
000010 79 b5 21 36 45 97 44 37 ac 09 53 b4 1e 09 ff 37
       2.40965e-06 1.1717731e-05 -1.9654425e-07 3.0402614e-05
000020 a4 64 a4 b7 31 03 57 b6 f5 66 00 b8 05 0b e6 37
       -1.9597188e-05 -3.2039354e-06 -3.0613464e-05 2.7423268e-05
000030 eb 80 be b7 9e c5 9b b7 9d 41 7b 37 94 36 50 b7
       -2.2709797e-05 -1.8569463e-05 1.4976043e-05 -1.2410474e-05
000040 dd dd 29 b8 63 12 49 38 cb 16 82 38 0a f2 57 38
       -4.0499366e-05 4.793926e-05 6.2031286e-05 5.148541e-05
000050 29 09 95 b5 57 e5 b2 36 ad 08 2e 38 88 dd d0 bb
       -1.1104031e-06 5.331512e-06 4.1492913e-05 -0.006374065
000060 6c 06 83 38 86 22 85 38 c7 34 07 35 2a 9d 8b 37
       6.247763e-05 6.348365e-05 5.036822e-07 1.6643276e-05
000070 1c 1f fa 37 3d 7e 6c b8 2b a5 35 38 1b 52 92 b8
       2.9816809e-05 -5.6384353e-05 4.3307587e-05 -6.977116e-05
000080 a2 55 f4 36 a5 52 64 bb 27 1a 16 b8 bc 0e 4a 37
       7.2817356e-06 -0.00348393 -3.5787143e-05 1.2043569e-05
000090 0f bb 1c b8 90 84 b6 b7 37 eb 6a 36 ab 8d c0 3b
       -3.736751e-05 -2.175782e-05 3.500563e-06 0.005876263
0000a0 6a a7 0f b8 dd 3f a4 b7 3e f5 03 37 16 b0 b2 b7
       -3.4249773e-05 -1.9580062e-05 7.865308e-06 -2.130125e-05
0000b0 71 46 1d 38 90 ce 2e b8 f2 36 31 3a a6 a8 45 38
       3.749732e-05 -4.167721e-05 0.00067602016 4.7125526e-05
0000c0 d6 03 a2 35 1d 5a 1b 38 06 48 98 b6 51 9c 58 b6
       1.2071057e-06 3.7038804e-05 -4.5383376e-06 -3.2277496e-06
0000d0 2b 1a 27 b7 02 92 05 3a 9d 3b af bb 33 89 89 b8
       -9.960068e-06 0.0005095304 -0.0053476826 -6.5582244e-05
0000e0 c2 73 4b bb dd fe 69 36 22 13 03 b7 25 63 9d 36
       -0.0031044339 3.4868056e-06 -7.812663e-06 4.6905066e-06
0000f0 1f 5e b2 34 e4 c3 56 b7 60 ea f8 b6 be 34 ea 37
       3.3223566e-07 -1.2801003e-05 -7.418261e-06 2.7919534e-05
000100 fb 8c 86 b8 0d 92 b7 b7 cb 07 46 38 9c 12 e2 b6
       -6.4158776e-05 -2.188331e-05 4.7214136e-05 -6.7374913e-06
000110 e5 78 c8 37 9c e4 e1 3b 1a fa 83 38 bc 68 0e 38
       2.3898154e-05 0.0068937074 6.293152e-05 3.395298e-05
000120 4d da a3 38 ab 49 d9 b7 ff 5b c2 b6 41 7d 6b bb
       7.8131074e-05 -2.590272e-05 -5.7923603e-06 -0.0035932811
000130 6b b8 0c b6 54 ef b6 b7 48 b1 fd 37 c8 9e 77 38
       -2.096897e-06 -2.1807537e-05 3.0242503e-05 5.9037266e-05
000140 ae d6 a5 b7 0d c4 c2 b6 cf 36 15 b8 81 65 cd b7
       -1.97695e-05 -5.804474e-06 -3.5575413e-05 -2.448517e-05
000150 7c 96 02 b9 30 77 b9 39 2b c1 02 b7 b8 7e 7c b8
       -0.00012453826 0.0003537475 -7.793579e-06 -6.0199498e-05
000160 2c f2 1c 36 aa 1c c7 3a fb 62 8e 38 9b 51 6f b5
       2.3386774e-06 0.0015191038 6.789524e-05 -8.915319e-07
000170 63 17 1e ba 05 be 1e 36 7d e1 c9 35 73 13 34 b8
       -0.00060307066 2.365444e-06 1.5041293e-06 -4.2933458e-05
000180 ab a6 97 b8 99 a4 4c 37 a3 14 ad 37 f2 13 e8 b7
       -7.2312854e-05 1.2197671e-05 2.0632817e-05 -2.7665843e-05
000190 c7 d6 96 b6 33 a1 67 38 6f 35 33 38 5b 63 60 ba
       -4.4953517e-06 5.522482e-05 4.272669e-05 -0.0008559727
0001a0 12 d4 54 b5 39 aa ea b7 36 a6 a9 b6 27 7e 5e b8
       -7.928476e-07 -2.797424e-05 -5.055942e-06 -5.3046413e-05
0001b0 63 a6 fd 3a 0b 7c 5d b8 5c f3 62 38 53 60 47 36
       0.0019351955 -5.280603e-05 5.4109245e-05 2.9709379e-06
0001c0 87 a8 c1 b7 12 0b 2e b8 d4 68 74 b8 55 4f 00 b8
       -2.308587e-05 -4.1495143e-05 -5.8271762e-05 -3.0591462e-05
0001d0 34 4f e3 37 25 f7 e8 3a 03 b7 40 b7 7d 59 2c 3a
       2.709739e-05 0.001777385 -1.14867025e-05 0.0006574614
0001e0 a5 8f bf 36 5b 10 0a 38 e0 ea f5 37 c8 8c f6 b4
       5.708966e-06 3.2916996e-05 2.9315648e-05 -4.5923503e-07
0001f0 fa 63 d5 b7 28 34 28 b8 58 1d 82 37 b9 17 27 38
       -2.5438134e-05 -4.0102896e-05 1.5510872e-05 3.9837996e-05

module.b_classifier.fcc.weight f4 [2, 2, 512]
000000 ce 2b 01 3d 9c 82 fc 3c 57 bd 87 bb dd 1f 47 3c
       0.031535916 0.030823998 -0.004142444 0.012153593
000010 da f4 bc 3b b1 35 db bc 32 a3 38 3c 6a 30 47 bc
       0.0057664933 -0.026759 0.011269378 -0.012157539
000020 e5 9c 6d 3c 57 c2 82 3c 7a 2f a4 3c d6 44 08 3d
       0.014502739 0.01596181 0.02004217 0.033268772
000030 e5 3f 6f bc 64 f8 89 38 95 2d b9 bc 16 63 8b bb
       -0.014602636 6.5789354e-05 -0.022604743 -0.0042537553
000040 d3 a2 50 bc 71 47 c3 3c a8 94 a6 3c e7 1a 09 3d
       -0.012734133 0.023837777 0.020334557 0.03347292
000050 36 8f 01 3d 38 bf 89 bc c3 3f 2f bc f7 47 a1 3b
       0.031630717 -0.016814813 -0.010696354 0.004921909
000060 e0 67 1c bc e5 c7 de 3c 41 a9 e1 3c 91 38 b3 bc
       -0.00954625 0.027194927 0.027546527 -0.021877559
000070 e7 12 a3 3c 71 62 d8 3c c3 39 06 3d ab 69 d7 3c
       0.019906474 0.026414128 0.03276993 0.026295504
000080 52 36 e3 bb e6 e9 85 bc a6 b7 1c 3c af 32 d9 3c
       -0.0069339657 -0.016346883 0.00956527 0.026513426
000090 b2 7e 17 bc 0a 8a c3 3c e5 9b 74 bc c9 8c e4 39
       -0.009246515 0.023869533 -0.014929746 0.00043592442
0000a0 66 e0 a5 bb 74 5a e8 bb 31 9d c6 3a d6 f7 91 bc
       -0.005062151 -0.007090861 0.0015153048 -0.017818373
0000b0 00 32 d2 bc 6d 0f a7 bb 43 bc 38 bc 4b 95 e0 3c
       -0.025658607 -0.0050982744 -0.011275354 0.027414938
0000c0 23 0a 04 3d 1a c5 8a 3c 14 35 85 bc d2 90 96 3c
       0.03223623 0.016939688 -0.016260661 0.018379603
0000d0 76 75 bf 3c cc fa ac 3c 84 df c0 ba 7d 6d c4 3c
       0.02337144 0.021115683 -0.001471505 0.02397799
0000e0 a0 1d 97 bc c8 b0 25 3b 6b 67 fe 3c e0 14 8b bb
       -0.018446743 0.0025282372 0.031055173 -0.004244432
0000f0 fa 55 94 3a 4f 2e 58 bc 85 2f 81 bc df 8f da 3c
       0.0011317127 -0.013194635 -0.01576973 0.026679931
000100 53 9d 00 3d 0c b7 97 3b b8 c0 bf bc aa 1c 03 3c
       0.031400036 0.004629975 -0.023407325 0.0080024395
000110 90 26 93 bb f5 5c c7 bb d5 f2 45 bb 5b 35 a9 bc
       -0.004490681 -0.0060840794 -0.0030204554 -0.020655325
000120 d2 8c 48 bc a8 b0 f9 3c 96 57 b0 bc af ee a3 bc
       -0.012240605 0.030479744 -0.02152614 -0.020011274
000130 df fe 0f bc ad ff 9e 3c 1b 7b 3d 3b e6 aa a2 bc
       -0.008788793 0.019409025 0.0028912488 -0.019856881
000140 cf d1 06 3d 76 ff e0 bc 46 6a 0b 3b be d1 da bc
       0.032914933 -0.027465563 0.002127306 -0.026711341
000150 53 91 0b 3c e2 8d ac 3c 3e 99 91 bb 2f cc e9 bb
       0.008518535 0.021063749 -0.0044433167 -0.0071349363
000160 24 62 d2 bc b2 d6 bd 3c 37 b5 9b bc 99 b3 68 bc
       -0.025681563 0.023173664 -0.019007308 -0.014202976
000170 80 1d ff bb c5 5d c6 3c 46 3d f2 bb 81 1f d0 3b
       -0.007785499 0.024214635 -0.0073925583 0.006351412
000180 2c 18 d4 bc 51 c9 69 bc f8 53 88 3c f7 ca 83 bc
       -0.025890432 -0.014269189 0.016641602 -0.016087992
000190 1b ba a2 bc 50 d3 6b 3b be 5b 37 3c 84 2d a1 bc
       -0.019864133 0.0035984106 0.011191307 -0.019675024
0001a0 a1 9c 01 bc a8 c2 a0 3c 57 5d 34 3c 52 4f 05 3d
       -0.007910878 0.01962407 0.011008582 0.03254635
0001b0 36 53 09 3d 83 c1 6b 3c a8 2d b6 bc 4e 58 89 bc
       0.03352662 0.0143893985 -0.022238567 -0.01676574
0001c0 4e 53 a1 bc d9 88 db 3c b2 eb 55 3c 52 a2 05 3d
       -0.019693043 0.026798652 0.013056682 0.032625504
0001d0 a7 f4 98 3a 2d 65 35 3b b5 2e 2b 3c 64 e9 48 bb
       0.0011669592 0.0027678714 0.010448148 -0.003065669
0001e0 87 5d 2b bc c5 aa f1 3a 03 8e ec 3b b5 3c ba bc
       -0.01045931 0.0018437734 0.0072190776 -0.022734025
0001f0 7c a6 13 bc 99 f4 9d 3c 45 dd dd 3c d3 fc 05 3d
       -0.009011861 0.019281672 0.027083049 0.032711815
000200 4a c8 26 3b 64 a7 b2 bc e0 10 65 bc 37 0b 34 bc
       0.0025448971 -0.021808334 -0.013981074 -0.010989002
000210 bd 23 a6 3a 7c f5 3a 3c 2c 1b 2f bb 6d c7 d1 bc
       0.0012675446 0.011411067 -0.0026719077 -0.025607789
000220 4f 76 68 3c 8b 8e 67 3b 35 cd f9 3c 91 15 cb 3c
       0.014188363 0.0035332765 0.030493358 0.024790557
000230 a4 77 4f 3c ae 18 63 bc 5e 7f 24 bc 5c b7 c8 3c
       0.012662802 -0.013860865 -0.010040132 0.024501495
000240 f0 13 95 3c 96 41 c0 bc ed 94 fb 3b b8 4c 39 bc
       0.018197984 -0.023468774 0.0076776654 -0.011309795
000250 92 b9 b3 3b f0 3f 9a bc 6f dc f4 3c a7 68 54 bc
       0.005484768 -0.018829316 0.029890267 -0.012964404
000260 3f d1 1b bc 4b 2f dc bb 98 55 23 3c b3 29 24 bc
       -0.009510337 -0.006719505 0.009969138 -0.0100197075
000270 5d 17 e0 3c e7 1c b5 bc 0b ae 3f 3c ad 42 64 bc
       0.02735489 -0.022108508 0.01169921 -0.013931912
000280 74 b5 3e bc 72 77 e6 3c 62 97 9a bc 99 74 bb bc
       -0.0116399415 0.028133128 -0.018871013 -0.022882747
000290 10 58 91 bc 46 62 c8 3c cf 09 fd 3b 1f ab b7 3c
       -0.017742187 0.024460923 0.0077221165 0.022420464
0002a0 fb 7a a5 bc 22 0a b9 3c 2c 0a 83 3c a3 51 af 3c
       -0.020200243 0.02258784 0.015996061 0.021401232
0002b0 c0 ee 12 3c 64 18 a2 3c 72 23 8b 3c 05 d5 c1 bc
       0.008968055 0.019787021 0.016984675 -0.023661146
0002c0 18 30 32 3c f1 f4 89 bc 68 d0 a7 3c 55 b2 e4 bc
       0.010875724 -0.01684043 0.020485118 -0.027917067
0002d0 c7 be 75 3b 4a b7 ff 3c 44 82 b5 3c 57 06 aa 3c
       0.0037497745 0.031215329 0.022156842 0.020754976
0002e0 be dd cd bb 9c 3e c3 bc 84 e5 02 bc b2 4d d6 bc
       -0.0062825372 -0.023833565 -0.007989291 -0.026160095
0002f0 56 1c 73 bc 26 8c 57 3b 09 4e c8 bc 11 f7 d9 bb
       -0.014838299 0.0032889931 -0.024451273 -0.006651767
000300 08 da ed bb 0a cf dc 3b 02 09 88 3c 75 ea da 3c
       -0.0072586574 0.006738548 0.016605858 0.026723126
000310 f4 fb a5 bc a0 38 f0 3c 27 fb 9e bc 62 0c e4 3c
       -0.020261742 0.029323876 -0.019406868 0.027837936
000320 f4 31 91 bc 16 b3 da 3c 58 0c a6 bc 8b 7b 0b 3c
       -0.017724015 0.026696723 -0.020269558 0.008513342
000330 4f 4d f9 3c b3 69 75 bb 80 e3 31 3c 45 97 2a bc
       0.030432371 -0.0037447035 0.010857463 -0.010412042
000340 63 f3 e2 bc 12 ce 9a 3b 00 45 97 bc 73 5f 6b 3c
       -0.027703946 0.0047242725 -0.018465519 0.014366019
000350 cd d3 5c bc 4c d0 d9 bb 96 31 b0 bc be 90 c3 3b
       -0.013478232 -0.0066471454 -0.02150802 0.0059681823
000360 31 7b 19 bc b1 f1 a5 bc 75 e8 71 bb b8 38 a9 3c
       -0.00936775 -0.020256849 -0.0036912237 0.020656928
000370 13 f9 ed ba c5 33 ca 3c d8 0d 85 3c 4a bb b5 3c
       -0.0018155895 0.024682889 0.016241953 0.022184033
000380 99 6b cb bc 26 37 f1 3c 34 5f 02 3d 73 83 bb bb
       -0.02483158 0.029445242 0.031829074 -0.005722457
000390 77 42 42 3c 5f 7e a3 3c b8 09 3c 3b 3f 57 6a bb
       0.011856667 0.01995772 0.0028692316 -0.003575757
0003a0 fd 58 ae bc c3 1f 25 3b 15 b6 c5 bc 3b 79 67 3c
       -0.021282667 0.0025195933 -0.024134675 0.014128025
0003b0 a3 07 43 3c c1 07 1f bc a6 74 89 bc 97 dd c5 bc
       0.011903676 -0.0097064385 -0.016779255 -0.024153514
0003c0 86 df b9 bc dc 6b bd bc d5 0d dd 3c 80 4d be bb
       -0.022689592 -0.02312272 0.026984135 -0.0058075786
0003d0 47 f9 c7 bc 35 79 ff 3b 5e ac d6 bc 7d f7 0f bc
       -0.024410857 0.0077964314 -0.026205238 -0.008787033
0003e0 5d 3d 2e ba 6b 44 18 bb 2e 8a 86 3c 7e f9 62 bb
       -0.0006646717 -0.002323414 0.016423311 -0.0034633572
0003f0 43 4a 29 3c 92 2f 9b 3b f7 fd 93 3c 04 0b 96 b9
       0.010332647 0.0047358954 0.018065436 -0.00028618437

module.b_classifier.fcc.bias f4 [2]
000000 d5 1b 21 bc dd 48 a8 bc
       -0.009833296 -0.020542556
