processing/mil classifier/weights/04182023/1.pth (torch, 343759 bytes, 8 tensors)

i_classifier.fc.0.weight f4 [2, 512]
00000000: 5f32 d93c 688e 41bd e149 293d 1390 463c
00000010: a423 edbc ed21 0bbc b2e7 e13c f954 873c
00000020: 392c 44b9 81e8 94bb ec55 443a 4268 0038
00000030: 462d 4f3d 8e2e 1d3d aa59 85bc eac9 273d
00000040: 6799 e83b 567f e23c f2d1 40bc b29e 2bbd
00000050: e802 08bc 80ba 16bc e5bb cbbb 792f 3c3d
00000060: f0e4 0abb 9181 0d3d a86d aebc e4d9 153c
00000070: d28d a7bc 66e0 f73c 4323 2bbd 7cd0 c83a
00000080: 817e 853c aee6 a4bc 6256 5d3d d8d7 d93c
00000090: 7db8 0bbd 8789 82bb eaab 35bd e187 fabc
000000a0: 392c 9ebc 5af7 283d 525d 60bc 087f bc3c
000000b0: d109 9c3b 4175 013d 5fd9 17bd a58c 6bbd
000000c0: 42fa 57bd 6478 26bc 3bdb 433d 3827 033d
000000d0: 34e4 8c3b d11f 5f3d 220d df3c 95d7 cd3b
000000e0: daf9 4fbc b4ac 99bc d497 18bd 5c10 95bc
000000f0: 9883 9cbc d5a1 e1bc 17c3 f9bc 8e60 133c
00000100: e2e0 a2bc 31c4 243d 84db ba3c 0a99 8bb8
00000110: 0e02 a6bc 1b8d d43c 4b70 69bd 8f85 123b
00000120: 7d83 20bc 3b6c 683c 80fe e2bc 586c 123d
00000130: eb58 813d 86bd a03a ed42 37bb f469 623c
00000140: 4151 213a 68cf 4738 c974 ccbb 3a34 493d
00000150: caaf 91bc 66d3 9abc 580f 073c e5ea 143d
00000160: bc79 4cbd eeb3 ef38 c20f 803c 1493 8fbb
00000170: e223 e6bb 8b7d 14bc caf8 51bd 0fc6 1dbd
00000180: 4594 cb3b e0ec 88bc 7a87 4d3c 1cee 493c
00000190: 1d04 bdbc 091a 38bc 431e 4e3d 8df7 27bd
000001a0: 56f1 a1bc ea97 7fbd 6638 44bc 2190 62bc
000001b0: 5a5c 7e3d a546 7b3d 7623 f93c c936 c6b8
000001c0: 1b50 b9b8 2e22 053c e487 c1bb e91e 7bbd
000001d0: 8c74 eebc f943 54bc bb68 8cbc 59d1 fa3c
000001e0: c53d 35bd ac23 a1bb fb8b 4fbb 0bd1 1b3d
000001f0: 1bd0 c8bc 1836 bebc af58 8bbd 6bbd 473d
00000200: ee32 abbc 7f49 083d 7837 543d 7094 1a3d
00000210: 79c5 133d 9270 fabc 7537 933d 1a7c 63bd
00000220: bffa bebb 80aa 22bc a124 ee3b 3d78 df3c
00000230: 6546 10bd b80c be3c 493e dfbb 64f7 8abc
00000240: 4986 fd3c e6ec 89bc 04dc 3b3d 8edc 1dbd
00000250: ded8 2abd 5cd7 09bd 6b5e 15bd 53d6 023d
00000260: 37fa 1bbd f2fc 283d 1b94 08bc b489 60bd
00000270: a286 863d 79a0 6a3c bc04 14bc 2ba9 923c
00000280: 7d09 08bd 762c f9bc 7e40 8dbc 47e1 e9bc
00000290: 3d9b b4bc dae8 23bc 5935 f23c 8e8f 6fbd
000002a0: 132b ec3b 22ce 15bc 0017 2ebc fbe9 273c
000002b0: 36f8 afbc 89b3 92bc 9a50 1e3c 6685 943c
000002c0: 12a4 f9bc fe65 4f3d 0d57 78bd 1513 e23c
000002d0: 244f 123c 713e 52bd fbe1 193c b825 873d
000002e0: 0bd7 4bbc 75ae fcbb 8f76 68bb 5349 783c
000002f0: 2c7d 8dbd 39c9 a83c f64b 8a3d aca3 2fbc
00000300: b3ba 143c 1e43 5b3d 9968 ca3c f517 ea3c
00000310: 7e50 413c c615 473c 5901 2abc 9312 553d
00000320: 9268 f93b 724a b83b 379f dc3c 10f8 78bd
00000330: 720a c7bc 7743 d73c 51e1 a9bc 3cdc c1bc
00000340: 899a c0bc b393 38bd b856 27bd 9faa 83bc
00000350: 2c01 bdbc 9bbc 273c b745 83ba 2743 0ebd
00000360: 443b ab3c 919f 88bc 7475 993a 847f d1bc
00000370: 5778 db3c 90ad 0ebd d3e6 a43c dcb9 06bd
00000380: 1988 86bb 0437 d03c 3aaf 47bd 5830 82bc
00000390: 8404 e03c e315 48bc 6841 70bd a886 a03c
000003a0: 8d76 53bb 4671 f13c 45b2 623d 49fa e3bc
000003b0: d1ad cbbc 65d4 3bbc 8796 53bd 6d8f 7dbc
000003c0: 027f 7d3b c1f7 2cbd fff0 1cbd bfbb 453c
000003d0: 069c 453c e793 a93c ba0a 54bd 17d2 56ba
000003e0: 1e06 9cbc 62ee 3b3d 2d25 5bbc 87d0 c3bc
000003f0: 6895 ab3c 25c6 61bb 96a4 ec3c 817a 8abc
0.026513277 -0.04725495 0.041330222 0.012119311 -0.028947659 -0.008491975 0.027576301 0.01652001
-0.00018708491 -0.004544318 0.000748961 3.0614676e-05 0.050580285 0.038374476 -0.016278107 0.040964045
0.007098365 0.02764861 -0.011768805 -0.04189939 -0.008301474 -0.0091997385 -0.006217467 0.04594371
-0.0021193586 0.034547392 -0.021292523 0.009146187 -0.020453367 0.030258369 -0.041781675 0.0015320922
0.016295673 -0.020129528 0.05403746 0.02659218 -0.03411149 -0.0039836797 -0.044353403 -0.03058237
-0.019308196 0.041251518 -0.013694124 0.023009792 0.0047619124 0.031605963 -0.037072536 -0.057507176
-0.0527289 -0.010160539 0.047816496 0.032019824 0.004299665 0.054473702 0.027227942 0.006281803
-0.012693847 -0.01875911 -0.03725417 -0.018196277 -0.019105718 -0.027542988 -0.030488534 0.008995188
-0.019882623 0.040226165 0.022809751 -6.656542e-05 -0.020264652 0.02594619 -0.056991857 0.002235744
-0.009796974 0.01418596 -0.027709246 0.035747856 0.06315788 0.0012263514 -0.0027963475 0.0138192065
0.00061537704 4.763846e-05 -0.006239508 0.049122073 -0.017784018 -0.01889963 0.008243404 0.036356825
-0.049920782 0.000114299226 0.015632514 -0.0043815468 -0.0070233205 -0.009063135 -0.051262654 -0.03851896
0.0062127435 -0.016714513 0.012544507 0.012324836 -0.02307325 -0.011236676 0.05032183 -0.041007567
-0.019768398 -0.062400736 -0.011976337 -0.013828308 0.062099792 0.06134667 0.030412417 -9.45158e-05
-8.836408e-05 0.008125825 -0.005906092 -0.061308775 -0.029108308 -0.012955659 -0.017139783 0.030617403
-0.04424836 -0.0049175825 -0.0031669128 0.038041156 -0.024513295 -0.023219153 -0.068040244 0.048764627
-0.020898309 0.033273216 0.05181071 0.037739217 0.036076996 -0.030571256 0.07188312 -0.055538274
-0.005828231 -0.009928346 0.00726755 0.027279014 -0.035223383 0.023199424 -0.006812845 -0.016963668
0.030947821 -0.016836595 0.04586412 -0.038540415 -0.041710727 -0.03365265 -0.036466997 0.031942677
-0.03808042 0.041256852 -0.008336092 -0.054818824 0.06568648 0.014320486 -0.009034332 0.017902931
-0.033212174 -0.030416708 -0.017242666 -0.028549803 -0.02204668 -0.010004247 0.029566454 -0.058486514
0.0072072833 -0.009143384 -0.010625601 0.010248656 -0.02148066 -0.017907875 0.009662772 0.018130016
-0.030473743 0.050634377 -0.060629893 0.02759699 0.008930001 -0.05132908 0.009392257 0.06598991
-0.012441407 -0.0077112266 -0.0035471057 0.015154201 -0.0690864 0.020603763 0.0675277 -0.010720175
0.009077716 0.053530805 0.02470808 0.028575877 0.011798976 0.012151187 -0.010376298 0.052019667
0.0076113427 0.005624109 0.026931388 -0.060783446 -0.024296973 0.026277287 -0.020737322 -0.023664586
-0.023511188 -0.045062732 -0.040854186 -0.01607257 -0.023071848 0.010237838 -0.0010015283 -0.03473201
0.020902283 -0.01667765 0.0011707977 -0.0255735 0.026790781 -0.03483349 0.020129597 -0.032892093
-0.0041055796 0.025416858 -0.048751093 -0.015892193 0.027345903 -0.012212249 -0.058656126 0.01959546
-0.0032266707 0.029472958 0.055345792 -0.027829306 -0.024863156 -0.011464213 -0.051657226 -0.01547609
0.003868044 -0.042228464 -0.03831577 0.012068688 0.012061125 0.020700408 -0.051768042 -0.0008194758
-0.019045886 0.045881636 -0.013375563 -0.023903145 0.020945266 -0.0034450379 0.028887074 -0.016904118

i_classifier.fc.0.bias f4 [2]
00000000: d050 903b f166 26bc
0.004404165 -0.010156379

b_classifier.q.0.weight f4 [128, 512]
00000000: 3b61 3c37 fb3a 99b6 b8f8 8c34 d7ce 6db8
00000010: 7499 39b7 1322 a1b7 2b81 80b7 749f 59b7
00000020: bd6c 8e38 65d6 a837 78ef 6738 c7d6 bf37
00000030: 3d29 b2b8 4c6d 1d37 1c9f 1c37 3635 c337
00000040: cbe3 50b7 c122 1e38 1177 7f37 dfd4 8937
00000050: 8c7f b6b7 8990 1fb7 84ee 8736 144a d1b7
00000060: a122 81b4 8077 8d36 98c0 0937 e67f 0637
00000070: 82f8 52b7 6ef9 12b8 cacc fab6 a81d 80b4
00000080: 1118 bb37 cc58 0fb7 cd02 59b8 6227 5cb7
00000090: 7e23 73b7 2e98 71b7 4ddf 5437 f057 0cb7
000000a0: f051 1bb6 805b b738 de56 c8b5 1cdf cdb7
000000b0: bcfe e237 a81c 88b7 5a65 8e38 b529 c437
000000c0: 8dc3 25b7 07b9 6d37 06c6 9138 27df 06b8
000000d0: 04de ce36 cce7 2937 5dfd 96b7 d0a1 99b8
000000e0: 9913 5034 bf1e 0b37 fabf 25b7 7914 6a35
000000f0: a651 bcb8 b0d9 02b8 85a2 3bb7 a516 4c37
00000100: a4d6 e336 888c 8fb7 565c 2237 bc1c df37
00000110: 0783 5c38 a539 11b7 4485 8ab6 bd5a a736
00000120: e148 6436 b645 3738 d543 8f37 f0c0 d138
00000130: 4d9d c337 3c56 d8b7 8de6 8938 b854 0538
00000140: 4df9 d5b7 93c4 77b8 82f2 f3b7 6467 c935
00000150: e230 ce37 646a 3d37 1866 5736 7732 ceb7
00000160: 30db 05b8 bf14 b537 7321 04b7 b6e6 ce38
00000170: 58e6 8437 0f60 0b38 c303 61b7 4422 1638
00000180: 82f1 8a38 63fa 28b7 e659 0f37 3647 d5b6
00000190: d831 fab7 391e 6738 d2e3 8038 398d fb37
000001a0: 3fdd 8937 975a 8b36 c4de 3437 47b3 94b7
000001b0: 2439 4fb8 9c5d d938 85cc c837 80d2 95b7
000001c0: c87e 15b8 87bb 83b8 6381 10b8 043e 61b7
000001d0: e131 9937 c074 88b8 8998 ccb6 a253 2837
000001e0: cca0 2d38 7ed6 25b8 9bb4 07b8 feeb 7e37
000001f0: a22b a9b5 985b 29b7 8d60 5f38 2ae1 04b7
00000200: c130 ddb7 85d7 2db8 b242 f936 8491 7f38
00000210: dc8f e237 be51 1eb8 0a61 8bb7 b90e ef37
00000220: f63e 2f38 2332 a235 742c 9fb7 f6df 1bb8
00000230: 2d0f 1eb7 f169 e137 3e65 8835 f9a1 adb8
00000240: b1c7 8f37 e923 bdb6 9b44 30b6 8fbb 3ab6
00000250: 261a 4fb6 668b 91b7 29b2 49b7 2bdb 81b6
00000260: 5e4d ec36 d83f a3b7 b823 a738 fb45 6837
00000270: 0f47 f6b6 cf25 90b7 9f53 d9b6 1779 2037
00000280: a4ac 33b3 098a 8cb6 0578 c437 1441 6e38
00000290: 0e31 d4b6 2597 6db7 5b47 9537 e73e 11b6
000002a0: a465 c1b7 ce89 7e37 c7f3 29b6 e00b 0236
000002b0: 106a 2538 1a78 d936 ba1f 16b8 5306 4f37
000002c0: e026 9137 761f 3cb8 7a92 9537 4985 4637
000002d0: fb36 e3b6 f8b4 9937 abcb 8db6 71c3 b337
000002e0: 4cf5 4f38 7467 e7b7 470a c437 e223 13b8
000002f0: 3019 d8b5 8c96 7d38 0b50 e5b7 2013 ef37
00000300: 4cda 72b7 e01c bdb7 17dc c938 858b 8037
00000310: da9a a2b7 ae12 87b8 a931 2938 2b56 6a37
00000320: 1beb 1eb7 38da 44b8 ec94 d7b6 898e ebb7
00000330: 8c88 7b34 c7f5 f437 3de8 9337 7a8e 93b2
00000340: 28fe e6b7 4d63 1938 0430 4e37 0247 40b8
00000350: 4613 0937 f87d f1b6 576f 7d37 3ec0 8737
00000360: 3395 78b6 c688 37b7 aaf0 c237 5abc c6b6
00000370: 22cf 1cb7 1662 a038 8602 0037 0d3e e6b5
00000380: ae55 2a38 44d4 3738 371c a6b7 0b7f a936
00000390: 5fdc 2036 3fc1 2d38 99aa 7137 efb0 91b7
000003a0: b971 a137 16af d1b7 6456 2838 ed8d 61b7
000003b0: db39 5638 718e 95b8 cab9 66b8 3919 44b8
000003c0: 7e36 48b7 bf03 0db7 f872 b4b7 0b96 4cb8
000003d0: 640d e134 4156 a036 1ac6 8ab8 6f0f 5cb7
000003e0: 7e64 0cb7 fe0c 2438 e681 a438 d803 43b7
000003f0: 5bff 9538 ea91 c936 549f 7db8 8b7d 46b7
1.1228311e-05 -4.5666216e-06 2.6258e-07 -5.6697838e-05 -1.1062588e-05 -1.9208563e-05 -1.5318938e-05 -1.29713335e-05
6.791342e-05 2.0126996e-05 5.5297714e-05 2.2868988e-05 -8.495383e-05 9.383377e-06 9.33537e-06 2.327059e-05
-1.2450803e-05 3.7702503e-05 1.5226907e-05 1.6430798e-05 -2.1755484e-05 -9.510791e-06 4.0510804e-06 -2.4949237e-05
-2.4053318e-07 4.216039e-06 8.210678e-06 8.016801e-06 -1.2574836e-05 -3.5041412e-05 -7.474421e-06 -2.3863436e-07
2.2303344e-05 -8.544139e-06 -5.173944e-05 -1.3122191e-05 -1.4492192e-05 -1.44001515e-05 1.2688176e-05 -8.365125e-06
-2.3144494e-06 8.743163e-05 -1.4926443e-06 -2.4541798e-05 2.705992e-05 -1.6225807e-05 6.789966e-05 2.3384442e-05
-9.880297e-06 1.4169381e-05 6.9510235e-05 -3.2155916e-05 6.1651244e-06 1.0127154e-05 -1.7999375e-05 -7.3257484e-05
1.9378639e-07 8.292204e-06 -9.879464e-06 8.7201585e-07 -8.979747e-05 -3.1197153e-05 -1.1183908e-05 1.216462e-05
6.7901146e-06 -1.7112368e-05 9.677451e-06 2.6597052e-05 5.2574116e-05 -8.656095e-06 -4.1282347e-06 4.987551e-06
3.4017069e-06 4.3695523e-05 1.7078515e-05 0.00010001834 2.331906e-05 -2.5789363e-05 6.5756125e-05 3.178857e-05
-2.5507668e-05 -5.9072463e-05 -2.9080784e-05 1.5005758e-06 2.4579876e-05 1.1290049e-05 3.2096923e-06 -2.4580613e-05
-3.1913805e-05 2.1586542e-05 -7.875601e-06 9.865819e-05 1.5842888e-05 3.3229644e-05 -1.3411921e-05 3.57947e-05
6.625337e-05 -1.0071878e-05 8.544395e-06 -6.3561847e-06 -2.9825533e-05 5.510284e-05 6.1459505e-05 2.9987294e-05
1.6434698e-05 4.153069e-06 1.0780703e-05 -1.7726457e-05 -4.9405862e-05 0.000103648024 2.3937095e-05 -1.7860206e-05
-3.5642443e-05 -6.2814965e-05 -3.4452776e-05 -1.3425484e-05 1.8262248e-05 -6.506732e-05 -6.097431e-06 1.0033053e-05
4.1396168e-05 -3.9538827e-05 -3.235471e-05 1.5194526e-05 -1.260418e-06 -1.0094511e-05 5.3257263e-05 -7.920238e-06
-2.6367956e-05 -4.1447132e-05 7.4285426e-06 6.093226e-05 2.700829e-05 -3.7746264e-05 -1.6615279e-05 2.8497876e-05
4.178189e-05 1.2084532e-06 -1.8974977e-05 -3.716346e-05 -9.421067e-06 2.6871423e-05 1.0162255e-06 -8.2794526e-05
1.7139917e-05 -5.6368194e-06 -2.6265977e-06 -2.7825333e-06 -3.0860624e-06 -1.735026e-05 -1.2022015e-05 -3.870014e-06
7.042355e-06 -1.9460844e-05 7.969834e-05 1.3844571e-05 -7.3396436e-06 -1.7183744e-05 -6.4768387e-06 9.564937e-06
-4.18337e-08 -4.1883945e-06 2.342091e-05 5.680423e-05 -6.323803e-06 -1.4161492e-05 1.7795412e-05 -2.1643298e-06
-2.3054723e-05 1.5171665e-05 -2.532486e-06 1.9378422e-06 3.9437844e-05 6.4810856e-06 -3.5792335e-05 1.2339634e-05
1.730345e-05 -4.4851993e-05 1.7830393e-05 1.18327525e-05 -6.7715278e-06 1.8323291e-05 -4.2258375e-06 2.1429472e-05
4.9581096e-05 -2.758552e-05 2.3369807e-05 -3.508095e-05 -1.6100585e-06 6.046011e-05 -2.73362e-05 2.8499926e-05
-1.447515e-05 -2.2544002e-05 9.625422e-05 1.5323758e-05 -1.9384013e-05 -6.440781e-05 4.033899e-05 1.3967549e-05
-9.472274e-06 -4.6933274e-05 -6.424836e-06 -2.8080556e-05 2.3425872e-07 2.9201516e-05 1.763191e-05 -1.7177843e-08
-2.7536487e-05 3.6570524e-05 1.2289736e-05 -4.58425e-05 8.170324e-06 -7.1970244e-06 1.51058985e-05 1.6182774e-05
-3.7041725e-06 -1.0939495e-05 2.323867e-05 -5.922787e-06 -9.346551e-06 7.6476645e-05 7.629982e-06 -1.7154395e-06
4.0610954e-05 4.3828288e-05 -1.980188e-05 5.0513822e-06 2.397013e-06 4.142639e-05 1.440444e-05 -1.7367738e-05
1.9245652e-05 -2.4996272e-05 4.013478e-05 -1.344409e-05 5.1075458e-05 -7.1314054e-05 -5.5009303e-05 -4.6753532e-05
-1.1933616e-05 -8.405127e-06 -2.1511209e-05 -4.877713e-05 4.191926e-07 4.778413e-06 -6.617252e-05 -1.3116615e-05
-8.368048e-06 3.9112747e-05 7.844325e-05 -1.1623801e-05 7.152437e-05 6.0072534e-06 -6.0468286e-05 -1.183095e-05

b_classifier.q.0.bias f4 [128]
00000000: d86d 9bb6 e4cf fa36 2afa 09b7 075d 27b8
00000010: dbf9 61b8 c599 c4b7 df09 40b8 e013 3cb8
00000020: 3390 58b7 0bd7 8ab7 4fae a6b8 d561 8d37
00000030: 8a3b e0b7 537e ad36 c3eb 0138 0d04 1338
00000040: 5d3b 5638 758a b437 57ac c3b7 6731 4e38
00000050: 9c54 0bb7 979e 5b37 9396 07b7 2fcd 1b37
00000060: a9ea f337 bc84 79b7 e48b d3b6 8081 8236
00000070: af34 93b5 1c6c a6b8 5f78 1c38 0b7e 9e38
00000080: ed68 3db8 e55f b137 0783 a8b7 8297 94b7
00000090: 8925 c3b7 aa7b c936 7f63 0738 4faf 30b8
000000a0: de2a 2ab7 cf34 26b8 21c8 11b7 0a9f 8837
000000b0: 8739 8a37 b442 1738 eaf9 8635 9e11 abb5
000000c0: a6c5 1238 ea07 9537 24e8 0237 2857 92b6
000000d0: 80bc 1f38 c0bc 4538 21af 65b7 608d 9f37
000000e0: cb77 b9b7 6bd7 d9b7 8ffe 11b7 0f63 d637
000000f0: 12be 2ab8 ca14 0d38 77cc 8038 8c5b 5538
00000100: c95d c7b5 6eb4 3137 b58d eeb7 3bbc 3a38
00000110: 55c0 9bb7 277e 52b8 be90 f436 09cc 1bb7
00000120: fe8c 15b7 3d0a ae37 723a edb7 ff74 1e37
00000130: 4205 b237 6e54 14b8 caf0 ab37 31a6 a7b7
00000140: e7bc 6836 984c c638 efc5 7936 00f2 0a38
00000150: cf0e 0338 c05c 4ab5 25f2 f7b7 531f 82b7
00000160: 7a0e 26b8 bf3e 6cb3 50d4 f6b7 ec08 1838
00000170: c397 0bb4 52ba 1d38 616b deb7 4870 1fb8
00000180: 9d1a ecb7 d71d 12b8 b283 be36 2b7f 7037
00000190: 3b54 eab7 4ec8 4ab7 dba3 62b8 1675 23b8
000001a0: 2e66 4538 59f9 1037 ada5 85b8 da8b bc36
000001b0: 0196 57b8 4bb3 3db7 56b2 5636 7ade fb36
000001c0: 949c b8b7 edeb 82b7 27ce c137 ab4e 5bb7
000001d0: 8368 bab7 c136 a937 8278 f6b7 90fd 4db8
000001e0: 2878 d7b7 58a9 1438 538b 0038 df02 ef37
000001f0: 5d43 3cb8 aa7a c937 fc86 86b7 bb8e d236
-4.6321475e-06 7.4747823e-06 -8.224082e-06 -3.990254e-05 -5.3876876e-05 -2.3436625e-05 -4.578556e-05 -4.4841203e-05
-1.2908177e-05 -1.655102e-05 -7.947964e-05 1.6854066e-05 -2.6730606e-05 5.170508e-06 3.0975567e-05 3.5051304e-05
5.1076862e-05 2.1522146e-05 -2.3326063e-05 4.9160237e-05 -8.304745e-06 1.3090342e-05 -8.081685e-06 9.286493e-06
2.907713e-05 -1.4872461e-05 -6.3045754e-06 3.8893777e-06 -1.0967686e-06 -7.935634e-05 3.7305403e-05 7.5575044e-05
-4.515883e-05 2.1144699e-05 -2.0088175e-05 -1.7713526e-05 -2.326329e-05 6.004663e-06 3.227917e-05 -4.212494e-05
-1.014277e-05 -3.9626666e-05 -8.68927e-06 1.6286522e-05 1.647767e-05 3.6063328e-05 1.0056513e-06 -1.274562e-06
3.4993187e-05 1.776587e-05 7.802653e-06 -4.3612854e-06 3.808411e-05 4.7144247e-05 -1.3690239e-05 1.902011e-05
-2.2109502e-05 -2.5968728e-05 -8.7019425e-06 2.5556916e-05 -4.0708175e-05 3.363638e-05 6.1416e-05 5.0868417e-05
-1.485395e-06 1.0592032e-05 -2.8437798e-05 4.452116e-05 -1.8567001e-05 -5.018539e-05 7.288617e-06 -9.286226e-06
-8.913919e-06 2.0747184e-05 -2.8279817e-05 9.444774e-06 2.1221702e-05 -3.536458e-05 2.0496915e-05 -1.998534e-05
3.468065e-06 9.4556424e-05 3.7219104e-06 3.3127144e-05 3.1246625e-05 -7.5385833e-07 -2.9557452e-05 -1.5511794e-05
-3.9590966e-05 -5.50051e-08 -2.9424351e-05 3.6247933e-05 -1.3000594e-07 3.760524e-05 -2.6514464e-05 -3.8013124e-05
-2.8145785e-05 -3.4836903e-05 5.6777726e-06 1.4334723e-05 -2.7934197e-05 -1.2086775e-05 -5.40352e-05 -3.8971273e-05
4.7063622e-05 8.641125e-06 -6.372794e-05 5.6191175e-06 -5.1399697e-05 -1.1307023e-05 3.199229e-06 7.5062826e-06
-2.2007422e-05 -1.560707e-05 2.310339e-05 -1.30717335e-05 -2.2221595e-05 2.0171867e-05 -2.9381601e-05 -4.9111957e-05
-2.568595e-05 3.5443663e-05 3.0647334e-05 2.8492357e-05 -4.488543e-05 2.4018187e-05 -1.6036902e-05 6.2751037e-06

b_classifier.q.2.weight f4 [128, 128]
00000000: 9f91 ceb0 dfb3 62b0 2b7f edb7 483d 23bc
00000010: 6068 0dbc 9975 f5b2 a91f 03bc cc4a 8f3c
00000020: b0c7 1b3c 24ad 47b8 13cc 4dba 4b1e c1bc
00000030: 8821 9cb5 865b 0539 d085 c83c 0505 c23c
00000040: 03b5 493b b9f6 723c 2afb b237 51c0 7038
00000050: a182 673c bd7f e7b6 1b2d b3bc e077 4db8
00000060: 3ecb aa3c ce25 28b1 8797 89b3 8fbf 6fb1
00000070: 609c 8ab8 57fd 6cbc 44f3 8cbc 766a 01b2
00000080: d991 ce3b 8a9e 98bb a991 02b8 3419 68b1
00000090: 69c5 dd30 f249 a2ba a4cb a130 cacd 8d38
000000a0: a249 b7b1 799d bbbb 8b85 2c37 50c2 fa3b
000000b0: 8446 3f37 d6c7 0ab7 d1a5 9337 a26d cdbc
000000c0: 36ae cfba e080 4abb 7e21 6eb7 9dde 69b1
000000d0: b745 323c 6c9a b33c 1387 a937 e0f3 ff39
000000e0: bb0d 18b7 dd51 2238 b05c a53c 2fe7 ddb6
000000f0: 9187 a6bc bc68 8abc 328e d83b fcde 85b8
00000100: 8ece 113b 1b97 d3b9 8da1 18ba 4ab1 2b37
00000110: 00fe 8fbc e862 a1b8 b0ff 8db8 e393 90bc
00000120: d939 deaf 4495 bc38 8e3d c837 f366 8a38
00000130: 1f7f aebc 5a43 0b32 99e7 b5bc 442e 3838
00000140: 1221 cbbc 11a8 97b7 7a87 bfbc 9dde b1b0
00000150: 9197 c7b8 fa83 1e31 5b18 6bbc 14bc 8337
00000160: 48d8 b5b2 ff48 8f3c ca29 9e38 2b68 5732
00000170: 64fb 9235 6c30 40b7 3340 b937 63dd 373b
00000180: 0808 3a37 9e7e a537 2a30 9a2d b3cd 3db1
00000190: 6cf7 393c b297 ceb7 dd3f e7ba aa6b 1537
000001a0: 9d5f bb33 0a3f 43b7 4d98 60bc 5d82 95b7
000001b0: c9d7 4936 79a5 a33c bc54 61bc 2fc0 18b7
000001c0: 125f 04bc fb0f 80bc f514 cbbb 572f d3b6
000001d0: 6dc3 30b8 95a4 6fb9 52f1 09b7 afc8 833c
000001e0: ab71 9836 9d7b 4e31 6427 8033 ecb7 51b1
000001f0: f066 8cb1 aa6f abbb 8fe2 b4b7 908a 0db7
00000200: 7be8 dc3b f929 07b7 91be 7d3c 3389 0536
00000210: dd55 80bc ce9f bc36 783a 94bc ad03 c5b7
00000220: dae3 5336 1f75 66bc ef7a 58b6 5bfc 163c
00000230: 9921 473b bd10 873c ff6c aabc b4e5 9236
00000240: 99b3 ceb7 5e6b ae37 2c6d fa37 9f4d a62e
00000250: 5e6b a0b7 1daa 6ab6 95f8 c8b0 8ebc eab8
00000260: fd21 46b8 09d8 0a3b 43e3 dbbb 460f d3b7
00000270: 1a4c 432d 12ce 75b8 7bc3 8c3a 08f2 2cbc
00000280: 0712 6836 e70d 983c 8cbb 0db7 7fa3 aab6
00000290: 781f 8cad b140 cf37 e307 f136 d03f b53b
000002a0: c186 4233 fd56 8e37 fd76 373b d4a7 a034
000002b0: ab09 d8b1 2c7d d2bb 8ce7 9138 c0ec 9dbc
000002c0: 79a7 2fbc f2b4 a6bb dce4 a3b0 50eb aabc
000002d0: fb63 98b7 3dcc c43c 81a9 d8b7 6b3f feb9
000002e0: 900f 27b8 129d 39b7 83d1 8eb8 8485 8035
000002f0: 6c77 8438 c7f7 0a37 3096 98b8 dab7 d937
00000300: 1d31 512f 0a0f 5b37 569e a338 64d5 c53b
00000310: b905 6837 e1d5 9333 ff13 3cae 979a a636
00000320: ac3e d8b7 9420 fabb 27ac 2db8 d3ac dd3b
00000330: c8ab ba37 e264 af37 8ab7 a5bc 5538 423a
00000340: cf08 8f3c 278b 8bb7 aa00 1837 0b21 c337
00000350: f576 183c c818 5fb7 9c12 143c 0094 19b9
00000360: 72ec b9b7 1c28 863c 4945 f3ba 77f0 6bbc
00000370: 641a 84bc 66c8 23b7 284c 1ab7 8c18 4b37
00000380: 04dd 373a f1d6 7e36 a821 9d38 2034 52b0
00000390: ddb1 8237 68ab 5037 00f0 fd3b 8686 0d38
000003a0: 3242 cfb6 ddde 9d36 a5b3 86b6 4dd5 41b8
000003b0: 350f 70bc 7b21 943c d5c0 24b7 af33 493c
000003c0: 29d3 a6b7 55c5 46b8 146a b736 184b aabc
000003d0: 68ed 28b8 d08a 0539 6956 2b38 313d 15b7
000003e0: 41f6 acb8 1a86 26b7 d798 3cbc 5a63 6bb8
000003f0: 7f8c be3c 2096 8fb7 6d5c 4d3c f86f 0b3c
-1.5029861e-09 -8.2473933e-10 -2.8311819e-05 -0.009963341 -0.008630842 -2.8575231e-08 -0.008003154 0.01749172
0.009508058 -4.7606547e-05 -0.0007850539 -0.023574015 -1.1632665e-06 0.00012717964 0.02447787 0.023684034
0.0030778057 0.014829331 2.1336211e-05 5.7399568e-05 0.014130265 -6.899207e-06 -0.021872094 -4.898745e-05
0.020848867 -2.4468707e-09 -6.407122e-08 -3.4887966e-09 -6.60948e-05 -0.014464698 -0.017205842 -7.532995e-09
0.0063040075 -0.004657571 -3.1130072e-05 -3.377477e-09 1.6135974e-09 -0.0012381657 1.177217e-09 6.761735e-05
-5.334372e-09 -0.0057255593 1.0283092e-05 0.0076525584 1.1400905e-05 -8.271969e-06 1.760098e-05 -0.025076691
-0.0015844766 -0.003089957 -1.41937035e-05 -3.4032503e-09 0.010880879 0.02192422 2.0209269e-05 0.0004881909
-9.063103e-06 3.870005e-05 0.020185798 -6.6132266e-06 -0.020328315 -0.016895644 0.006608748 -6.383468e-05
0.002224836 -0.00040357638 -0.0005822413 1.0233673e-05 -0.017577171 -7.695501e-05 -6.7710294e-05 -0.017648643
-4.0422668e-10 8.9923415e-05 2.3870522e-05 6.5995286e-05 -0.02130085 8.106179e-09 -0.02220516 4.3912107e-05
-0.024796043 -1.8078865e-05 -0.02338003 -1.2941715e-09 -9.517291e-05 2.3067046e-09 -0.0143490685 1.5703998e-05
-2.1169527e-08 0.017490862 7.541811e-05 1.2538332e-08 1.0951012e-06 -1.1455366e-05 2.2083614e-05 0.002805554
1.1088334e-05 1.9728493e-05 1.7529162e-11 -2.7620046e-09 0.011350494 -2.4627752e-05 -0.0017642934 8.90616e-06
8.725258e-08 -1.1637583e-05 -0.013708186 -1.782289e-05 3.0076937e-06 0.019976364 -0.013753112 -9.104652e-06
-0.008079307 -0.01563262 -0.0061975666 -6.293801e-06 -4.2143674e-05 -0.00022854128 -8.222023e-06 0.016086904
4.5431857e-06 3.0047211e-09 5.9676296e-08 -3.051805e-09 -4.086239e-09 -0.0052318173 -2.1563172e-05 -8.4365165e-06
0.006741581 -8.0564e-06 0.015487329 1.9898405e-06 -0.015665943 5.6214403e-06 -0.018094286 -2.3485942e-05
3.1574077e-06 -0.01406601 -3.2258065e-06 0.00921544 0.0030385016 0.016487474 -0.020803927 4.37788e-06
-2.4640745e-05 2.0792413e-05 2.985316e-05 7.562594e-11 -1.9123483e-05 -3.4967736e-06 -1.4622566e-09 -0.000111931105
-4.7238533e-05 0.0021185896 -0.0067104413 -2.5160272e-05 1.1101365e-11 -5.860447e-05 0.001073941 -0.010555752
3.4581187e-06 0.018561317 -8.447922e-06 -5.0854283e-06 -1.5930132e-11 2.4706447e-05 7.183278e-06 0.0055312887
4.5291703e-08 1.6968226e-05 0.0027994507 2.9924433e-07 -6.2875265e-09 -0.006423613 6.957268e-05 -0.01927793
-0.010721081 -0.0050874883 -1.1924857e-09 -0.020864159 -1.8166369e-05 0.02402317 -2.5828138e-05 -0.00048493905
-3.9830396e-05 -1.106343e-05 -6.810112e-05 9.575601e-07 6.3164945e-05 8.283131e-06 -7.2758994e-05 2.5954028e-05
1.9025888e-10 1.3056919e-05 7.801938e-05 0.006037401 1.382961e-05 6.884125e-08 -4.276401e-11 4.965182e-06
-2.577839e-05 -0.007633278 -4.1406744e-05 0.006764987 2.225292e-05 2.0908603e-05 -0.02022912 0.0007408907
0.017460255 -1.663489e-05 9.060061e-06 2.3261198e-05 0.009305705 -1.3297606e-05 0.00903764 -0.00014646351
-2.2163822e-05 0.016376548 -0.0018560077 -0.014400593 -0.016125865 -9.762216e-06 -9.196847e-06 1.2105458e-05
0.000701383 3.7974062e-06 7.492612e-05 -7.647163e-10 1.5580032e-05 1.2437675e-05 0.0077495575 3.3742304e-05
-6.176787e-06 4.7049093e-06 -4.0144246e-06 -4.6213438e-05 -0.014652063 0.018082371 -9.820059e-06 0.012280389
-1.9887071e-05 -4.739066e-05 5.466174e-06 -0.02078776 -4.0275423e-05 0.0001273558 4.0850053e-05 -8.895339e-06
-8.2474675e-05 -9.925594e-06 -0.011511049 -5.6120894e-05 0.023260353 -1.7116836e-05 0.012534243 0.008510582

b_classifier.q.2.bias f4 [128]
00000000: 6753 30bc bf8c 88b8 7d33 573a 7105 c7b5
00000010: 26ea 81b7 ac47 a6bc 69d1 a731 c88d aeb2
00000020: 9510 91b7 42a8 a636 b689 ca32 0b8b 3d3a
00000030: 542f 76b1 0bd4 c3b8 327d fd37 d2ed 8137
00000040: ccfd f930 2152 10bc b89a af35 04fc 0a38
00000050: 82e0 9c39 a8ae 6e37 dfd3 7a37 08b4 45bc
00000060: afc6 e8b7 0601 dd37 553e c4bc 208c 70b6
00000070: fcb6 cab6 90a4 8bb6 6fb9 acb2 01ad 1737
00000080: 0f48 9a3c b181 f2b9 3f9d 44b6 1365 48b5
00000090: f9a3 0cb7 dffc 6c34 466f 803c 7413 823c
000000a0: 7624 c3bc ad33 a2b7 01a5 9bb2 c39e 8db5
000000b0: dbae 5f37 f0d0 5bbc e8e8 b5b3 d415 3138
000000c0: af14 333c 2ab1 4838 452e 6f37 8be1 ccbb
000000d0: 0ea3 2f38 ad8c 4f37 585c 06b8 9751 9ab3
000000e0: 3796 a1bc fbed 0338 3b5f 3f38 988b fd37
000000f0: 42cf 9236 3f90 c3b8 2c3d 4d3b fbbe 893b
00000100: 897c 6c33 4264 94b5 3b7d ae37 b101 98b6
00000110: 5e7a 53b6 46f0 c0b6 5c65 1b37 ab7f 11b2
00000120: 7ece b0b6 98eb 8f3c 4925 663c c429 efbb
00000130: abd9 b231 5fea 67bc 9a3c 71b7 82db ac30
00000140: 8c7d 9d3b 9fdf 4533 5b37 b9b7 5a8b 62b4
00000150: 149b 3133 81dd 8fb6 b2e9 bbb7 34c5 be3b
00000160: d138 29bc d078 42b7 f1ab 5633 fbb1 9837
00000170: 333a e237 b4c0 7a39 8fe4 c13c 0ca7 a0bc
00000180: 0e5e 7136 7162 e133 4bd4 68b7 bda5 743c
00000190: d586 bcb7 b7ee d5ba 6607 c4bc 867f b0b7
000001a0: 0b91 dbb7 3416 9736 f26d 68b7 5fbe dfb7
000001b0: 7e0a c2bc 022f 9137 547e b8bc 5b18 04b7
000001c0: 11b8 7ebc 9061 63bc a631 d43a 913b 91bc
000001d0: 76e6 503c 2043 8032 ed3a e43b a7e4 d1b4
000001e0: 9753 84b8 ad0b b2bc 8706 03bc 8441 9b37
000001f0: 5f06 a0bc 741f f13b 0991 4d3c 8981 08b6
-0.010762072 -6.511201e-05 0.00082092715 -1.4828239e-06 -1.5487032e-05 -0.020297848 4.884147e-09 -2.032074e-08
-1.7293069e-05 4.9667733e-06 2.3578519e-08 0.0007230497 -3.5824614e-09 -9.337821e-05 3.0218249e-05 1.5488742e-05
1.8189268e-09 -0.008808644 1.3083545e-06 3.313647e-05 0.0002992191 1.4226571e-05 1.4950491e-05 -0.012066849
-2.7749074e-05 2.634573e-05 -0.023955503 -3.584435e-06 -6.0413713e-06 -4.1616804e-06 -2.010776e-08 9.040582e-06
0.018833188 -0.00046254465 -2.9297805e-06 -7.465289e-07 -8.382828e-06 2.2071207e-07 0.01567806 0.015878417
-0.023821097 -1.9335968e-05 -1.811941e-08 -1.0551524e-06 1.33325475e-05 -0.013416514 -8.470835e-08 4.2220418e-05
0.010930224 4.7848713e-05 1.4256283e-05 -0.0062524728 4.1875108e-05 1.2370915e-05 -3.203409e-05 -7.186025e-08
-0.019724948 3.145447e-05 4.562664e-05 3.0224954e-05 4.375267e-06 -9.3251925e-05 0.003131698 0.004203675
5.5061296e-08 -1.1056038e-06 2.0800731e-05 -4.53015e-06 -3.1512677e-06 -5.7500174e-06 9.2623195e-06 -8.469139e-09
-5.2692476e-06 0.017568395 0.014046975 -0.00729868 5.205228e-09 -0.0141549995 -1.4378829e-05 1.2577035e-09
0.004806226 4.607102e-08 -2.2079495e-05 -2.1098586e-07 4.1352067e-08 -4.2875185e-06 -2.240096e-05 0.0058218483
-0.0103284875 -1.159143e-05 4.9982138e-08 1.820269e-05 2.69684e-05 0.00023913645 0.023668556 -0.019610904
3.5966546e-06 1.0495285e-07 -1.3877706e-05 0.014932093 -2.2474132e-05 -0.0016321753 -0.02392931 -2.1040218e-05
-2.6174375e-05 4.5027355e-06 -1.3853876e-05 -2.667232e-05 -0.023686644 1.7307237e-05 -0.022521175 -7.873484e-06
-0.015546815 -0.013878241 0.0016189113 -0.017728599 0.012750259 1.4931686e-08 0.0069650323 -3.909565e-07
-6.30982e-05 -0.021734083 -0.007997162 1.8507948e-05 -0.019534288 0.007358486 0.012546786 -2.0340979e-06

b_classifier.fcc.weight f4 [2, 2, 512]
00000000: c416 083c 3f26 d63a 1cee 22bc f239 7abb
00000010: 27e0 8fbc c498 8f3c fa59 893c 36e9 c73b
00000020: 5cf1 a3bc c540 c1bc 8cfc a33c 958d 0f3c
00000030: 19ac 7f3c 9789 16bb b9dd a4bb e125 bbbc
00000040: 3da6 033d 37ce cd3a 1c15 b43c 4d57 a73c
00000050: 9126 633b eb70 2cbc 0712 243a 7ca7 1cbc
00000060: 9643 4fbc 4a44 5f3b 015a ba39 4168 8cbc
00000070: 8bf0 50bb 2bb1 c73b 0e81 96bc b28d 52bb
00000080: 6eea 943c b9a3 753c bd08 323c 31b8 28bc
00000090: e54c d63c cf2d 763c 34a7 243c 7654 8239
000000a0: 262a daba daa0 993b d640 11bc aa0c ccba
000000b0: a0fd 543c 9e1f 103c 4f48 ef3c b34c b9bb
000000c0: 2e51 f0bb e2e0 70bc ad43 a4bb cca8 a63b
000000d0: e416 a63b 59bb bf3c d0e4 b63c 6776 3a3c
000000e0: da74 d93b ad83 dbbb f00c f7bc 9b6a fa3a
000000f0: 732e b6b9 5be3 47bb 482d 59bc 5676 ae3b
00000100: 0d61 47bc 5f7a 3e3c 60ee fbbc 8988 c6bc
00000110: 151c 1dba 525d f1b9 a259 89bb 273b 57bc
00000120: cfca bbb9 9c0c 99bc b222 46bc 9ef9 b4ba
00000130: 49b7 773c 9220 07bb f875 2c3c fd71 e2bb
00000140: 58d4 2b3c 32cd dbbc aa65 9abb 944f 2f3c
00000150: 11ea 273b 9ed4 643c 87e2 9a3b 9a2e b2bc
00000160: 01c4 4a3b 77fe 84bc 82af 53bc 2b3d 853c
00000170: a5fe 873b 1643 a3b9 e4ce d43b 36fe babb
00000180: 14cd 98ba 32df 26b8 f40a a7bc d2e9 20bc
00000190: 7e2e ed3b adaa 9fbc 9860 f5bb e1c0 4f3c
000001a0: 62ce 82bc 5ef8 5dbc 0c71 5ebb ddc0 d4bc
000001b0: 2344 8a3c 0816 b23c edcd 993c e393 5d3c
000001c0: 6439 333c 801a bdbc 1d68 183c 6999 453c
000001d0: 4567 f1b9 fe15 7fbc 217f 9bbb 73c2 953b
000001e0: 4749 4b3b a4f1 003b e144 1d3a 1a47 883b
000001f0: 3667 86bc e798 e6bb 692b 85bc 4ba0 c9bb
00000200: 9ea3 d9bc 161e 6abc c2b2 2f3c 8ea6 28bc
00000210: 7514 33bc 06e0 613c 2e70 6a3c 0cd9 11bc
00000220: 615f 403c f5f2 ff3a 2d1f 83bc 8d89 c3bb
00000230: c4d8 45b9 29a7 c33b 12f3 62bc 2936 0abb
00000240: f01e 9f3b 396a 443c 06d1 e9ba 380f 3dbc
00000250: ec22 cb3b c315 9d36 6479 41bc 9746 c93a
00000260: df46 0c3b d0fb a63b 9901 e43a 93a9 2cbc
00000270: 6ee6 323c a1d3 f73a 7e9d 513b b592 bbbc
00000280: 5ef9 45bb 9a62 963b 41b1 f9bb 2e59 bebb
00000290: 2299 ec3b ee7d 8c3c 7bcd 1dbb 55cc 173b
000002a0: 68a8 b23c ce36 58bc 897c cb3c 440f 273c
000002b0: 1a70 bc3c 89d7 fe3b e6df 8fbb f71b 093c
000002c0: 3d8b 28bb 1e50 493c ab41 c9bb 91c0 9c3b
000002d0: 23d2 0f3a 002a 07bb e5b6 d5bc a6d9 493c
000002e0: 9838 9ab9 b23e 033a 6f28 f3bb 5560 ecbc
000002f0: 76b4 473c d00f c7bb 4ffe aebb 1c0c 973c
00000300: 0b87 8cbc dd04 bd3c 73f4 9a3b 7795 5abc
00000310: 249a bc3c 0c4a 6f3b 96e5 43bc d9be 9c39
00000320: 4760 9e3c 92df 65bc 34eb 0abc 7c87 7e3c
00000330: eae8 423c 6897 bcbb 6875 883c 727d 4b3c
00000340: a20f cabb 8e75 503b ec40 63ba f328 a93b
00000350: 4f8a fc3a c716 833c 9439 c43b c1a5 49bc
00000360: 5eb5 9fbc 520f cb3c 0753 5f3b ce48 e83b
00000370: 3a6e ccba b03a c8bb bf84 aaba 428b 293b
00000380: 7758 3bbc 2e8a a33c b0fe fd3b e089 e03a
00000390: a7a0 81bc f9d8 b63b 4d60 7bbc 1c8a c63b
000003a0: 50bd c13b 0c39 0a3c 55cf 9fbc 603a e5bb
000003b0: b93b 25bc b319 333c 2578 ad3c 6536 d13c
000003c0: f267 8fb9 308f 3cba bb85 633c 8f41 bf3c
000003d0: 729c 98bc e9ae fc3b 3e87 62bc 256a 67bb
000003e0: 8951 1c3c b9d1 b7bc db88 82ba 6fea 803c
000003f0: 23bd 103b 5da2 643b a5de 1b3c 5c89 8e3c
0.008306209 0.0016338303 -0.009944465 -0.003818151 -0.017562939 0.017528899 0.016766537 0.006100799
-0.02001255 -0.023590455 0.020017885 0.008761783 0.015604996 -0.0022970194 -0.005031314 -0.02284521
0.03214096 0.0015701716 0.021982722 0.02042737 0.0034660439 -0.010524969 0.000625879 -0.009561416
-0.012650391 0.0034067803 0.00035543743 -0.017139556 -0.0031881656 0.006094118 -0.018372085 -0.0032127914
0.018178191 0.014992648 0.010866341 -0.010297821 0.026159713 0.01502557 0.01004963 0.0002485846
-0.0016644641 0.0046883645 -0.008865556 -0.0015567739 0.012999922 0.008796601 0.029209284 -0.005654895
-0.007333896 -0.014702054 -0.0050129504 0.00508604 0.0050686467 0.023404764 0.022325903 0.011380768
0.0066362442 -0.0066990466 -0.030157536 0.0019105257 -0.00034748352 -0.0030500505 -0.013255425 0.0053241653
-0.012169135 0.011625855 -0.030753314 -0.024235027 -0.0005993259 -0.0004603663 -0.0041915933 -0.013136662
-0.00035818524 -0.01868277 -0.012093233 -0.0013807302 0.015119382 -0.0020618779 0.010526173 -0.006910561
0.010487638 -0.026831243 -0.0047118263 0.010700125 0.0025621692 0.0139667075 0.004726711 -0.021750737
0.0030939581 -0.01623462 -0.012920262 0.016264519 0.004150229 -0.00031139766 0.00649439 -0.005706574
-0.0011657798 -3.978535e-05 -0.020390965 -0.009821372 0.0072382083 -0.019490564 -0.0074883215 0.012680263
-0.015967552 -0.013547985 -0.0033941893 -0.02597087 0.016878193 0.021739021 0.01877495 0.0135240285
0.010938976 -0.023083925 0.009302166 0.012060502 -0.00046044044 -0.015569208 -0.0047453796 0.0045702993
0.0031019018 0.001967528 0.00059993385 0.0041588666 -0.016406637 -0.0070372703 -0.016256051 -0.0061531416
-0.026567277 -0.0142894 0.0107237715 -0.010293616 -0.01093017 0.0137863215 0.014308972 -0.008901846
0.01174149 0.0019527363 -0.016006077 -0.005967325 -0.00018868136 0.005970855 -0.013851898 -0.002108941
0.004855983 0.011988216 -0.0017838783 -0.011539273 0.0061992314 4.681498e-06 -0.011808727 0.001535612
0.0021404547 0.0050959364 0.0017395496 -0.0105384765 0.0109191965 0.0018907675 0.0031984742 -0.022897104
-0.003020845 0.004589391 -0.0076200073 -0.005808971 0.0072204033 0.017149892 -0.0024078775 0.0023162563
0.021808818 -0.01319666 0.024839656 0.010196511 0.023002673 0.0077771586 -0.0043907044 0.008368484
-0.0025717758 0.012287168 -0.0061418614 0.004783698 0.000548633 -0.00206244 -0.026088187 0.012319958
-0.00029415335 0.0005006596 -0.0074205915 -0.028854528 0.012189021 -0.006074883 -0.0053403745 0.018438391
-0.017154237 0.023073608 0.0047288476 -0.013341299 0.023022719 0.0036512641 -0.011956593 0.0002989683
0.019333018 -0.014030354 -0.008478928 0.015535232 0.011896351 -0.0057553537 0.016657546 0.012420045
-0.0061664144 0.003180835 -0.0008669037 0.005162352 0.0019267293 0.016002072 0.005988309 -0.012307585
-0.019495662 0.024787579 0.0034076588 0.007088757 -0.0015596815 -0.0061105117 -0.0013009532 0.0025870358
-0.011434666 0.01996335 0.0077513084 0.0017130934 -0.015823675 0.0055800644 -0.015342784 0.0060589444
0.0059124604 0.008436453 -0.019508043 -0.0069954842 -0.01008504 0.01093142 0.021175453 0.025538633
-0.0002735253 -0.00071929675 0.013886864 0.02334669 -0.018629286 0.0077112806 -0.01382619 -0.003531107
0.009540924 -0.02243887 -0.0009958999 0.015736787 0.002208539 0.0034886815 0.009513532 0.017399482

b_classifier.fcc.bias f4 [2]
00000000: ac13 933d a1bd 3bbc
0.071814865 -0.011458785
