processing/mil classifier/weights/04182023/2.pth (torch, 343759 bytes, 8 tensors)

i_classifier.fc.0.weight f4 [2, 512]
0	0xbd1a8908	-0.03772834
1	0x3db7c46f	0.089730136
2	0x3d957cb2	0.07299174
3	0xb97919d2	-0.0002375611
4	0xbd564e4a	-0.052320756
5	0x3d8d05e1	0.06885887
6	0x3d2aec74	0.041729406
7	0xbdb64451	-0.08899749
8	0xbe804162	-0.25049883
9	0xbe054c37	-0.13017355
10	0xbcd151a3	-0.025551623
11	0x3d334cb3	0.043774318
12	0xbcf8d678	-0.030375704
13	0x3d90e633	0.07075157
14	0xbbf30948	-0.007416878
15	0x3c16cf16	0.009204647
16	0x3d2d38d4	0.042290524
17	0xbd1f0390	-0.038821757
18	0xbd97c8f0	-0.07411373
19	0xbda8e2b8	-0.08246368
20	0x3c318d50	0.010836914
21	0xbc41dbd6	-0.011832198
22	0xbc094725	-0.008378779
23	0x3dd1bb9e	0.10240863
24	0x3d749a26	0.05971732
25	0xbd83369c	-0.064069
26	0xbdf8eb81	-0.12154294
27	0x3cd160ca	0.025558848
28	0xbbcc89f1	-0.00624203
29	0xbe3098c1	-0.17245771
30	0xbcc67ea3	-0.024230307
31	0x3d5a6802	0.053321846
32	0xbdc23160	-0.09482074
33	0x3daed544	0.08536771
34	0x3d833008	0.064056456
35	0x3cbb3fc6	0.022857558
36	0x3d1a8385	0.037723083
37	0x3d55fbf2	0.052242227
38	0x3c55a2b2	0.013039278
39	0x3dffdadf	0.12492918
40	0x3dba16b3	0.09086361
41	0x3bfdba1e	0.007743134
42	0x3d45b21f	0.048265573
43	0x3e218c99	0.1577629
44	0x3de20d3a	0.11037679
45	0x3cc40972	0.023930285
46	0xbdb97678	-0.09055799
47	0xbc48c42e	-0.012253804
48	0x3ca5d33d	0.020242328
49	0x3dd5611b	0.10418912
50	0x3c0b98bf	0.008520304
51	0xbd29cb78	-0.04145381
52	0x3db2b5cc	0.08726081
53	0xbd9930c5	-0.07480005
54	0xbe251d46	-0.16124448
55	0xbd34544a	-0.044025697
56	0x3dd34bd4	0.103171974
57	0xbd5a7378	-0.053332776
58	0xbcf42f40	-0.029807687
59	0x3cff7b0a	0.0311866
60	0xbd195381	-0.03743315
61	0x3d81bba8	0.06334621
62	0xbe02f33b	-0.12788098
63	0xbe213aae	-0.15745041
64	0x3e163a55	0.1467069
65	0x3d902c89	0.070397444
66	0x3d1474e0	0.036244273
67	0xbd0ab80c	-0.033866927
68	0x3dadacea	0.08480246
69	0xbb85b352	-0.0040802145
70	0x3e0952d2	0.134105
71	0x3d90ce00	0.070705414
72	0x3c35b18f	0.011089697
73	0xbcec1863	-0.028820222
74	0x3cc4a2ba	0.024003375
75	0xbd11c4f6	-0.035588227
76	0x3cc22b34	0.023702241
77	0xbd83bebf	-0.06432866
78	0x3b2fa1a1	0.002679922
79	0xbd684965	-0.05671062
80	0x3e215850	0.15756345
81	0x3d7324ad	0.05936115
82	0xbd8102ed	-0.06299386
83	0x3d8fc9eb	0.07020935
84	0xbda4ec57	-0.08052891
85	0xbda54592	-0.0806991
86	0x3dfb0885	0.12257484
87	0x3d586b88	0.052836925
88	0xbd8cc580	-0.06873608
89	0x3cf06697	0.029345794
90	0xbd04ae1c	-0.032392606
91	0x3d5c061a	0.053716756
92	0xbbeb98af	-0.007189832
93	0x3dc1175c	0.094282836
94	0x3d40a804	0.047035232
95	0x3d1b16cf	0.03786355
96	0xbbc822d0	-0.0061076656
97	0x3db814e2	0.08988358
98	0xbb8a6d9b	-0.004224492
99	0x3bb8e817	0.0056429016
100	0x3c0755f9	0.008260244
101	0xbe005573	-0.12532596
102	0x3c026a15	0.007959862
103	0x3c76ed53	0.015071231
104	0x3cc942ac	0.024567924
105	0xbc90bebf	-0.01766908
106	0xbd91be53	-0.071163796
107	0x3d0c1cc6	0.034207128
108	0xbe551675	-0.20809348
109	0x3e00babd	0.12571235
110	0xbda39fac	-0.07989439
111	0xbd3c1a52	-0.04592354
112	0xbc986658	-0.018603489
113	0xbdcc669f	-0.09980511
114	0xbe04bf00	-0.12963486
115	0xbd2cd9cd	-0.0421999
116	0x3ce1f46a	0.027582366
117	0x3c8bcd96	0.017065804
118	0x3d724265	0.05914535
119	0xbd14f3ed	-0.03636544
120	0x3e01ab01	0.12662889
121	0xbc583f36	-0.013198664
122	0x3d0de369	0.034640703
123	0x3dfbd716	0.12296884
124	0xbe121f95	-0.1426986
125	0x3d585b72	0.052821584
126	0xbdc4e17f	-0.096133225
127	0xbc668bb6	-0.014071396
128	0xbd16ce93	-0.0368181
129	0xbd006e23	-0.031355035
130	0xbd9eefea	-0.07760604
131	0x3d8ca6be	0.06867741
132	0x3c77e931	0.015131281
133	0xbd3af10e	-0.045640044
134	0x39e4ae71	0.00043617518
135	0xbd329ae2	-0.04360474
136	0x3d5a7ea5	0.053343434
137	0x3d0dc28a	0.034609355
138	0xbc0d3231	-0.008617924
139	0x3d0f5455	0.034992535
140	0xbc1e3c30	-0.0096579045
141	0x3e2415d0	0.16023946
142	0x3c92f977	0.01794122
143	0xbd976a98	-0.07393378
144	0x3d31360d	0.043264437
145	0x3ca0a001	0.019607546
146	0x3de91477	0.113808565
147	0x3e177bf4	0.14793378
148	0x3d9cb543	0.076517604
149	0x3d5dec78	0.054180592
150	0x3d7a6ef7	0.06114098
151	0xbca4374e	-0.020045903
152	0x3d0e7ba1	0.03478587
153	0xbd52db40	-0.051478624
154	0x3cebe6fa	0.028796662
155	0x3d89c3a2	0.06726767
156	0xbdf611af	-0.12015092
157	0xbc93fd99	-0.01806526
158	0xbcc2586f	-0.023723809
159	0x3bd3dd15	0.006465564
160	0xbc2383fb	-0.009980197
161	0x3da605d9	0.08106584
162	0xbd98ca0b	-0.07460412
163	0x3d308fbe	0.043105833
164	0xbcbf4fa4	-0.023353405
165	0x3e1d3880	0.15353584
166	0x3e147408	0.14497387
167	0xbc6aa26e	-0.014320953
168	0x3d6130db	0.054978233
169	0x3c8b3d71	0.016997071
170	0xbcb8d3ba	-0.022561897
171	0x3e011062	0.12603906
172	0x3cfc4029	0.030792313
173	0xbbf500c1	-0.0074768965
174	0xbd9eed45	-0.07760099
175	0xbc361252	-0.011112766
176	0x3d321657	0.043478336
177	0x3d7d401a	0.06182871
178	0xbdc403c3	-0.0957103
179	0xbceaea62	-0.028676216
180	0x3df0d1b1	0.117587455
181	0xbca1cad2	-0.019750033
182	0xbdc36ab9	-0.0954184
183	0x3dccfa50	0.10008681
184	0x3c0d985b	0.008642281
185	0x3dfe1d31	0.124079116
186	0x3d0fd5b7	0.035115924
187	0xbd869533	-0.06571426
188	0xbd82c5ec	-0.06385407
189	0x3c64c82b	0.013963739
190	0xbd88809e	-0.06665157
191	0x3c925fa3	0.017867869
192	0x3cd1da54	0.025616802
193	0xbe06a662	-0.13149408
194	0x3d16dfd9	0.03683457
195	0xbd8587ee	-0.06520067
196	0xbda7ae51	-0.08187545
197	0xbde0baf9	-0.10973162
198	0x3e1df89d	0.1542687
199	0xbbb9a3b9	-0.005665269
200	0xb8148171	-3.54065e-05
201	0x3ce4388e	0.027858999
202	0x3e0534d9	0.13008441
203	0xbda7bc50	-0.08190215
204	0x3d70a08c	0.05874686
205	0x3d000aca	0.03126029
206	0x3c7a33f7	0.015271178
207	0xbdf32ee7	-0.1187418
208	0xbc98f963	-0.018673604
209	0xbd79ae54	-0.060957268
210	0xbd8be25a	-0.068302825
211	0x3ddec707	0.10877805
212	0xbdbf112e	-0.09329449
213	0xbe4c2419	-0.19935645
214	0xbcef7aa1	-0.029233279
215	0xbe1f8f32	-0.15581968
216	0x3cd2be29	0.025725441
217	0xbd3db4fb	-0.046315175
218	0x3d9af666	0.07566528
219	0x3dbbd7e2	0.09172036
220	0xbcdad953	-0.026714956
221	0x3d0441b0	0.032289207
222	0xbdaa287b	-0.08308502
223	0x3bcda8ad	0.0062762112
224	0x3cc69303	0.024240023
225	0x3cc205c6	0.023684394
226	0x3dd7dbdc	0.10539982
227	0xbe33b727	-0.17550336
228	0xbd53bc96	-0.05169352
229	0xbd84225f	-0.06451868
230	0x3ca167b9	0.01970278
231	0xbe153818	-0.1457218
232	0xbd06fcbe	-0.032955877
233	0x3d0d24f1	0.03445906
234	0x3d795502	0.060872085
235	0xbd205deb	-0.039152067
236	0xbd36bf57	-0.04461607
237	0x3cb45742	0.022014264
238	0xbd9b52ed	-0.07584176
239	0x3d780931	0.06055564
240	0x3d2a4347	0.041568067
241	0x3c856aab	0.016286215
242	0xbca2176d	-0.01978656
243	0xbd77d7a7	-0.060508396
244	0xbd0464e8	-0.032322794
245	0x3d912b2c	0.070883125
246	0x3dc83db8	0.09777397
247	0x3e09ec99	0.13469161
248	0xbc3c032d	-0.011475367
249	0xbca8b3b0	-0.020593494
250	0x3cba24ba	0.02272259
251	0x3ded31f2	0.11581792
252	0xbcd17e9f	-0.025573073
253	0x3dc2f84e	0.095200166
254	0xbcaa65bb	-0.020800462
255	0xbe1b85f9	-0.15187825

i_classifier.fc.0.bias f4 [2]
0	0x3f1798a7	0.59217304
1	0xbf66d951	-0.9017535

b_classifier.q.0.weight f4 [128, 512]
0	0x3852bc24	5.024312e-05
1	0xb84e39bf	-4.9168008e-05
2	0x37076bc0	8.071715e-06
3	0xb806b006	-3.2112024e-05
4	0x38727ae5	5.781175e-05
5	0x37bfd4a9	2.2868002e-05
6	0x372be55b	1.0245795e-05
7	0x3742cb62	1.1610655e-05
8	0xb7c9c279	-2.4051626e-05
9	0x3806d4a2	3.214612e-05
10	0x380630c1	3.1993495e-05
11	0xb782ebfb	-1.5607095e-05
12	0xb8579b90	-5.1404873e-05
13	0xb7bb9853	-2.2363069e-05
14	0x384c7a14	4.8751084e-05
15	0xb7760881	-1.4664723e-05
16	0x381bca23	3.7143134e-05
17	0x378bf52a	1.6684255e-05
18	0xb7f13903	-2.8755987e-05
19	0xb84e8623	-4.9239152e-05
20	0x37bf2792	2.27874e-05
21	0xb7df0b2a	-2.658887e-05
22	0xb77b789e	-1.4988849e-05
23	0xb787a312	-1.616919e-05
24	0x3820180c	3.8169368e-05
25	0x37e54325	2.7330194e-05
26	0xb8342224	-4.294714e-05
27	0xb8713f68	-5.751793e-05
28	0x379fe22d	1.9059598e-05
29	0x376b054d	1.4008326e-05
30	0x3839a84a	4.426417e-05
31	0xb844949a	-4.6868437e-05
32	0xb6563938	-3.192179e-06
33	0xb78923a3	-1.6348267e-05
34	0x36b28067	5.3197614e-06
35	0x378985a4	1.6393904e-05
36	0xb629a381	-2.5278134e-06
37	0xb66e2ff6	-3.549268e-06
38	0xb7f9d800	-2.9783696e-05
39	0xb7acd1e5	-2.0601738e-05
40	0x38213127	3.8431168e-05
41	0xb82377fe	-3.897398e-05
42	0x380422ea	3.150377e-05
43	0x378d468c	1.684136e-05
44	0xb78c13c0	-1.6698497e-05
45	0xb7bf5a8f	-2.2811144e-05
46	0xb81f26e5	-3.7944777e-05
47	0x3702402c	7.763545e-06
48	0xb82aa29c	-4.06826e-05
49	0x35dfde08	1.6679414e-06
50	0xb7809fb4	-1.5333157e-05
51	0xb802c254	-3.1175397e-05
52	0x37aa3377	2.0289544e-05
53	0xb6c94d10	-5.999238e-06
54	0xb84eb1a4	-4.9279668e-05
55	0xb8730184	-5.7937126e-05
56	0x38150323	3.552729e-05
57	0xb784b4a2	-1.581974e-05
58	0xb78cc327	-1.6780175e-05
59	0x386cc9b3	5.645463e-05
60	0x377cbeaa	1.5064763e-05
61	0xb855faf0	-5.101686e-05
62	0x377a791d	1.492936e-05
63	0xb79c56ef	-1.863713e-05
64	0xb831d2cf	-4.239642e-05
65	0xb7573f57	-1.2829746e-05
66	0xb84c0d62	-4.8649854e-05
67	0x377ac66c	1.494736e-05
68	0xb7854dd4	-1.5891077e-05
69	0x380326af	3.126886e-05
70	0xb7aa7097	-2.0318008e-05
71	0x381b246a	3.6988793e-05
72	0x37ecc709	2.8226075e-05
73	0x37c11012	2.3014876e-05
74	0x384e4f1c	4.9187904e-05
75	0x3854bf82	5.0723094e-05
76	0x37d04b07	2.483047e-05
77	0x37edf8a0	2.8368377e-05
78	0x379e326f	1.8858553e-05
79	0x36e3d546	6.7899555e-06
80	0x37cb6ba5	2.4249612e-05
81	0xb7d66e5a	-2.5562174e-05
82	0x3858c46d	5.168135e-05
83	0x3741653e	1.1527269e-05
84	0x378ac4f3	1.6542594e-05
85	0xb5d697ce	-1.5988423e-06
86	0x37914c26	1.7320806e-05
87	0xb783e0f0	-1.5721162e-05
88	0x38436ff3	4.6595884e-05
89	0xb7099b1a	-8.201949e-06
90	0x370b7b74	8.313789e-06
91	0x37794245	1.4856986e-05
92	0xb7e5e465	-2.7405282e-05
93	0x3773267d	1.449289e-05
94	0xb6f79a28	-7.37912e-06
95	0x377f9986	1.5234929e-05
96	0xb727a5bf	-9.992566e-06
97	0x383b3cb8	4.4640823e-05
98	0x37c870df	2.3894418e-05
99	0x36e66d5e	6.867266e-06
100	0xb459967f	-2.026445e-07
101	0xb7483030	-1.19321485e-05
102	0x38526fb5	5.0171937e-05
103	0xb63e261a	-2.8334384e-06
104	0xb82667d9	-3.96742e-05
105	0x378367fd	1.566484e-05
106	0x372ecfc0	1.0419579e-05
107	0x37808639	1.5321291e-05
108	0x3814cf04	3.5478748e-05
109	0xb607a240	-2.021101e-06
110	0x37916d5a	1.7336268e-05
111	0xb789b0ed	-1.641406e-05
112	0xb85a2312	-5.2007912e-05
113	0x38425a2f	4.6337194e-05
114	0x3804c211	3.165199e-05
115	0xb7ca9efd	-2.4154311e-05
116	0x37745b16	1.4564741e-05
117	0x3752804a	1.2546845e-05
118	0x378c6143	1.6734592e-05
119	0x3773a40b	1.4522123e-05
120	0xb856b6ae	-5.119171e-05
121	0xb82aff82	-4.076912e-05
122	0xb78b84a8	-1.6631864e-05
123	0xb7f068fd	-2.8659118e-05
124	0x36affa11	5.244518e-06
125	0xb7b1b9bd	-2.1186535e-05
126	0xb785db16	-1.5956855e-05
127	0x386a28a1	5.5827786e-05
128	0x368ae36b	4.1391954e-06
129	0xb79f03e8	-1.8956096e-05
130	0x383d5bdd	4.5146666e-05
131	0x3840c1a7	4.595672e-05
132	0x377b3a69	1.49743655e-05
133	0xb5f6c417	-1.8385498e-06
134	0x378feca5	1.7157125e-05
135	0xb82d7723	-4.135737e-05
136	0xb70ab9fb	-8.268743e-06
137	0xb86dd058	-5.669924e-05
138	0xb832ab9f	-4.259834e-05
139	0xb7997fa4	-1.8298459e-05
140	0xb7af1768	-2.0872525e-05
141	0x37daf18a	2.61001e-05
142	0x37f3efb6	2.9079481e-05
143	0x381202e4	3.4811805e-05
144	0x384ee334	4.9325827e-05
145	0x38638019	5.4240318e-05
146	0xb762de71	-1.3522441e-05
147	0xb515149e	-5.553683e-07
148	0x3652ceb9	3.1412767e-06
149	0x3514dbf4	5.545437e-07
150	0xb78269e4	-1.5546517e-05
151	0xb858521e	-5.157489e-05
152	0x382b2018	4.0799467e-05
153	0x386e43b9	5.6806693e-05
154	0x378c678a	1.6737515e-05
155	0x37be4065	2.2679751e-05
156	0x385351d1	5.0382518e-05
157	0xb788ad1e	-1.6293077e-05
158	0x374c68e0	1.2183766e-05
159	0xb831184c	-4.2222717e-05
160	0x375be8d8	1.310763e-05
161	0x385acaac	5.2164003e-05
162	0x373c8a5f	1.123789e-05
163	0xb866a210	-5.4987206e-05
164	0xb7eb981c	-2.8085014e-05
165	0x378399ce	1.5688038e-05
166	0xb82998f6	-4.0435196e-05
167	0xb70ec062	-8.508652e-06
168	0x36f9dd46	7.446538e-06
169	0x3824ac4c	3.926111e-05
170	0x36c54d4a	5.880055e-06
171	0x37aec046	2.083195e-05
172	0xb7f0f197	-2.8722729e-05
173	0xb853d5b0	-5.0505332e-05
174	0x38414b61	4.6084988e-05
175	0xb85f7ea9	-5.3285305e-05
176	0xb8622c17	-5.392366e-05
177	0xb7722077	-1.4431883e-05
178	0xb8314269	-4.2261938e-05
179	0x378d8b22	1.6873299e-05
180	0x37f5ee9b	2.9317385e-05
181	0x373cee0f	1.1261101e-05
182	0x3875fd77	5.864861e-05
183	0x37041082	7.871657e-06
184	0x386126c4	5.3680284e-05
185	0x3814a6cd	3.5441295e-05
186	0xb7af59ba	-2.0903408e-05
187	0xb7e5e745	-2.740662e-05
188	0x3743c2ed	1.166829e-05
189	0x374b27a7	1.2108975e-05
190	0xb79cdb9a	-1.869891e-05
191	0xb78b1309	-1.6578955e-05
192	0x3822a8d0	3.878103e-05
193	0x37e14f22	2.685894e-05
194	0x378b0ab1	1.657507e-05
195	0x383a18c9	4.436894e-05
196	0xb83ea5c4	-4.545391e-05
197	0x37815382	1.5416885e-05
198	0xb876f9ad	-5.88835e-05
199	0xb6fdb435	-7.5609664e-06
200	0xb76a4a09	-1.39647245e-05
201	0xb7379e93	-1.0944571e-05
202	0xb83e2f27	-4.5343444e-05
203	0x385f3546	5.3216958e-05
204	0x378faac7	1.7126453e-05
205	0x3757db55	1.2866066e-05
206	0x36abb22a	5.116938e-06
207	0xb77b9315	-1.4995011e-05
208	0xb8094e90	-3.2736512e-05
209	0x3784cc6f	1.5830823e-05
210	0x37742638	1.4552432e-05
211	0xb75b7e02	-1.3082756e-05
212	0xb80f197d	-3.4117595e-05
213	0x37decfa9	2.6561162e-05
214	0xb78b8335	-1.663119e-05
215	0xb7a3ddac	-1.9534338e-05
216	0x3802a12f	3.114453e-05
217	0xb863fb79	-5.435522e-05
218	0xb74dc79d	-1.2265428e-05
219	0x385d1c6b	5.2716972e-05
220	0x37bbbc95	2.2379952e-05
221	0x376eccb8	1.423357e-05
222	0x36d9fb0b	6.496329e-06
223	0x378a11bf	1.6459146e-05
224	0xb76319bf	-1.3536249e-05
225	0x377a01f5	1.4901617e-05
226	0x37b0aa0f	2.1060025e-05
227	0xb7863f38	-1.6003483e-05
228	0x3806d701	3.2148328e-05
229	0x3824398e	3.915425e-05
230	0x37b5244d	2.1593785e-05
231	0x37975e53	1.8044526e-05
232	0x37fdac64	3.0240226e-05
233	0x377d4f23	1.5098401e-05
234	0xb7af95db	-2.0931408e-05
235	0x37a64d53	1.9824749e-05
236	0x3758cb7d	1.2921982e-05
237	0xb7817dd3	-1.543659e-05
238	0xb75ae901	-1.3048063e-05
239	0xb76c80d3	-1.409669e-05
240	0xb85c2b25	-5.249227e-05
241	0x38716cfb	5.7560374e-05
242	0x37bb5b0e	2.2334538e-05
243	0x37efb8dc	2.8577102e-05
244	0xb8505172	-4.9666916e-05
245	0x3818be8c	3.6417085e-05
246	0x37334024	1.0684165e-05
247	0xb76e42a0	-1.4201418e-05
248	0x374490e4	1.1716245e-05
249	0x378f2b5b	1.7067117e-05
250	0x37ce8547	2.4619176e-05
251	0x379679f6	1.7938186e-05
252	0xb72ecfaf	-1.0419563e-05
253	0xb836f004	-4.3615713e-05
254	0x37d3ae84	2.5234425e-05
255	0xb7e5b0c3	-2.7381238e-05

b_classifier.q.0.bias f4 [128]
0	0xb855463e	-5.0848575e-05
1	0x3758c233	1.2919819e-05
2	0xb869dc57	-5.5756736e-05
3	0xb78ae18b	-1.6555909e-05
4	0x378e6fbb	1.6979748e-05
5	0xb7a4132c	-1.9559251e-05
6	0x378b5d5d	1.6613567e-05
7	0x378a08d1	1.6454987e-05
8	0xb7c13f83	-2.3036968e-05
9	0xb8672a5f	-5.5114153e-05
10	0xb7ef7c39	-2.8548866e-05
11	0xb78ea9ef	-1.700685e-05
12	0x38531391	5.0324543e-05
13	0xb76ef7ce	-1.4243602e-05
14	0xb8277d56	-3.993263e-05
15	0x38397545	4.4216653e-05
16	0xb7fad029	-2.9899255e-05
17	0xb78e55fd	-1.696776e-05
18	0xb600b451	-1.9178444e-06
19	0x3851ae22	4.9991657e-05
20	0x37974c56	1.803615e-05
21	0xb76ac8fa	-1.399428e-05
22	0x38304489	4.20255e-05
23	0x37e80c67	2.766233e-05
24	0xb78e49cb	-1.6962082e-05
25	0xb803128a	-3.12501e-05
26	0xb7e7e224	-2.764265e-05
27	0x3718be2a	9.104182e-06
28	0x38492c86	4.79636e-05
29	0xb74c3b61	-1.2173173e-05
30	0x37a03efb	1.9102814e-05
31	0x36346416	2.6880348e-06
32	0x374e7af3	1.2307183e-05
33	0x3741de5b	1.1555468e-05
34	0x384b0a3a	4.8408496e-05
35	0xb74e50d9	-1.2297381e-05
36	0x378b5791	1.6610868e-05
37	0xb7e493e2	-2.7248581e-05
38	0x378a47c1	1.6484295e-05
39	0x363f93e4	2.8547302e-06
40	0xb787ab3e	-1.6172995e-05
41	0xb79b5b93	-1.8520082e-05
42	0xb82959e6	-4.0376464e-05
43	0xb800ad29	-3.0678846e-05
44	0x3787b5d8	1.6177932e-05
45	0xb71f5827	-9.497663e-06
46	0xb792931e	-1.7473063e-05
47	0xb8460f9e	-4.7221423e-05
48	0x3756d876	1.2805793e-05
49	0xb732aaff	-1.064944e-05
50	0x37535baf	1.2597927e-05
51	0x38244354	3.916335e-05
52	0x38066b21	3.204786e-05
53	0xb7eb2da1	-2.803543e-05
54	0xb7913f05	-1.7314693e-05
55	0x3769d531	1.393752e-05
56	0x383da823	4.52177e-05
57	0xb84848ae	-4.7751404e-05
58	0x378cc930	1.6782986e-05
59	0xb868c5bb	-5.549726e-05
60	0x377dd303	1.5129105e-05
61	0x37e18e45	2.688834e-05
62	0x36ad8744	5.1715488e-06
63	0x381ccf02	3.738609e-05
64	0xb78f5600	-1.7086975e-05
65	0x37624e5e	1.3488896e-05
66	0x380ff357	3.4320485e-05
67	0xb6e377df	-6.779082e-06
68	0xb836df85	-4.360035e-05
69	0x3748846d	1.1951762e-05
70	0x37967fa3	1.7940829e-05
71	0xb7fe3191	-3.030224e-05
72	0x380d5ca0	3.3703283e-05
73	0xb68cd30e	-4.196895e-06
74	0x38538e5e	5.043891e-05
75	0xb7037aba	-7.836783e-06
76	0x3617d972	2.2627323e-06
77	0x3766f3c8	1.3765828e-05
78	0xb76fa786	-1.4284515e-05
79	0x378ff471	1.7160755e-05
80	0x384024ec	4.5810753e-05
81	0xb63cd47d	-2.8137868e-06
82	0xb85d3c57	-5.2746702e-05
83	0xb705ca40	-7.974508e-06
84	0x3723b2a9	9.757155e-06
85	0x38589688	5.1638606e-05
86	0x380ba414	3.3292992e-05
87	0x37d9a8a7	2.594695e-05
88	0x3795cee4	1.7858525e-05
89	0xb783e867	-1.5724638e-05
90	0xb7c2013d	-2.3127179e-05
91	0x37bd027b	2.253171e-05
92	0xb839755d	-4.421674e-05
93	0x37bffdd2	2.2887169e-05
94	0xb85fbd9e	-5.3343938e-05
95	0x37125f82	8.724515e-06
96	0x3817eb5c	3.62204e-05
97	0x378ebe14	1.7016231e-05
98	0x37bf7c5e	2.2826887e-05
99	0xb84eb239	-4.928021e-05
100	0xb5e3f375	-1.6983673e-06
101	0x3852d562	5.026663e-05
102	0xb7ce53ff	-2.4596227e-05
103	0xb8251028	-3.9354112e-05
104	0x3858ba19	5.167173e-05
105	0xb84687b9	-4.733328e-05
106	0xb85a87a6	-5.2101583e-05
107	0x384f83c2	4.9475355e-05
108	0xb78a721c	-1.6504018e-05
109	0x37111df5	8.649648e-06
110	0xb758a918	-1.29139735e-05
111	0x35927b67	1.0913762e-06
112	0xb7c7e5ef	-2.382972e-05
113	0x37893df8	1.636053e-05
114	0xb726fae2	-9.952784e-06
115	0xb78dc66c	-1.6900907e-05
116	0xb83bb40c	-4.4751956e-05
117	0xb7b5ad36	-2.1657539e-05
118	0xb78e6a1d	-1.6977132e-05
119	0xb779a87c	-1.4880785e-05
120	0x37851ebd	1.586915e-05
121	0x3793c83c	1.7617007e-05
122	0xb756ca2c	-1.2802466e-05
123	0x378553fa	1.589394e-05
124	0xb800ffda	-3.075586e-05
125	0x382d98a9	4.138859e-05
126	0xb5654791	-8.541329e-07
127	0xb852a74c	-5.022371e-05

b_classifier.q.2.weight f4 [128, 128]
0	0x3763a9d1	1.3569793e-05
1	0x37f33f1d	2.8997247e-05
2	0x385770a6	5.1364907e-05
3	0xb78d680c	-1.685696e-05
4	0x384c613a	4.872794e-05
5	0xb76bd690	-1.4057048e-05
6	0xb790de56	-1.7269671e-05
7	0x386de38e	5.671713e-05
8	0xb869f502	-5.577971e-05
9	0x38657141	5.470333e-05
10	0xb818d200	-3.64352e-05
11	0xb82f62ad	-4.181515e-05
12	0xb7fd59db	-3.0201792e-05
13	0x384ecf99	4.9307568e-05
14	0xb64610bf	-2.9514047e-06
15	0x37d7176c	2.5640904e-05
16	0x386de41d	5.671765e-05
17	0xb8539570	-5.0445495e-05
18	0x3805ffed	3.194802e-05
19	0x3852e87e	5.0284427e-05
20	0xb857c008	-5.1438838e-05
21	0x373406ff	1.0730465e-05
22	0xb864081c	-5.436699e-05
23	0xb8539ac8	-5.045047e-05
24	0xb7754f1f	-1.462156e-05
25	0xb7175e32	-9.022233e-06
26	0x37eeaed8	2.8453229e-05
27	0x37930a32	1.7528513e-05
28	0xb76399ec	-1.3566092e-05
29	0xb7a361d3	-1.9476667e-05
30	0x3833c794	4.2862797e-05
31	0xb8653b56	-5.4653116e-05
32	0xb81a30ef	-3.6762034e-05
33	0x379635b9	1.790641e-05
34	0x37749404	1.4577996e-05
35	0xb788cb63	-1.6307173e-05
36	0x352a5b26	6.3462574e-07
37	0x378598ca	1.5925983e-05
38	0xb84073b3	-4.588412e-05
39	0xb753a4d1	-1.2614954e-05
40	0xb7aa6915	-2.0314512e-05
41	0xb855f2cf	-5.100929e-05
42	0x38310552	4.2205043e-05
43	0x37814189	1.5408516e-05
44	0xb76b7190	-1.4033532e-05
45	0xb84fa459	-4.9505707e-05
46	0x3828bc4e	4.0229694e-05
47	0x383b6e51	4.4687014e-05
48	0x38724834	5.776454e-05
49	0xb787c44d	-1.6184664e-05
50	0xb7baa88b	-2.2251412e-05
51	0xb834bb85	-4.3089985e-05
52	0x37ed9761	2.8323093e-05
53	0x37b94865	2.208743e-05
54	0xb7517884	-1.24854305e-05
55	0x377898ec	1.4817557e-05
56	0xb7ee3f02	-2.8401151e-05
57	0xb644e676	-2.9340422e-06
58	0xb7c0fdbb	-2.3006336e-05
59	0x3702e64f	7.802227e-06
60	0xb720ceb9	-9.5848745e-06
61	0x37c0fc55	2.3005685e-05
62	0x378f5bdd	1.7089706e-05
63	0xb7bcb765	-2.2496746e-05
64	0x378e02b7	1.6928983e-05
65	0xb8777238	-5.8995764e-05
66	0x3865e6db	5.4812856e-05
67	0xb79b2154	-1.849296e-05
68	0xb78b971f	-1.6640462e-05
69	0x3859a55f	5.1890845e-05
70	0xb851a767	-4.998539e-05
71	0xb7e67af5	-2.7475393e-05
72	0x37b2898c	2.1283304e-05
73	0xb7975ffa	-1.8045295e-05
74	0x3781e20a	1.5483256e-05
75	0xb808f46f	-3.2652573e-05
76	0xb6fd5d4c	-7.5508487e-06
77	0x387159da	5.754256e-05
78	0x37ae15e2	2.0752606e-05
79	0xb798c83a	-1.821305e-05
80	0x3745acc0	1.17823365e-05
81	0xb782fe32	-1.5615577e-05
82	0x38425aa4	4.633762e-05
83	0xb85f8fc4	-5.3301235e-05
84	0x386bc6b9	5.621344e-05
85	0xb7a15e6f	-1.923667e-05
86	0xb78f2542	-1.7064278e-05
87	0xb78b0fe3	-1.6577489e-05
88	0xb85307e3	-5.0313665e-05
89	0x3827988f	3.9957984e-05
90	0x375c61bd	1.3135778e-05
91	0xb789b545	-1.6416083e-05
92	0xb857b416	-5.1427713e-05
93	0x3794460e	1.7675597e-05
94	0x37d4a049	2.5347008e-05
95	0x382c5fa4	4.1097068e-05
96	0x37c34010	2.3275643e-05
97	0x37dee444	2.6570757e-05
98	0x38711ff7	5.7488647e-05
99	0x3756b4fe	1.27975345e-05
100	0x36831c4d	3.907399e-06
101	0xb790095a	-1.7170492e-05
102	0xb6f22727	-7.21672e-06
103	0x37801ad5	1.5271284e-05
104	0xb6c39b3d	-5.829525e-06
105	0x36398742	2.7645879e-06
106	0xb7933c08	-1.755172e-05
107	0xb85c36fd	-5.25033e-05
108	0xb7e93e76	-2.780485e-05
109	0xb7a20449	-1.93139e-05
110	0xb78b456c	-1.6602418e-05
111	0xb80f97bc	-3.423517e-05
112	0xb7b0eac8	-2.1090164e-05
113	0xb78ff229	-1.7159693e-05
114	0xb7a0ba1b	-1.9160148e-05
115	0xb8168208	-3.5883888e-05
116	0xb842395a	-4.6306617e-05
117	0x37eda04b	2.8327244e-05
118	0xb776a54d	-1.470123e-05
119	0x3874ab33	5.8333575e-05
120	0xb86491ed	-5.449534e-05
121	0x37a86257	2.0072954e-05
122	0x3821b22f	3.8551338e-05
123	0x379c4a89	1.8631357e-05
124	0x3536f73d	6.816006e-07
125	0x3817de70	3.6208367e-05
126	0x37a61486	1.9798299e-05
127	0x384d9274	4.9012204e-05
128	0xb850ce5d	-4.9783255e-05
129	0x36d59be7	6.366044e-06
130	0xb73d7219	-1.1291843e-05
131	0xb8428a56	-4.638204e-05
132	0x37af173d	2.0872447e-05
133	0x387a7077	5.9709386e-05
134	0x378ee198	1.703277e-05
135	0xb76549a6	-1.3666611e-05
136	0x374afde3	1.2099251e-05
137	0x3749172d	1.198593e-05
138	0xb853e167	-5.0516242e-05
139	0x379ef9c5	1.8951376e-05
140	0x34c08cb3	3.586516e-07
141	0x37aa6179	2.0310968e-05
142	0x38504a8b	4.9660488e-05
143	0xb76ccfac	-1.41150485e-05
144	0xb83cb8ed	-4.499492e-05
145	0x37d3394e	2.5179845e-05
146	0x3804fcee	3.170681e-05
147	0xb80b513e	-3.3215845e-05
148	0x37aed41a	2.0841184e-05
149	0x37c5e10e	2.358903e-05
150	0xb8294662	-4.035829e-05
151	0x37c795ab	2.3792343e-05
152	0x3787358d	1.611819e-05
153	0xb772b926	-1.4467432e-05
154	0x378bba43	1.6656826e-05
155	0x38302fdb	4.200624e-05
156	0x36fcdf48	7.5361786e-06
157	0x378a5130	1.6488688e-05
158	0x3766494b	1.3726133e-05
159	0x37a712fa	1.9916788e-05
160	0xb82057d6	-3.8228776e-05
161	0xb6403ffe	-2.8647478e-06
162	0xb782fe31	-1.5615575e-05
163	0xb717d025	-9.048764e-06
164	0x378d0ef8	1.681548e-05
165	0x3857c10b	5.143978e-05
166	0xb7860e41	-1.5980682e-05
167	0x36d91580	6.469607e-06
168	0x3851cef0	5.002221e-05
169	0xb7096537	-8.189402e-06
170	0x3851e925	5.0046616e-05
171	0x380b568c	3.3220786e-05
172	0xb7a2bfb4	-1.9401174e-05
173	0x378ded79	1.6919092e-05
174	0x38789e52	5.9275255e-05
175	0xb78a0e10	-1.645743e-05
176	0xb78a3264	-1.6474347e-05
177	0x37dd3b65	2.637291e-05
178	0x37bb99ee	2.2363816e-05
179	0xb860863b	-5.3530774e-05
180	0xb8205e01	-3.823452e-05
181	0x376d797a	1.4154584e-05
182	0xb7825072	-1.5534668e-05
183	0x3803acbe	3.1393713e-05
184	0x37d85b52	2.579173e-05
185	0x37b13e45	2.112904e-05
186	0xb7aa3ca6	-2.029382e-05
187	0x3794b7d0	1.772857e-05
188	0x38641781	5.4381326e-05
189	0x37e00f70	2.671007e-05
190	0xb8484243	-4.7745427e-05
191	0xb859ddfa	-5.1943563e-05
192	0xb78f5cb2	-1.7090093e-05
193	0x381cd935	3.7395588e-05
194	0xb8249780	-3.9241742e-05
195	0xb78f515e	-1.7084818e-05
196	0x3822f510	3.8852042e-05
197	0xb76fabcf	-1.4285512e-05
198	0xb832333a	-4.2486216e-05
199	0xb762b568	-1.3512887e-05
200	0x3847f37d	4.7672063e-05
201	0xb78dc4f0	-1.6900216e-05
202	0x38195b7e	3.656325e-05
203	0x386d585b	5.658749e-05
204	0x368a1760	4.1154417e-06
205	0x37947580	1.769769e-05
206	0xb7475cc0	-1.1882919e-05
207	0xb7fada88	-2.9904084e-05
208	0xb8038385	-3.135532e-05
209	0xb77af0de	-1.49572425e-05
210	0xb7a13aa0	-1.9219995e-05
211	0xb8335506	-4.275611e-05
212	0x383ca7f9	4.497913e-05
213	0x3796e977	1.7990109e-05
214	0xb855aa3d	-5.0941704e-05
215	0x384bb82b	4.857049e-05
216	0xb81be0b2	-3.7164144e-05
217	0x378b3e98	1.6599239e-05
218	0xb78367fc	-1.5664838e-05
219	0x381f588c	3.799102e-05
220	0xb7fe563b	-3.0319314e-05
221	0xb78fb07d	-1.7129112e-05
222	0x385cca42	5.2640455e-05
223	0xb74edad7	-1.2329509e-05
224	0xb833998d	-4.281993e-05
225	0x382e7f7d	4.1603565e-05
226	0x38528156	5.0188355e-05
227	0x37c646bc	2.3636378e-05
228	0x37c04825	2.2921779e-05
229	0xb84c73e6	-4.874533e-05
230	0xb6e744c3	-6.8923414e-06
231	0xb85ce32d	-5.266366e-05
232	0x37468fae	1.1835173e-05
233	0x37f9038d	2.9684767e-05
234	0xb79aceb5	-1.8454486e-05
235	0xb852acbc	-5.0228773e-05
236	0xb81b7a82	-3.7068974e-05
237	0xb7d77662	-2.5685124e-05
238	0xb871d083	-5.765307e-05
239	0xb6db2c0d	-6.531837e-06
240	0xb78cbefc	-1.6778235e-05
241	0xb7ea388a	-2.7921302e-05
242	0xb85b958e	-5.2352952e-05
243	0xb7ba9049	-2.2240116e-05
244	0xb7566d3f	-1.278083e-05
245	0x38739f04	5.808381e-05
246	0x38072f95	3.2230822e-05
247	0x378d0306	1.6809918e-05
248	0x37e2f1c2	2.7053877e-05
249	0x3844cc22	4.6920155e-05
250	0xb7349024	-1.0762396e-05
251	0xb7752925	-1.4612718e-05
252	0x36c0090a	5.723098e-06
253	0x37855220	1.5893078e-05
254	0x37f094d0	2.8679526e-05
255	0xb7cf955e	-2.4745877e-05

b_classifier.q.2.bias f4 [128]
0	0xb857da23	-5.146315e-05
1	0xb8402698	-4.581231e-05
2	0x37a27768	1.9367508e-05
3	0xb77b1114	-1.4964742e-05
4	0x378caf1b	1.677084e-05
5	0x3789b1b1	1.6414417e-05
6	0xb808516f	-3.2500768e-05
7	0xb7ef5efd	-2.8535253e-05
8	0xb78d7115	-1.6861168e-05
9	0x378ce334	1.67951e-05
10	0x3841baad	4.618864e-05
11	0x37c4a2cf	2.3440834e-05
12	0x377f4247	1.5214616e-05
13	0x386a61ae	5.588092e-05
14	0xb8690baa	-5.5562392e-05
15	0x381523d7	3.5557747e-05
16	0xb7e1ddee	-2.6925434e-05
17	0xb858a004	-5.164744e-05
18	0xb84959f4	-4.800591e-05
19	0x3790e856	1.7274328e-05
20	0xb765ab88	-1.3689401e-05
21	0xb853b29b	-5.047266e-05
22	0x37fc4a61	3.0075376e-05
23	0x37b7b20b	2.1898208e-05
24	0x37bac691	2.2265393e-05
25	0xb76ad0b5	-1.399608e-05
26	0x37e502cc	2.730023e-05
27	0x37e66380	2.746447e-05
28	0xb6862f33	-3.999006e-06
29	0x3712f667	8.759648e-06
30	0x37f7bb54	2.9531926e-05
31	0xb87a0dce	-5.96175e-05
32	0x3768c506	1.3874151e-05
33	0x376fc982	1.4292427e-05
34	0x37fa13ad	2.9811485e-05
35	0x381f27d3	3.7945643e-05
36	0xb85cf755	-5.2682433e-05
37	0x3818fc7d	3.6474772e-05
38	0x379fd12e	1.9051684e-05
39	0x379f063d	1.8957182e-05
40	0xb78b2ec6	-1.6591872e-05
41	0x385eed0d	5.3149695e-05
42	0xb8547618	-5.0654722e-05
43	0xb7d26be7	-2.5084197e-05
44	0xb814180c	-3.5308345e-05
45	0xb76173f8	-1.3438046e-05
46	0xb7cb2d27	-2.4220511e-05
47	0xb746cf22	-1.18499465e-05
48	0x3735d5d2	1.0838225e-05
49	0x3633e061	2.6803684e-06
50	0x378c58c4	1.6730635e-05
51	0x37754958	1.4620215e-05
52	0x369367c5	4.3930218e-06
53	0x37328513	1.06406105e-05
54	0x37a3c8d3	1.952463e-05
55	0x38418af4	4.6144196e-05
56	0xb8323047	-4.248347e-05
57	0xb84bc318	-4.8580667e-05
58	0xb80024f7	-3.0552004e-05
59	0x3810ac93	3.4492998e-05
60	0xb7b5f459	-2.1690665e-05
61	0xb76e80b0	-1.4215868e-05
62	0xb75f86ca	-1.3323219e-05
63	0xb7c04ec7	-2.2924867e-05
64	0xb71941de	-9.134847e-06
65	0x38144033	3.534574e-05
66	0x3814701a	3.5390352e-05
67	0x368e04ec	4.2325028e-06
68	0xb84c6899	-4.8734804e-05
69	0x35dcbb49	1.6445784e-06
70	0xb804d550	-3.1669915e-05
71	0x3864c8ee	5.4546566e-05
72	0x36f49d44	7.290075e-06
73	0x37f8e3c8	2.9669973e-05
74	0xb743bc4e	-1.1666749e-05
75	0x38539e83	5.0453946e-05
76	0x3758275c	1.2883767e-05
77	0x37e55a20	2.7340895e-05
78	0xb5c122d7	-1.438976e-06
79	0x3749175f	1.1985975e-05
80	0xb731e156	-1.0602487e-05
81	0x38038f32	3.1366195e-05
82	0x38418ecf	4.6147787e-05
83	0x37f1853e	2.8791485e-05
84	0xb76ef615	-1.4243201e-05
85	0xb807b044	-3.235067e-05
86	0xb72402c9	-9.77581e-06
87	0x378d194a	1.6820286e-05
88	0x378c12c8	1.6698046e-05
89	0x38157353	3.5631772e-05
90	0x383daa3c	4.5219655e-05
91	0xb80cb494	-3.3546778e-05
92	0x3731afad	1.0590925e-05
93	0x3719858a	9.150603e-06
94	0x378c313a	1.6712223e-05
95	0xb791c76f	-1.7378215e-05
96	0x3839cdf7	4.4299257e-05
97	0x38231c0b	3.8888345e-05
98	0xb74df084	-1.2274952e-05
99	0x37e20de5	2.694777e-05
100	0xb7a3c88f	-1.9524507e-05
101	0x3867d86d	5.5276254e-05
102	0xb853dd5e	-5.0512484e-05
103	0x3794153b	1.7652861e-05
104	0x36e68dc3	6.8710374e-06
105	0x37c23989	2.3153394e-05
106	0xb7bf9a17	-2.2840728e-05
107	0x377dbbf6	1.5123738e-05
108	0xb85d1c83	-5.271706e-05
109	0xb7416234	-1.1526561e-05
110	0x378c5241	1.6727603e-05
111	0xb84c297d	-4.867603e-05
112	0xb7738cf1	-1.4516744e-05
113	0x37d59df3	2.546513e-05
114	0x37913689	1.7310742e-05
115	0x386d8847	5.663212e-05
116	0x3813f092	3.527158e-05
117	0x37bc9fd6	2.2485776e-05
118	0xb6ecd6f8	-7.0583737e-06
119	0x3782aebf	1.557858e-05
120	0xb7d765f6	-2.5677477e-05
121	0x36a70f3f	4.9787627e-06
122	0xb82ecc51	-4.1675117e-05
123	0x38304d6d	4.203378e-05
124	0x3794b72b	1.7728269e-05
125	0xb800a7ce	-3.067386e-05
126	0x3861f768	5.3874595e-05
127	0xb8023f5a	-3.1053416e-05

b_classifier.fcc.weight f4 [2, 2, 512]
0	0x3b1cee35	0.0023945693
1	0xbb1eeba9	-0.002424935
2	0x3b89008a	0.0041809725
3	0x3c33c1f0	0.010971531
4	0xbc41e86a	-0.011835197
5	0x3c968820	0.018375456
6	0x3c21f2f7	0.0098845875
7	0x3c217c73	0.009856331
8	0xbc951477	-0.018198235
9	0xbcac65ae	-0.021044578
10	0x3c889a09	0.016675012
11	0x3bbf8929	0.005845208
12	0x3c608801	0.013704301
13	0xbb7161fa	-0.003683208
14	0x3bfa390b	0.0076361946
15	0xbbd5fd4e	-0.0065304404
16	0x3cb2b1ed	0.021813357
17	0x3a7a6fb2	0.0009553387
18	0x3c4f1d78	0.012641303
19	0x3bd2946f	0.006426386
20	0xbb01c1a6	-0.0019799261
21	0xbc8579bf	-0.016293405
22	0x3c7874c2	0.015164556
23	0x3b03e9e6	0.0020128428
24	0xbc038b15	-0.008028765
25	0x3a5dd1f4	0.00084617664
26	0xbc8b9214	-0.017037429
27	0xbbe451be	-0.0069677522
28	0xbbf82652	-0.0075729275
29	0xbc0a94d8	-0.008458339
30	0xbbea8b50	-0.0071577206
31	0xbc1b7340	-0.009487927
32	0x3bc1f7fd	0.005919455
33	0x3c124383	0.008927229
34	0x3c2b2d09	0.010447749
35	0x3bd9507d	0.0066319094
36	0x3c97cdbc	0.018530719
37	0x3c6cd339	0.014454656
38	0xbb5e1a22	-0.0033890088
39	0xbbefa7c2	-0.0073136995
40	0x3ba50331	0.005035781
41	0xbc033264	-0.0080076195
42	0x3b9f22d9	0.004856449
43	0x3be9a9dd	0.007130845
44	0x3c3244a9	0.010880628
45	0x3babce89	0.005243127
46	0x3c87a6f3	0.0165591
47	0x3a8ac2dd	0.0010586638
48	0xba31b5f8	-0.00067791296
49	0xbc0f1a3a	-0.00873428
50	0xbc3a6df1	-0.011378751
51	0xbb8a26c8	-0.004216049
52	0xb9a8e3a4	-0.00032213063
53	0x3c2cfbf6	0.010558119
54	0x3ba22ed0	0.004949428
55	0x3be9e25b	0.0071375794
56	0xbba6c5ae	-0.005089483
57	0x3c2e3a47	0.010634012
58	0xbcb63e57	-0.022246523
59	0x3c56f31d	0.013119486
60	0xbb49957b	-0.0030759263
61	0x3c51b255	0.012798865
62	0x3addade1	0.0016912782
63	0xbbc3e4a5	-0.0059781843
64	0xbc578899	-0.013155126
65	0x3c0d9800	0.008642197
66	0xbcc717d3	-0.024303352
67	0xbc1ccd11	-0.009570376
68	0xbc2d6e60	-0.0105853975
69	0xbb3bcd1c	-0.002865619
70	0xbb91afa7	-0.004445988
71	0xbc5febbe	-0.013667045
72	0x389d9eb9	7.515908e-05
73	0xbc0f12c7	-0.008732504
74	0xb7fec7bc	-3.0372168e-05
75	0x3c073631	0.008252666
76	0x3c1dc154	0.009628613
77	0xbc860787	-0.016361011
78	0x3bcd75f4	0.0062701646
79	0xbbec6a42	-0.0072148154
80	0x3bb9fc40	0.0056758225
81	0xbc473030	-0.012157485
82	0x3b13b19c	0.0022536283
83	0xbbc2f6e1	-0.0059498404
84	0xbba6b937	-0.0050879973
85	0x3bb2b282	0.0054534087
86	0xbaacf4df	-0.0013195536
87	0xbc37e1c7	-0.011223263
88	0x3c5ca6ee	0.0134675335
89	0xbc01a6ee	-0.007913334
90	0xbbce7cba	-0.0063014897
91	0x3a8a81f6	0.0010567296
92	0xbca5cb15	-0.020238439
93	0x3c506ad2	0.01272078
94	0x3b84c51f	0.004051819
95	0xbbb80b78	-0.0056166016
96	0xb9ebc357	-0.00044968232
97	0xbc079f56	-0.008277735
98	0xbc9d1365	-0.019174287
99	0xbb977f5a	-0.004623336
100	0x3bbae5a0	0.005703643
101	0xbc076557	-0.008263907
102	0xbc6fb860	-0.014631361
103	0x3c10052e	0.008790297
104	0xbbfd516c	-0.0077306535
105	0xbbe226d4	-0.0069016013
106	0xbbce07d1	-0.006287553
107	0xbcc4c39c	-0.024019055
108	0x3b1eb372	0.0024215844
109	0x3c553a51	0.013014392
110	0x3c0c49fa	0.008562559
111	0x3a7701cf	0.0009422572
112	0x3c5c9aa3	0.013464603
113	0xbbdccfe1	-0.0067386483
114	0x3bd4678e	0.0064820712
115	0xba8e4e56	-0.0010857086
116	0xbb3feda4	-0.0029285932
117	0xbca56e82	-0.020194296
118	0xbc30c05c	-0.01078805
119	0x3c1e24ed	0.0096523585
120	0x3b40d8c9	0.002942609
121	0xba1a6020	-0.00058889575
122	0xbb591dfc	-0.0033129444
123	0x39450f7d	0.00018793154
124	0xbc6b59e7	-0.014364696
125	0xbba865fc	-0.0051391106
126	0xbc6cb14f	-0.014446571
127	0x3bf53167	0.007482696
128	0xbc42e8d3	-0.01189633
129	0xbc7af019	-0.015316033
130	0x3b2a09b5	0.0025945727
131	0xbbcd5ea4	-0.0062673856
132	0xbbf497e0	-0.007464394
133	0x3b67b27b	0.0035354185
134	0x3c53f36c	0.012936454
135	0xbb1fb2bc	-0.0024368009
136	0x3c7b391d	0.015333441
137	0x3b9116f7	0.0044277865
138	0xbb6bd2d0	-0.0035983808
139	0x3c1ce38c	0.009575736
140	0x3c6bf59f	0.014401822
141	0x3c25243a	0.010079438
142	0xbbecede9	-0.0072305095
143	0xbc95e535	-0.018297771
144	0x3aaa6a9b	0.0013001742
145	0x3a48c5c4	0.0007658864
146	0xbbb06844	-0.005383523
147	0xbb744bb9	-0.003727658
148	0x3bbd15fe	0.005770444
149	0x3ab1afb0	0.0013556387
150	0xbc873fb1	-0.016509863
151	0x3b49e08f	0.0030804013
152	0xbb0e38d3	-0.002170135
153	0x3c064e99	0.00819745
154	0x3beecb71	0.0072874357
155	0xbb03bb12	-0.0020100516
156	0x3c112e1d	0.008861092
157	0x3c683495	0.014172693
158	0x3c0f4eb4	0.008746792
159	0xbc83b23e	-0.016076203
160	0xbb9dd4ef	-0.0048166434
161	0xbb08dd3a	-0.0020883814
162	0x3c069476	0.008214107
163	0xbade8637	-0.0016977255
164	0x3c4c30cb	0.012462805
165	0x3c78ca62	0.015184971
166	0x3af16654	0.0018417337
167	0xbb727de3	-0.0037001304
168	0x3c3e6fad	0.011623305
169	0xbc1af485	-0.009457712
170	0x3c7aed33	0.015315342
171	0x3b756ba1	0.0037448185
172	0x3cb4cbd2	0.022069845
173	0x3b011357	0.0019695365
174	0x3a399c08	0.00070804404
175	0xbc2b5415	-0.010457058
176	0x3c380f70	0.011234149
177	0x3c4e95ed	0.012608987
178	0xbc51f09e	-0.012813715
179	0x3c23b8ab	0.009992759
180	0x3b702936	0.0036645657
181	0x39f8536d	0.00047364403
182	0xbc2f12f0	-0.010685667
183	0x3c3ea8e6	0.011636948
184	0xbc7be3dd	-0.015374151
185	0x3bfc02cb	0.0076907626
186	0xb8053d20	-3.1766598e-05
187	0xbc670f55	-0.014102777
188	0x3c0dd1a9	0.008655944
189	0x3b8e474f	0.0043419967
190	0xbc29faec	-0.010374766
191	0x3b9e44f6	0.004829998
192	0xbb40d122	-0.0029421528
193	0x3ca586a0	0.020205796
194	0x3b606c31	0.0034244175
195	0xbbff088e	-0.007783002
196	0x3c0f4f1b	0.008746888
197	0x3b095c6b	0.0020959626
198	0xba894e73	-0.001047565
199	0xbc1a4c55	-0.009417613
200	0x3be84074	0.0070877615
201	0xbbb81340	-0.005617529
202	0xbc01fc80	-0.007933736
203	0x3b93b3bd	0.0045075105
204	0x3b80076b	0.0039071343
205	0xba59cb24	-0.00083081634
206	0x3c04ae7b	0.00809824
207	0x3b09fe96	0.0021056286
208	0x3bcf54fa	0.0063272687
209	0x3b0ac187	0.002117248
210	0x3b8d98f3	0.0043212115
211	0xbb10f992	-0.0022121412
212	0xbbee0e81	-0.0072649126
213	0x3bcbb34d	0.0062164427
214	0x3c754810	0.014970794
215	0x3a2ad7f7	0.00065171666
216	0xbbcb9f94	-0.0062140916
217	0x3c398142	0.011322321
218	0xbbb84525	-0.005623477
219	0xbb3f93c2	-0.0029232358
220	0xbc80f1c4	-0.015740283
221	0x394b6f17	0.00019400973
222	0x3c3c0c10	0.011477485
223	0x3bdb4c38	0.0066924356
224	0xbc6810f3	-0.014164197
225	0x3c2c5107	0.010517365
226	0x3bd774d5	0.0065752068
227	0xbab02c7c	-0.0013440992
228	0xbc516c05	-0.0127821015
229	0x3ca4eb03	0.020131594
230	0xbba35222	-0.004984156
231	0x3bf4b43c	0.0074677747
232	0x3c065f84	0.008201484
233	0x3b7fb74f	0.0039019173
234	0xbc73e34b	-0.014885734
235	0xbb323a75	-0.0027195488
236	0xbbb0f1bc	-0.0053999107
237	0x3ba7cb41	0.0051206653
238	0x3c45cdc2	0.012072982
239	0x3c35680a	0.011072168
240	0xbbdeb6d8	-0.006796699
241	0x3c6765a3	0.014123353
242	0x3b58179a	0.0032973052
243	0x3c89737d	0.016778702
244	0xbc448aeb	-0.011996011
245	0x3b97f42b	0.0046372614
246	0xbbc2f34c	-0.0059494134
247	0x3c089091	0.008335249
248	0xbaf8957a	-0.0018965446
249	0xbbb067cb	-0.005383467
250	0x3c1a1d45	0.009406392
251	0xba3c27b5	-0.00071775477
252	0x3b3dfdfa	0.0028990493
253	0xbc092c2c	-0.008372348
254	0x3c083e77	0.008315674
255	0x3c2e1099	0.010624074

b_classifier.fcc.bias f4 [2]
0	0x3f6b7d85	0.919884
1	0xbf698c0a	-0.9122931
