processing/mil classifier/weights/05032023/1.pth (torch, 343759 bytes, 8 tensors)

i_classifier.fc.0.weight f4 [2, 512]
0	0xbcb88f84	-0.022529371
1	0xbd63fd76	-0.05566164
2	0x3d382da3	0.044965398
3	0xbc0bd794	-0.008535285
4	0xbd002b5d	-0.031291354
5	0x3b01d350	0.001980979
6	0x3d517316	0.051135145
7	0x3d862d7f	0.065516464
8	0xbce6aa97	-0.028157515
9	0x3c5f9700	0.013646841
10	0xbd05f7f4	-0.03270717
11	0xbd8d9a67	-0.069142155
12	0x3d3afd81	0.045651916
13	0x3d0ee2d8	0.034884304
14	0xbcbb5de7	-0.022871925
15	0x3d713aff	0.058894154
16	0x3c0cccf7	0.008593789
17	0x3d4a2be4	0.049358264
18	0xbbda04e6	-0.006653416
19	0x3d0cccf0	0.03437513
20	0xbd098e47	-0.033582952
21	0xbcdbd4ce	-0.026834872
22	0xbd2ce142	-0.04220701
23	0x3c3aa0b5	0.011390855
24	0x3c9294a8	0.01789315
25	0xbd6cbd93	-0.05779798
26	0xbd3d39c0	-0.046197653
27	0xbd4c056b	-0.049809854
28	0x3c61c95d	0.013780919
29	0xbc909968	-0.017651275
30	0xbbcc5bb5	-0.0062365183
31	0xbc7e0139	-0.015503221
32	0x3d0fd780	0.035117626
33	0xbcb34eac	-0.0218881
34	0x3d81a3dd	0.063300826
35	0x3d40e36a	0.04709188
36	0xbbe9c742	-0.007134349
37	0x3d18ab06	0.037272476
38	0xbd15bf87	-0.036559608
39	0x3cd58da1	0.02606851
40	0xbca20a37	-0.019780261
41	0xbc395d1d	-0.011313704
42	0xbd5fd3e1	-0.054645423
43	0x3cea5751	0.028606089
44	0x3d790ad5	0.060801346
45	0x3cfba5ec	0.030718766
46	0x3b02d1c1	0.001996145
47	0xbd609f8e	-0.054839663
48	0xbbf67c88	-0.0075221695
49	0xbc1f5b54	-0.009726364
50	0x3cadf790	0.021236211
51	0x3d336560	0.04379785
52	0x3ccf9456	0.025339287
53	0xbca799c9	-0.020459073
54	0x3cdc5b89	0.026899116
55	0xbc25d821	-0.01012233
56	0xbcf4d645	-0.029887328
57	0x3d185241	0.03718782
58	0xbc000b3b	-0.007815178
59	0x3d46bc4a	0.04851941
60	0xbccb8ece	-0.024848368
61	0x3d3de006	0.046356224
62	0x3d2442c5	0.04010274
63	0xbd1e3638	-0.038625926
64	0x3c01076a	0.007875303
65	0x3b146073	0.0022640496
66	0x3c16ef54	0.009212334
67	0xbc992d0c	-0.018698238
68	0xbd431807	-0.047630336
69	0x3c52aab5	0.012858083
70	0xbd032db4	-0.032026008
71	0x3cc4e0ed	0.024033034
72	0x3d4d2ce1	0.050091628
73	0xbd9f13cd	-0.077674486
74	0xbb751ee9	-0.0037402457
75	0x3c142e11	0.009044186
76	0x3d5606af	0.052252468
77	0xbd35bbfe	-0.044368736
78	0x3d57b28a	0.052660502
79	0xbd57836a	-0.05261556
80	0xbd09bf0f	-0.033629473
81	0xbb6d5b2c	-0.0036217673
82	0xbc905f2a	-0.017623503
83	0x3d041383	0.03224517
84	0x3d09a307	0.03360274
85	0xbc9b9e2c	-0.01899632
86	0xbd349e56	-0.044096313
87	0xbc8c9e15	-0.017165223
88	0xbcbd6176	-0.023117762
89	0x3c81b819	0.015834855
90	0xbd281111	-0.0410319
91	0xbb699f01	-0.0035647752
92	0xbce74b9d	-0.028234297
93	0x3d0ed879	0.034874413
94	0xbd6ab4d7	-0.05730137
95	0xbb48b1fa	-0.003062366
96	0x3cd37a39	0.025815116
97	0x3d65c3f9	0.056095097
98	0xbd7bd5b2	-0.061483093
99	0xbcf290a1	-0.02960998
100	0xbcf8bfaf	-0.03036484
101	0xbcaeaeb0	-0.021323532
102	0xbcde560b	-0.027140638
103	0x3d1c4879	0.038155053
104	0x3cffb896	0.031215947
105	0xbcc09bb5	-0.023511747
106	0xbd01a4d6	-0.03165134
107	0xbc22cc66	-0.009936428
108	0xbd04f7a5	-0.032462735
109	0xbd35fcce	-0.044430546
110	0x3c6ceae2	0.014460297
111	0xbbf34ca0	-0.007424906
112	0xbd347ef2	-0.044066377
113	0xbc470471	-0.012147055
114	0x3cc6935f	0.024240194
115	0xbd138c40	-0.036022425
116	0x3cc69073	0.0242388
117	0xbd8c3dd2	-0.06847729
118	0x3d687e3e	0.05676102
119	0x3d3cda00	0.04610634
120	0xbcc4e53f	-0.024035094
121	0x3d0eb503	0.034840595
122	0x3c396deb	0.01131771
123	0x3d113fb5	0.035461146
124	0x3c24472f	0.010026737
125	0xbc30322f	-0.010754152
126	0xbd22c7cb	-0.03974132
127	0x3af1085a	0.001838933
128	0xbd352c20	-0.044231534
129	0xbb9c00a3	-0.004760818
130	0xbc11baf8	-0.0088946745
131	0x3cef9b45	0.029248843
132	0x3c2792fc	0.010227915
133	0xbd39de49	-0.045378003
134	0x3c8c376e	0.017116275
135	0xbc7c1d43	-0.015387836
136	0x3ca4eb93	0.020131862
137	0x3d94966f	0.072552554
138	0xbd4ca5ab	-0.04996268
139	0x3d03f0ab	0.03221194
140	0xbd427144	-0.0474713
141	0x3c8018df	0.01563686
142	0xbd76802b	-0.060180824
143	0xbd346b43	-0.044047605
144	0x3d4245f1	0.047429983
145	0xbd135a83	-0.03597499
146	0x3b4bc192	0.0031090719
147	0xbd0ae2a3	-0.033907544
148	0x3ca5af63	0.020225232
149	0xbb67543d	-0.0035298013
150	0xbcbe9e1a	-0.023268748
151	0xbc7bb2b0	-0.015362427
152	0xbd2175b5	-0.039418895
153	0xbce77313	-0.028253114
154	0x3d3fcaca	0.046824254
155	0xbcea094e	-0.02856889
156	0xbc71f420	-0.014767677
157	0x3b2d1404	0.0026409635
158	0x3ce859b9	0.028363096
159	0x3d3ce714	0.04611881
160	0xbd451008	-0.04811099
161	0x3d8815e3	0.066447996
162	0x3c1e5be6	0.009665465
163	0xbc471964	-0.01215205
164	0xbd4555a4	-0.048177376
165	0xbb4da510	-0.0031378902
166	0xbcd4ce49	-0.02597727
167	0x3d06ded5	0.032927353
168	0x3c480008	0.012207039
169	0xbc7eb2f9	-0.0155456
170	0xbd00ff21	-0.03149331
171	0x3c4ba20e	0.012428774
172	0x3c5a624a	0.013329098
173	0xbbdf035b	-0.00680582
174	0x3cb1a0d6	0.021683138
175	0x3d08a892	0.033363886
176	0x3d26bb4b	0.04070596
177	0x3c847e24	0.01617343
178	0xbac4b0b4	-0.0015006275
179	0x3caa3853	0.02077881
180	0x3ce6680b	0.028125783
181	0x39e15f08	0.00042986148
182	0x3ca06e7d	0.019583935
183	0xb9c492ba	-0.00037493353
184	0xbcee3d67	-0.029082013
185	0xbc149068	-0.009067632
186	0xbd070070	-0.0329594
187	0x3c32ef6c	0.01092134
188	0x3c1f1112	0.00970866
189	0x3af069ec	0.0018342114
190	0xbd0267b2	-0.031837173
191	0x3c84146d	0.016123021
192	0xbc85ed65	-0.01634855
193	0xbc858be8	-0.016302064
194	0x3d423005	0.047409076
195	0xbbed8117	-0.0072480547
196	0xbc8520f6	-0.016251069
197	0xbcbf21e2	-0.023331586
198	0xbc469446	-0.012120312
199	0x3cf413b2	0.029794548
200	0xbb580410	-0.0032961406
201	0xbcbd5487	-0.023111595
202	0x3ac7d264	0.0015245196
203	0xbd678422	-0.056522496
204	0x3cf42dd4	0.029807009
205	0xbc965f13	-0.018355882
206	0xbca99375	-0.020700196
207	0x38575cdc	5.1346477e-05
208	0xb9db47fe	-0.00041824573
209	0x3cbd8a33	0.023137188
210	0xbc874a1d	-0.016514832
211	0x3d8a4278	0.06750959
212	0xbcf95332	-0.030435178
213	0x3c3e63f9	0.011620515
214	0x3d401d8a	0.04690317
215	0xbc1a80c1	-0.009430111
216	0x3c9646cb	0.018344304
217	0x3c3a2b52	0.011362867
218	0xbd7121e4	-0.05887021
219	0xbc15d058	-0.009143911
220	0xbd1e3753	-0.03862698
221	0xbcb72da1	-0.022360625
222	0x3d3e8eaf	0.046522792
223	0x3b8f3987	0.0043708715
224	0xbd1358e6	-0.035973452
225	0x3cf55a29	0.029950218
226	0x3c13451f	0.008988648
227	0x3c2623a6	0.010140335
228	0x3c83d6ea	0.01609369
229	0x3b8fa386	0.004383507
230	0xbce58439	-0.02801715
231	0xbb8864d5	-0.0041624107
232	0xbc5cef3c	-0.013484772
233	0x3d677281	0.056505684
234	0x3c86e59d	0.01646691
235	0x3c21565d	0.009847251
236	0xbb3e8bbb	-0.0029074985
237	0xbb91b6a1	-0.00444682
238	0xbbff54f7	-0.007792111
239	0x3d4af3a8	0.049548775
240	0x3bf6559f	0.007517531
241	0xbd1e9344	-0.038714662
242	0xbc9140ed	-0.017731154
243	0xbc2fd07a	-0.010730857
244	0x3b88496b	0.0041591427
245	0x3bd0e404	0.006374838
246	0x3d825ec7	0.063657336
247	0x3cdd7045	0.027031073
248	0xbd2dcbd6	-0.04243072
249	0x3d52c35e	0.051455848
250	0x3cd471dc	0.025933199
251	0x3ca6867a	0.020327795
252	0xbae9d5f1	-0.0017840249
253	0xbd526417	-0.051364984
254	0x3c2a8b08	0.010409124
255	0x3cd91d72	0.026503298

i_classifier.fc.0.bias f4 [2]
0	0x3d96d21c	0.07364294
1	0xbd9997c8	-0.07499653

b_classifier.q.0.weight f4 [128, 512]
0	0x388b87d9	6.65334e-05
1	0xb7325242	-1.0628779e-05
2	0xb84f72a8	-4.9459428e-05
3	0x37081d2c	8.113024e-06
4	0x372bf745	1.0249966e-05
5	0x370303a4	7.809056e-06
6	0x388e9d72	6.800414e-05
7	0xb8379559	-4.376969e-05
8	0xb705a5c4	-7.966013e-06
9	0x3782ab26	1.5576905e-05
10	0xb7831f84	-1.5631093e-05
11	0x373101cd	1.0550441e-05
12	0x3759c588	1.2980199e-05
13	0xb6f81ca0	-7.3943083e-06
14	0xb80a3217	-3.2948414e-05
15	0xb62b625d	-2.553824e-06
16	0x36d914b9	6.4695164e-06
17	0x37e6f648	2.753282e-05
18	0xb83403fb	-4.291905e-05
19	0xb852946d	-5.0206134e-05
20	0xb671e1ba	-3.6043189e-06
21	0xb733ca7d	-1.0716377e-05
22	0x3680dc7f	3.8403664e-06
23	0x3776c044	1.4707508e-05
24	0x3712ad2b	8.742597e-06
25	0x37af0b6a	2.086694e-05
26	0xb6adb0c3	-5.1763795e-06
27	0x3705d8eb	7.977923e-06
28	0xb7282366	-1.0021822e-05
29	0x38b3f5fc	8.581203e-05
30	0xb8b3032a	-8.5359745e-05
31	0xb73be289	-1.1198813e-05
32	0xb88225bb	-6.205911e-05
33	0x3819eed2	3.670046e-05
34	0x37122af6	8.712281e-06
35	0x37ba262c	2.2190703e-05
36	0xb7c6ea25	-2.3712471e-05
37	0x37082698	8.1152175e-06
38	0x36e3a3b7	6.784186e-06
39	0xb86cc0cd	-5.6446344e-05
40	0x38523d20	5.012483e-05
41	0x3858deda	5.170596e-05
42	0xb6730f35	-3.6218673e-06
43	0x37ef3b18	2.8518538e-05
44	0x35a31682	1.2150997e-06
45	0x375c675b	1.3137086e-05
46	0x3789fa51	1.6448235e-05
47	0x3798cca7	1.821511e-05
48	0x378f16c5	1.7057531e-05
49	0xb471d006	-2.2520553e-07
50	0xb7ebf5ee	-2.8128703e-05
51	0xb8069333	-3.208518e-05
52	0x37be78be	2.270599e-05
53	0x37c52231	2.3500152e-05
54	0x384956ed	4.800309e-05
55	0x389f1093	7.584798e-05
56	0xb7de09fc	-2.6469112e-05
57	0x36b8aa71	5.5034693e-06
58	0x365a09b5	3.2490182e-06
59	0x3883bff3	6.28232e-05
60	0x36759c16	3.65987e-06
61	0x380707dd	3.219383e-05
62	0xb7809db9	-1.5332234e-05
63	0xb800c611	-3.0702042e-05
64	0xb7520710	-1.251862e-05
65	0xb64448a4	-2.9248558e-06
66	0x36ca94ee	6.037407e-06
67	0xb681062c	-3.845218e-06
68	0xb7e7f616	-2.7651939e-05
69	0xb7f9afd1	-2.9764984e-05
70	0x349a161f	2.870083e-07
71	0x360dd04b	2.113188e-06
72	0x377889af	1.4814009e-05
73	0x38eb849b	0.00011230373
74	0xb846cdc8	-4.7398527e-05
75	0x38606a66	5.3504853e-05
76	0xb7e601bd	-2.7418946e-05
77	0x378f5dd6	1.7090624e-05
78	0xb8287671	-4.016463e-05
79	0x36985d76	4.5408333e-06
80	0x35b2f780	1.3334065e-06
81	0xb89b2ddb	-7.399517e-05
82	0x372651e4	9.913438e-06
83	0xb6c21141	-5.783659e-06
84	0x36e3c3cb	6.7879205e-06
85	0xb7af2b0b	-2.088167e-05
86	0xb7c99c8a	-2.4033961e-05
87	0x37d4acc2	2.5352816e-05
88	0x37048b0e	7.900189e-06
89	0xb856913e	-5.1156843e-05
90	0x372b0ab3	1.0194885e-05
91	0xb77a696e	-1.49257085e-05
92	0xb81937be	-3.6529957e-05
93	0x3810c09b	3.4511653e-05
94	0x37aea280	2.0818086e-05
95	0xb81acd38	-3.6907586e-05
96	0xb7f58b99	-2.9271281e-05
97	0x370524d7	7.935995e-06
98	0xb85b2ee1	-5.225733e-05
99	0x3749ef56	1.2036258e-05
100	0x3732777f	1.0637449e-05
101	0x38bb5518	8.932705e-05
102	0xb7c59139	-2.3551855e-05
103	0xb7028181	-7.778756e-06
104	0xb603e6e0	-1.9654908e-06
105	0xb842adef	-4.6415193e-05
106	0x38b78200	8.7503344e-05
107	0xb81347d9	-3.5114444e-05
108	0x37823986	1.5523994e-05
109	0xb5dbffe7	-1.6391249e-06
110	0x366f4dfb	3.5659166e-06
111	0xb80b0f80	-3.3154618e-05
112	0xb7ebe53f	-2.8120934e-05
113	0xb70798cd	-8.082204e-06
114	0x37dee8f8	2.6572947e-05
115	0x37e0d0ec	2.6800168e-05
116	0xb5591a43	-8.0877015e-07
117	0xb87e2f80	-6.0602557e-05
118	0xb7ef583c	-2.8532108e-05
119	0xb845a3dd	-4.712107e-05
120	0x38590fca	5.1751536e-05
121	0x376cdccd	1.4118105e-05
122	0xb7b1a6d4	-2.117773e-05
123	0x37bbaa9c	2.2371583e-05
124	0xb776d7e7	-1.4713011e-05
125	0x38251115	3.9354974e-05
126	0xb84da427	-4.9028687e-05
127	0x38052b60	3.1750067e-05
128	0xb81a2f92	-3.6760764e-05
129	0xb7a54b35	-1.9704554e-05
130	0xb88708a8	-6.438914e-05
131	0x374a222f	1.2048097e-05
132	0xb762d578	-1.3520352e-05
133	0xb7047953	-7.896061e-06
134	0xb8152fe9	-3.5568988e-05
135	0xb7a94133	-2.017673e-05
136	0x37e10e37	2.682871e-05
137	0x373497ff	1.0764225e-05
138	0x386ae6c1	5.6004854e-05
139	0xb519455a	-5.709786e-07
140	0xb781aab3	-1.5457486e-05
141	0xb707093f	-8.04878e-06
142	0xb7a2245f	-1.9328842e-05
143	0xb81ddd77	-3.7637972e-05
144	0x376ad571	1.3997183e-05
145	0x37a658a1	1.9830013e-05
146	0xb72a75db	-1.016023e-05
147	0x38036064	3.1322605e-05
148	0x37ec0274	2.8134535e-05
149	0x3738b928	1.1010365e-05
150	0x3431f1c7	1.6572368e-07
151	0x37a2623f	1.9357654e-05
152	0x38732aa1	5.7975416e-05
153	0xb70b7903	-8.313221e-06
154	0x36640b32	3.3981164e-06
155	0xb72ac951	-1.0179662e-05
156	0x380da276	3.3768323e-05
157	0xb8511a81	-4.9854167e-05
158	0xb581c174	-9.667551e-07
159	0x37a3719d	1.948402e-05
160	0x387100f0	5.745975e-05
161	0x37165b11	8.9619e-06
162	0xb82ee9ef	-4.17027e-05
163	0x388a74c4	6.602102e-05
164	0x373584b9	1.0819343e-05
165	0x373a3e50	1.1100972e-05
166	0x38884aff	6.4989545e-05
167	0x378477a2	1.5791335e-05
168	0x37e568ad	2.734767e-05
169	0x38a00cae	7.631756e-05
170	0x37ce751c	2.4611647e-05
171	0x37cc8e25	2.4384886e-05
172	0x37d3a924	2.5231922e-05
173	0x3650d336	3.1117356e-06
174	0x37ccd9f1	2.4420182e-05
175	0xb740b39a	-1.14859085e-05
176	0xb77d1549	-1.5084931e-05
177	0x3700ec8e	7.684472e-06
178	0xb55fa5f7	-8.3315484e-07
179	0xb6eb9274	-7.020595e-06
180	0xb74774a9	-1.1888486e-05
181	0xb7a4e566	-1.9657145e-05
182	0x388ec74a	6.808208e-05
183	0x3899cdc4	7.333935e-05
184	0xb7111915	-8.648513e-06
185	0xb85e6c1d	-5.3029613e-05
186	0x37bf3d4e	2.2797522e-05
187	0xb7cf9ca6	-2.4749268e-05
188	0xb8ad0e4e	-8.251947e-05
189	0xb730c526	-1.053632e-05
190	0xb565d986	-8.5625686e-07
191	0xb8189e68	-3.638715e-05
192	0x38ad54a7	8.2650506e-05
193	0xb7b7640b	-2.1861886e-05
194	0x386119dd	5.3668267e-05
195	0xb7e262ab	-2.6987245e-05
196	0xb7cc26c7	-2.4336752e-05
197	0x371d88b7	9.389761e-06
198	0x3809835c	3.2785683e-05
199	0x35fbc7ed	1.8759143e-06
200	0x36770901	3.681111e-06
201	0x389d4cbe	7.500638e-05
202	0xb80c91de	-3.351445e-05
203	0x3718aff6	9.100875e-06
204	0xb87c5a87	-6.0165792e-05
205	0xb5fde29d	-1.8915922e-06
206	0xb733a526	-1.0707683e-05
207	0xb796767f	-1.7936572e-05
208	0xb73d9ad2	-1.1301325e-05
209	0x3619f9dc	2.2944214e-06
210	0x3789d418	1.6430437e-05
211	0x37888ecb	1.6278957e-05
212	0x38385c12	4.3954766e-05
213	0x376c3402	1.4078805e-05
214	0xb87f9566	-6.0935876e-05
215	0xb74853d3	-1.1940446e-05
216	0xb8a7e4db	-8.005808e-05
217	0xb67a9be0	-3.7343634e-06
218	0xb6b3f96d	-5.3636527e-06
219	0x37ec4194	2.816393e-05
220	0xb756c6ed	-1.280171e-05
221	0x3686d1c2	4.01793e-06
222	0x355d3ba6	8.2415715e-07
223	0xb70ca69b	-8.383441e-06
224	0x349e2093	2.9453494e-07
225	0x3749c0d5	1.2025431e-05
226	0xb6e923b7	-6.948099e-06
227	0xb7e9eb2b	-2.7885273e-05
228	0xb6ccf1b3	-6.1078113e-06
229	0x379a5d82	1.8401774e-05
230	0x37dca849	2.6304408e-05
231	0xb7420e1b	-1.1566585e-05
232	0x37c72911	2.3741772e-05
233	0x37a48de2	1.9616393e-05
234	0xb80b048f	-3.3144428e-05
235	0x36b14b06	5.283745e-06
236	0xb7b3e344	-2.1444292e-05
237	0x380caad3	3.3537694e-05
238	0x37766da9	1.4688275e-05
239	0x368ad0cc	4.1370276e-06
240	0x378c2913	1.6708427e-05
241	0xb869a7cd	-5.5707806e-05
242	0xb760c01e	-1.3396171e-05
243	0x38360c2e	4.3403525e-05
244	0x37161efe	8.947913e-06
245	0xb73b3799	-1.1159013e-05
246	0xb58b1fe8	-1.0365593e-06
247	0xb58a4a77	-1.0303473e-06
248	0xb6a0d2b9	-4.792903e-06
249	0x379b03c7	1.8479199e-05
250	0x3700ef19	7.685064e-06
251	0x384024d2	4.581066e-05
252	0xb6a643b1	-4.955066e-06
253	0x3877db02	5.9093356e-05
254	0xb759face	-1.2992603e-05
255	0x36832948	3.90891e-06

b_classifier.q.0.bias f4 [128]
0	0x35c9b7d3	1.5029167e-06
1	0xb823c835	-3.9048686e-05
2	0x353c48fe	7.0141675e-07
3	0x36ac8f89	5.142709e-06
4	0x3525f1ea	6.181932e-07
5	0x38004c56	3.058867e-05
6	0xb82b680d	-4.0866482e-05
7	0x35ca3cbb	1.5067848e-06
8	0xb80fb777	-3.426472e-05
9	0xb83ca019	-4.4971795e-05
10	0x38761e6b	5.86793e-05
11	0xb6cb1106	-6.0518532e-06
12	0xb8b4d3de	-8.622532e-05
13	0xb85bb602	-5.2383177e-05
14	0xb7bf46ee	-2.2802004e-05
15	0xb81adbf0	-3.6921294e-05
16	0x364df1ac	3.0688052e-06
17	0x378f012b	1.7047472e-05
18	0xb8423564	-4.630293e-05
19	0xb6d2338e	-6.2644895e-06
20	0x380b0730	3.3146876e-05
21	0xb61091ac	-2.1542464e-06
22	0xb83990fb	-4.424246e-05
23	0xb702de61	-7.80038e-06
24	0x3818a127	3.638971e-05
25	0xb77ece30	-1.51875865e-05
26	0xb79404a2	-1.7645132e-05
27	0x37d3fbf4	2.5270485e-05
28	0xb79fe913	-1.906281e-05
29	0x388272a7	6.220239e-05
30	0xb84365e2	-4.658651e-05
31	0x37d9322a	2.5891775e-05
32	0xb7d63474	-2.5535213e-05
33	0x380fadea	3.4255827e-05
34	0xb892b1d6	-6.994947e-05
35	0xb708e35e	-8.15917e-06
36	0xb886d067	-6.428436e-05
37	0x36cb5b5c	6.060507e-06
38	0x382d904c	4.13808e-05
39	0x37f80873	2.9567838e-05
40	0x36be8fd2	5.679184e-06
41	0x3789403f	1.636159e-05
42	0xb7c49ab7	-2.3437065e-05
43	0x35fb61ee	1.8729459e-06
44	0x384aa1f2	4.8311376e-05
45	0xb8639e83	-5.4268643e-05
46	0x37e76d0a	2.7588121e-05
47	0x368baeb1	4.1628596e-06
48	0x3745879b	1.1773688e-05
49	0x3739b353	1.10686115e-05
50	0xb7ea4a76	-2.7929647e-05
51	0x385571c7	5.088912e-05
52	0x377cb591	1.5062645e-05
53	0x381a8240	3.6837766e-05
54	0xb7c57d38	-2.354254e-05
55	0x379c62d6	1.8642673e-05
56	0xb81e049b	-3.7674425e-05
57	0xb7cba387	-2.4275634e-05
58	0x37bec9c1	2.2743714e-05
59	0xb814c413	-3.5468558e-05
60	0xb847f850	-4.7676556e-05
61	0xb8404014	-4.5836045e-05
62	0xb886318f	-6.398849e-05
63	0xb79fc2a2	-1.904491e-05
64	0xb7bac482	-2.2264434e-05
65	0xb7db45b4	-2.6139292e-05
66	0x37d02505	2.481277e-05
67	0xb693142f	-4.383291e-06
68	0x37f24546	2.8880906e-05
69	0xb8a71ffa	-7.969137e-05
70	0x37eda3ab	2.8328815e-05
71	0xb74e87e2	-1.23101945e-05
72	0xb858325a	-5.1545307e-05
73	0x37df320e	2.660698e-05
74	0x37802148	1.5274287e-05
75	0xb7fd7f72	-3.0219297e-05
76	0x384c8585	4.876174e-05
77	0x387b1f48	5.9872196e-05
78	0x375cfc0e	1.3171708e-05
79	0x38330621	4.2682634e-05
80	0xb887cf4f	-6.475916e-05
81	0xb845bea8	-4.7146023e-05
82	0x3868c1b4	5.549351e-05
83	0x37eca068	2.8208087e-05
84	0xb89a2f4e	-7.3521034e-05
85	0x383eb182	4.5464847e-05
86	0xb61245ab	-2.1796247e-06
87	0xb89e8b38	-7.5599586e-05
88	0xb782756d	-1.5551888e-05
89	0x363dcab1	2.8281177e-06
90	0x389df57c	7.5320684e-05
91	0xb86af987	-5.6022338e-05
92	0xb8bcc81d	-9.0018126e-05
93	0xb7848ed4	-1.5802136e-05
94	0xb74f505f	-1.2356874e-05
95	0xb6a90a1f	-5.0377707e-06
96	0x37e49ec0	2.7253642e-05
97	0x389ea736	7.5651726e-05
98	0x378a345b	1.6475262e-05
99	0xb7f8aaf4	-2.964351e-05
100	0x388705c2	6.438374e-05
101	0x38385cec	4.395556e-05
102	0x381d7752	3.7542843e-05
103	0xb7acde95	-2.0607646e-05
104	0x386715f9	5.5095155e-05
105	0x37aae4d9	2.0372145e-05
106	0x350b0a40	5.179645e-07
107	0xb751ebad	-1.2512243e-05
108	0x373fcdac	1.1432374e-05
109	0xb78a9d03	-1.6523996e-05
110	0xb5f3931b	-1.8147724e-06
111	0xb81b72ea	-3.7061902e-05
112	0xb7eb1b89	-2.8027005e-05
113	0xb884e7ce	-6.3374275e-05
114	0xb808cc22	-3.261504e-05
115	0xb784191d	-1.574732e-05
116	0xb7b430df	-2.148043e-05
117	0xb859d2ef	-5.193328e-05
118	0xb7b4ef6c	-2.1569162e-05
119	0xb7db6f5c	-2.615869e-05
120	0xb7e897de	-2.7727274e-05
121	0x38354428	4.321724e-05
122	0x388356b5	6.262717e-05
123	0x383f316c	4.5583976e-05
124	0xb804ba0b	-3.164452e-05
125	0x38119d9f	3.471749e-05
126	0x3796dc72	1.7984046e-05
127	0x3752f8bd	1.2574889e-05

b_classifier.q.2.weight f4 [128, 128]
0	0xb11799fc	-2.2060922e-09
1	0xb5da69a7	-1.6273015e-06
2	0xbb1721c8	-0.0023060907
3	0x38861450	6.3934014e-05
4	0x38acc898	8.2389626e-05
5	0xb7976e12	-1.8051858e-05
6	0x36fc3b0b	7.5170587e-06
7	0xb858aabd	-5.1657426e-05
8	0x370dc165	8.449283e-06
9	0xbc649a48	-0.013952799
10	0x37a1e8f5	1.9301175e-05
11	0x38454609	4.7033685e-05
12	0xba7c00bb	-0.0009613146
13	0xbcb3aee5	-0.021933982
14	0x374194a6	1.1538306e-05
15	0x381c5ee1	3.728166e-05
16	0x36a5479b	4.925719e-06
17	0x3c14fe5a	0.009093845
18	0xb7ffb339	-3.0481826e-05
19	0x38819c15	6.180272e-05
20	0xb88854a2	-6.5007494e-05
21	0x3ab00b71	0.0013431144
22	0x37b8d349	2.2032897e-05
23	0x35270792	6.2223364e-07
24	0xb7cf380e	-2.4702425e-05
25	0x378485cf	1.5797936e-05
26	0xb890892e	-6.892007e-05
27	0x388f0268	6.8192196e-05
28	0x3765413a	1.366465e-05
29	0x37a82579	2.004461e-05
30	0xb680d520	-3.8395083e-06
31	0xb72909c2	-1.0075457e-05
32	0x374fafb6	1.2379072e-05
33	0x381164dc	3.4664627e-05
34	0x35b1ff5c	1.3261847e-06
35	0xafddc1d1	-4.033738e-10
36	0xbaf1a494	-0.0018435889
37	0x386d10bf	5.65208e-05
38	0xb02659b4	-6.0517924e-10
39	0x39c8f18c	0.0003832694
40	0x382c3a27	4.1062154e-05
41	0xb03d736b	-6.892182e-10
42	0xb85a99c2	-5.211845e-05
43	0xbc30f468	-0.0108004585
44	0x3ca9a5d5	0.020708958
45	0x38a66a6b	7.935319e-05
46	0xb75f6120	-1.33144495e-05
47	0xb2847167	-1.5418392e-08
48	0x378d9b9a	1.6880967e-05
49	0x37c20883	2.3130566e-05
50	0x3a722e2e	0.00092384487
51	0x38973c2f	7.211451e-05
52	0x2e1161d4	3.3056072e-11
53	0x37d43bbb	2.5300184e-05
54	0x36d925ac	6.4714895e-06
55	0xbcb70e59	-0.022345709
56	0xb67beaf6	-3.753868e-06
57	0xb8c8b6a6	-9.570764e-05
58	0xb749df41	-1.2032514e-05
59	0xb863b40c	-5.42887e-05
60	0x3b4fd8e6	0.0031714975
61	0xbaf2c5c9	-0.0018522079
62	0x3b332814	0.002733712
63	0xbcc7ff9d	-0.024413878
64	0x3ca49bbf	0.020093797
65	0xbcbf98a4	-0.023388214
66	0x3bc6a63a	0.006062296
67	0xaff1aeec	-4.3961934e-10
68	0x3c8aaf13	0.016929185
69	0xbbb62bf6	-0.00555944
70	0x3794ebbf	1.7752753e-05
71	0xbc2ba646	-0.010476654
72	0x37ebaecc	2.809558e-05
73	0x3ab81af7	0.0014046122
74	0x38807e68	6.1270606e-05
75	0x338d646d	6.5840915e-08
76	0x3c9c7383	0.019098049
77	0xb503b619	-4.906629e-07
78	0x3c5c8303	0.01345897
79	0xb79452e7	-1.768158e-05
80	0xb7ce1a2a	-2.4569297e-05
81	0x384e7f5c	4.923284e-05
82	0xb87ca00b	-6.0230534e-05
83	0x385fcb2f	5.3356573e-05
84	0x36f7898a	7.3771853e-06
85	0x388b9a7d	6.656812e-05
86	0x37e524e1	2.73161e-05
87	0xbc883521	-0.016626896
88	0xb5859857	-9.953609e-07
89	0x30a84fb8	1.2246266e-09
90	0xb7b2e15f	-2.13242e-05
91	0x375b5ce7	1.3075048e-05
92	0xbcaa8310	-0.020814449
93	0xbc856bc8	-0.016286746
94	0x3c93a459	0.018022703
95	0x3c0dbbfa	0.008650774
96	0xafa4b500	-2.9960034e-10
97	0x3cc6f664	0.02428741
98	0xb7c49bd2	-2.343758e-05
99	0x37e7cc19	2.7632386e-05
100	0x3c81dc08	0.01585199
101	0xb7ef93de	-2.8559876e-05
102	0xb751fb11	-1.2515827e-05
103	0xb3b6590b	-8.491232e-08
104	0xb647ed98	-2.9791609e-06
105	0xb50849ac	-5.0771155e-07
106	0x304a81ae	7.367146e-10
107	0x30703ebf	8.740066e-10
108	0xb798ab40	-1.8199557e-05
109	0x37104334	8.598716e-06
110	0x388a74db	6.602119e-05
111	0x36935993	4.391369e-06
112	0xbc24602e	-0.010032697
113	0x3679e557	3.7237385e-06
114	0xbcbd1fa2	-0.023086373
115	0xb896863a	-7.177559e-05
116	0x369a5648	4.599602e-06
117	0xbcc3f65f	-0.02392119
118	0x37039275	7.842308e-06
119	0x3b17db8d	0.0023171634
120	0x3adaf9a5	0.001670648
121	0xb6c3568b	-5.821528e-06
122	0xb8708291	-5.734206e-05
123	0x389691e2	7.17973e-05
124	0xb8d21167	-0.00010016822
125	0xb7678be5	-1.3801245e-05
126	0xb88cf651	-6.7216e-05
127	0x38422c22	4.6294306e-05
128	0x35824bb9	9.707793e-07
129	0x3a1c14d8	0.00059540337
130	0xb7c399c6	-2.3317418e-05
131	0x377d4c74	1.5097776e-05
132	0x375abb12	1.3037368e-05
133	0x3698e1db	4.556246e-06
134	0x370d8496	8.435125e-06
135	0x38b81c30	8.779054e-05
136	0x38d7f134	0.000102969265
137	0x379ee93a	1.8943672e-05
138	0xbbbf4830	-0.005837463
139	0x3c3b3085	0.011425142
140	0xb70ae4e1	-8.278731e-06
141	0x35a05319	1.1945114e-06
142	0x3018bdf8	5.556724e-10
143	0x378c93ed	1.6758184e-05
144	0xb7d120f2	-2.4930083e-05
145	0x373f9480	1.14190625e-05
146	0xafa34b56	-2.9703057e-10
147	0xbc49601b	-0.01229098
148	0xb75e3511	-1.3244587e-05
149	0x3ca4df62	0.020126048
150	0x3bb7394a	0.005591546
151	0xbcb33bc8	-0.021879092
152	0x3795ee26	1.787308e-05
153	0x381f1c43	3.7934875e-05
154	0x3c3e518e	0.011616124
155	0xb3d03dbe	-9.6969856e-08
156	0xb859d7c0	-5.1937765e-05
157	0xb708fa24	-8.164472e-06
158	0xb754b206	-1.2677634e-05
159	0x325e7fc9	1.2951156e-08
160	0x3ae7a48c	0.001767294
161	0x3801b702	3.0926436e-05
162	0xb7a8fb4b	-2.0144178e-05
163	0x31519d09	3.0502767e-09
164	0x3539c183	6.9199467e-07
165	0xb96824b8	-0.00022138923
166	0x3ca0d80a	0.019634265
167	0xb01e2e34	-5.7545724e-10
168	0xb7217d76	-9.625559e-06
169	0x3c831cd3	0.016004955
170	0x3c64ed1a	0.013972545
171	0xb6adeb0f	-5.183166e-06
172	0x384cdd6a	4.8843598e-05
173	0x33b18912	8.267138e-08
174	0xb791a6a7	-1.736295e-05
175	0x3be6396b	0.0070258877
176	0xb7160923	-8.942824e-06
177	0x2f6301a6	2.0646115e-10
178	0xbc8367b2	-0.016040657
179	0x38854e73	6.3565465e-05
180	0x359acb13	1.1532996e-06
181	0xb70ec049	-8.508629e-06
182	0xaed79855	-9.8041276e-11
183	0xb07e88e7	-9.259921e-10
184	0xbc3128b5	-0.010812928
185	0xae8b90c5	-6.3467044e-11
186	0x38fd9a86	0.00012092762
187	0x374ac71b	1.2086496e-05
188	0xb665909d	-3.4207835e-06
189	0xb526ec05	-6.218327e-07
190	0xb1406398	-2.799629e-09
191	0xbcb86fa2	-0.022514168
192	0xb7af354c	-2.0886444e-05
193	0x2e67e401	5.2725827e-11
194	0xbbb0e039	-0.005397823
195	0xb5905a95	-1.0755199e-06
196	0xae6dfe84	-5.4113616e-11
197	0xbc6b1355	-0.014347871
198	0xb161bdc8	-3.2849687e-09
199	0xb5d2ce09	-1.5706183e-06
200	0x3c100d29	0.0087922
201	0xb80e5c5f	-3.3941466e-05
202	0xbab6d6e0	-0.0013949536
203	0x37fd2447	3.0176843e-05
204	0x3610772e	2.1527044e-06
205	0x3c19b32f	0.0093811
206	0xba90ac6d	-0.0011037715
207	0x2e2561e3	3.7603597e-11
208	0x3c8b9c0a	0.017042179
209	0xb66171bc	-3.3593815e-06
210	0x3077b51a	9.011544e-10
211	0x37248753	9.806669e-06
212	0x3c7eac2c	0.015543979
213	0x3c88ce5f	0.016699968
214	0xb7200822	-9.538637e-06
215	0xb757f11d	-1.2871137e-05
216	0xba0cc682	-0.0005370156
217	0xb80c4f2f	-3.3452347e-05
218	0xb6baf5f2	-5.5718638e-06
219	0xb9d2e327	-0.00040223563
220	0xaf9a43d5	-2.8060634e-10
221	0x3cb839f0	0.022488564
222	0xb7b11f13	-2.1114514e-05
223	0xb716bf09	-8.985176e-06
224	0x2f264464	1.5121909e-10
225	0xbbe1ad6e	-0.0068871295
226	0x3c5c4190	0.013443366
227	0xb780f25d	-1.5371648e-05
228	0x363d6629	2.822266e-06
229	0xbaa4f748	-0.0012585903
230	0x3bcf6a29	0.006329794
231	0xb745f42d	-1.1798967e-05
232	0xb001253c	-4.698284e-10
233	0xb884c4e6	-6.330926e-05
234	0xafa3ff4d	-2.983093e-10
235	0xb90814ff	-0.00012977792
236	0x36c87591	5.974151e-06
237	0x37363ffc	1.0862943e-05
238	0x3c2988ac	0.0103475265
239	0x376c9157	1.4100536e-05
240	0x37a7bbc7	1.9995392e-05
241	0xaf47f10c	-1.8184582e-10
242	0x368bc2f4	4.1652183e-06
243	0x370babce	8.325047e-06
244	0xb898f48e	-7.293477e-05
245	0xb833d231	-4.287268e-05
246	0xbbca068c	-0.006165331
247	0x3ab6e28e	0.0013953017
248	0x3883cc80	6.284658e-05
249	0xb1cb5819	-5.918093e-09
250	0x3b030077	0.001998929
251	0x3c9219e2	0.017834608
252	0xb684f15f	-3.962006e-06
253	0xbc81defb	-0.015853396
254	0xb0b041d6	-1.2824397e-09
255	0x37b23176	2.1242286e-05

b_classifier.q.2.bias f4 [128]
0	0x39b6f644	0.00034897227
1	0xb93a8899	-0.00017789229
2	0xb456c2af	-2.0001129e-07
3	0xbb8212d9	-0.003969532
4	0x34210679	1.4996648e-07
5	0x370b9301	8.319273e-06
6	0x376059a3	1.3372311e-05
7	0xbbde28d6	-0.0067797704
8	0xbb5fdcc4	-0.0034158686
9	0xbb877d98	-0.004134845
10	0xb6b0cfe2	-5.2694095e-06
11	0xb7a9bfd6	-2.02357e-05
12	0xb79546e8	-1.7795202e-05
13	0xb8a8a8ee	-8.04233e-05
14	0xb877289f	-5.892722e-05
15	0x39e651d9	0.0004393
16	0x37be1372	2.265882e-05
17	0xb833f7b4	-4.2907617e-05
18	0x3c9090a7	0.0176471
19	0x37251e80	9.841868e-06
20	0x3ba61d40	0.005069405
21	0xb3bba58f	-8.737981e-08
22	0xb7bbe684	-2.239948e-05
23	0xbc3c8a48	-0.011507578
24	0xb825752a	-3.9448183e-05
25	0x331cd004	3.651077e-08
26	0xbc517e35	-0.012786438
27	0x3a4d03ed	0.00078207144
28	0x348cfe50	2.626207e-07
29	0xb28be3f2	-1.6285387e-08
30	0x3527c827	6.250361e-07
31	0xbc9c6160	-0.0190894
32	0xb79ba08a	-1.8552197e-05
33	0xbb01404f	-0.0019722169
34	0x35e365e0	1.6942467e-06
35	0xb64fe551	-3.0978883e-06
36	0x35b30803	1.3338871e-06
37	0xbc382952	-0.01124032
38	0x37134f32	8.780322e-06
39	0xbc4b5148	-0.012409516
40	0x3caaae51	0.020835074
41	0x37bcee92	2.252244e-05
42	0xb6d97db1	-6.4817364e-06
43	0x382be2bb	4.0980736e-05
44	0xb7a5de12	-1.9772942e-05
45	0x3b304266	0.0026895045
46	0xb7957fe6	-1.7821741e-05
47	0xbc7a8977	-0.015291563
48	0xbcbdc417	-0.023164792
49	0xb86c9258	-5.6403078e-05
50	0x3803d4fa	3.1431184e-05
51	0xbcb26c72	-0.021780226
52	0x3c980eaf	0.01856169
53	0x3c8537c5	0.016261945
54	0xbcaa6134	-0.020798303
55	0xbcb77cf8	-0.022398457
56	0x3bb775dd	0.005598767
57	0x3c93f8dc	0.018063001
58	0xb4549ce6	-1.9801118e-07
59	0x3c540475	0.012940516
60	0x3408511a	1.2695492e-07
61	0xb6bbc148	-5.595535e-06
62	0xb39c7580	-7.285689e-08
63	0xb84419ee	-4.675419e-05
64	0xbc5df28f	-0.0135466
65	0x3c85dab2	0.016339634
66	0xbcb6db77	-0.022321446
67	0xbcbeac3d	-0.023275489
68	0xb749b357	-1.2022289e-05
69	0x32939253	1.7179593e-08
70	0xbcac34b5	-0.021021226
71	0xbcc1d99f	-0.02366334
72	0x36a76e49	4.9898267e-06
73	0x361ff8b3	2.3837608e-06
74	0xb71a8d02	-9.211946e-06
75	0xb27b713a	-1.4635868e-08
76	0x3835a0ae	4.3303407e-05
77	0xb8ee3835	-0.00011359194
78	0xb6c56bd2	-5.8836094e-06
79	0xbb1f00af	-0.0024261882
80	0x36f298fc	7.2299717e-06
81	0x3ccbddd2	0.024886046
82	0x381eccac	3.786075e-05
83	0xb8425529	-4.6332516e-05
84	0xbca2ff46	-0.019897114
85	0x3c289113	0.010288495
86	0x35517e87	7.804269e-07
87	0x36343953	2.6855457e-06
88	0x37dd30fb	2.6368061e-05
89	0xb9c174b2	-0.00036898773
90	0xbc948038	-0.018127546
91	0xb82cf3b7	-4.1234973e-05
92	0x380b7ebf	3.3258224e-05
93	0xb701a6b2	-7.727811e-06
94	0xb4051915	-1.2395715e-07
95	0x37d06622	2.4843092e-05
96	0x32ece115	2.7576371e-08
97	0xb883c0a5	-6.2824496e-05
98	0xbc2be12f	-0.0104907
99	0xb7888d88	-1.6278369e-05
100	0x35b403c8	1.3412146e-06
101	0x322970ed	9.862771e-09
102	0x37d8941e	2.5818179e-05
103	0xb875fee0	-5.8649923e-05
104	0x3c05a1c6	0.008156246
105	0xbc87ab85	-0.01656128
106	0x37beac70	2.2730062e-05
107	0x3c9eaf1b	0.019370606
108	0x380dd2f4	3.3813485e-05
109	0xbc8865da	-0.01665013
110	0x384f916e	4.9488088e-05
111	0xbc9669fa	-0.01836108
112	0x3749b2f2	1.2022198e-05
113	0xb3343ed2	-4.196665e-08
114	0xb83f817f	-4.565855e-05
115	0x379862ea	1.8165872e-05
116	0xb8b436ee	-8.5933e-05
117	0x37f224a7	2.8865716e-05
118	0x37718745	1.4396214e-05
119	0xbc865fd2	-0.016403113
120	0xbbc2eaa1	-0.00594838
121	0xb912661b	-0.00013961682
122	0x3bd11368	0.0063804872
123	0x3c14d8a8	0.009084858
124	0xb78f619d	-1.7092383e-05
125	0xb3d11661	-9.7363916e-08
126	0x378e6b04	1.6977552e-05
127	0xb81bbf73	-3.713318e-05

b_classifier.fcc.weight f4 [2, 2, 512]
0	0x3c009921	0.007849009
1	0x3ad70110	0.0016403515
2	0xbb044943	-0.002018527
3	0x3c85e3e9	0.016344028
4	0xbc2c4d43	-0.0105164675
5	0x3c4bd4b0	0.012440845
6	0xbc6e5efe	-0.014549015
7	0x3cadb4f5	0.021204451
8	0xbc3ddc2e	-0.011588139
9	0xbcae9c8c	-0.021314882
10	0x3cda8e93	0.026679313
11	0xbc428ab6	-0.011873892
12	0x3c69b02d	0.014263195
13	0x39c4f1c3	0.0003756416
14	0xba7716cd	-0.00094257
15	0x3aa9dcc6	0.0012959472
16	0xbb31a4c6	-0.002710627
17	0x3c35be1b	0.011092688
18	0x3bfe3151	0.007757344
19	0x3ca2cd9f	0.019873438
20	0x3c3fc39a	0.01170435
21	0x3b3c45bb	0.0028728086
22	0x3c723b82	0.014784696
23	0xbb928a09	-0.0044720215
24	0xbc266f39	-0.0101583535
25	0xbb51b8ad	-0.0032000944
26	0xbb390df3	-0.0028237074
27	0x3b251a15	0.0025192548
28	0x3a8c7cc4	0.0010718335
29	0xbc10cdc0	-0.008838117
30	0xbbe94d29	-0.007119794
31	0xbbe8fa72	-0.0071099335
32	0x3caaf8eb	0.020870646
33	0xb8294774	-4.0359286e-05
34	0xbbf5c360	-0.007500097
35	0x3c75c088	0.014999516
36	0x3cea7a0c	0.02862265
37	0x3c671467	0.014103985
38	0xbc6b8cd9	-0.014376842
39	0xbb090b50	-0.0020911284
40	0x3b2a89d6	0.0026022098
41	0xbcbbb15e	-0.022911724
42	0xbb929bd5	-0.004474143
43	0x3be6c4a9	0.0070424867
44	0x3ae95402	0.0017801526
45	0x3a6ec5c2	0.00091084477
46	0x3c3e2f4e	0.011607958
47	0x3c00ed69	0.007869103
48	0x3c269291	0.01016678
49	0xbca1bcfd	-0.019743437
50	0xbbf683f5	-0.0075230547
51	0x3bd258a2	0.0064192573
52	0xbc3d14fc	-0.011540648
53	0xb886af0a	-6.4222215e-05
54	0x3c71d6ef	0.014760717
55	0x3c791e26	0.015204942
56	0xbbc035b0	-0.005865775
57	0xbb74f753	-0.0037378862
58	0xbcdb6593	-0.026781833
59	0x3cb89b11	0.022534879
60	0x3a51966c	0.0007995132
61	0xb9876c74	-0.0002583001
62	0x3a231cf0	0.00062222686
63	0x3bb8c017	0.0056381333
64	0xbcbdcc9e	-0.023168858
65	0x3c75a933	0.0149939535
66	0xbcd85587	-0.02640797
67	0xbc744ac8	-0.014910407
68	0xb9d83be4	-0.00041243352
69	0xbbe340cc	-0.0069352146
70	0x3af30586	0.0018541075
71	0xbcd9ffdf	-0.026611267
72	0xbc80be2d	-0.015715683
73	0x3b67f791	0.0035395364
74	0x3b8e8f06	0.004350546
75	0x3c9a4eb3	0.018836355
76	0xba1ae8a5	-0.00059093005
77	0xbc7044ea	-0.014664868
78	0x3c1d593f	0.009603797
79	0xbb0818ed	-0.002076681
80	0xbbe5553d	-0.0069986866
81	0xbccb87dc	-0.024845056
82	0xbc4281cd	-0.011871767
83	0xbbb95c48	-0.0056567527
84	0x3a269073	0.0006353922
85	0x3c590a29	0.013247051
86	0x3c0fe164	0.008781765
87	0xbc3fc72b	-0.0117052
88	0x3c2dc615	0.0106063085
89	0xbca012ba	-0.01954018
90	0xbc8e69f6	-0.01738451
91	0xbc5d4975	-0.013506283
92	0x3b0dea0d	0.0021654398
93	0xbb75ea31	-0.0037523622
94	0x3b2e8965	0.0026632186
95	0xbca6922e	-0.020333376
96	0x3c215fb7	0.00984948
97	0x3a2a4805	0.0006495717
98	0xbd0ef0a6	-0.03489747
99	0xbc10e5dc	-0.008843865
100	0x3c47f0c9	0.012203404
101	0xbc3a2b66	-0.011362886
102	0xbbc01f56	-0.0058631105
103	0x3c719632	0.014745282
104	0xbb88f7be	-0.004179924
105	0xbc9424c8	-0.018083945
106	0xbc23ec0d	-0.010005009
107	0xbcc87134	-0.024468042
108	0x3c2cd084	0.010547761
109	0x3b47b141	0.0030470642
110	0x3ba88145	0.0051423633
111	0xbc234291	-0.009964601
112	0x3c15bcf4	0.009139288
113	0xbca73b9c	-0.020414166
114	0x3ca04d59	0.019568132
115	0xbbaebea2	-0.005332784
116	0xbc72b49c	-0.014813568
117	0xbcedc5d0	-0.029024988
118	0xbc80c0e2	-0.015716974
119	0x3c56aba5	0.013102447
120	0x396bd11f	0.0002248925
121	0x3c155cb0	0.009116337
122	0x3bb6badc	0.0055764746
123	0x3c40eef9	0.0117757255
124	0xbce27379	-0.027642952
125	0xbca95c7c	-0.020673983
126	0x3b761004	0.0037546167
127	0x3c9e04a1	0.019289317
128	0xbc8b4c8d	-0.017004276
129	0xbce14a5c	-0.027501278
130	0x3bc7aaff	0.0060933824
131	0xbc0c0822	-0.008546861
132	0x391c80dd	0.00014925325
133	0x3c19711f	0.009365349
134	0xbba335eb	-0.0049807928
135	0x3c2d5d71	0.01058136
136	0x3caa97c5	0.020824322
137	0xbb0948af	-0.0020947864
138	0x3b9c300a	0.004766469
139	0xbb83393b	-0.004004625
140	0x39cdc8e1	0.00039250313
141	0x3bf1dde6	0.0073811887
142	0xbb99192f	-0.0046721916
143	0xbcc22bba	-0.023702491
144	0xbc476d27	-0.01217202
145	0x3b16034f	0.0022890156
146	0x3ac28b34	0.0014842511
147	0x3b56d40b	0.0032780196
148	0xbba471f6	-0.005018468
149	0xbc896d8a	-0.016775865
150	0xbcae0bc8	-0.021245852
151	0x3b456958	0.0030122604
152	0xb9859895	-0.0002548142
153	0x3c5ab658	0.013349138
154	0x3c5986b6	0.0132767465
155	0xbc55e653	-0.013055402
156	0x3bdb76a6	0.0066974936
157	0xb96930b4	-0.00022238755
158	0x3c5c7796	0.013456246
159	0xbcf15c40	-0.029462934
160	0xbc5fb145	-0.013653104
161	0xbc63f2b6	-0.013912847
162	0x3c8691b2	0.016426895
163	0x3bacb2c6	0.005270335
164	0x3c069029	0.008213081
165	0x3ccdc4d0	0.025118262
166	0xbc0df11a	-0.00866344
167	0x3c0fe09f	0.008781581
168	0x3c8419eb	0.01612564
169	0xbca1eb36	-0.019765478
170	0xbb0309a2	-0.0019994755
171	0x3c309bc7	0.010779328
172	0x3cd49095	0.025947848
173	0xbb9b2283	-0.0047343387
174	0xbbc034f3	-0.005865687
175	0x3bd4db28	0.006495852
176	0x3c85245a	0.016252685
177	0x3c4d57b3	0.012533116
178	0xbb616561	-0.0034392702
179	0xbac6a680	-0.0015155822
180	0x3ca5dcbb	0.020246854
181	0xbbf5f80f	-0.0075063775
182	0xbc028cfc	-0.007968184
183	0x3c8371e4	0.016045518
184	0xbb8eef8c	-0.0043620523
185	0x3bc618bf	0.0060454304
186	0x3b403387	0.0029327588
187	0xbc82c5cd	-0.01596346
188	0x3c0170dc	0.007900443
189	0x3c74ba58	0.014937006
190	0xbb6ca17a	-0.003610699
191	0xba920da4	-0.0011142981
192	0xbb846a55	-0.004040996
193	0x3ccce5a7	0.02501185
194	0x3b9059a8	0.004405219
195	0x397196e0	0.00023039756
196	0x3af129db	0.0018399315
197	0x3c294771	0.010331974
198	0xba61bec5	-0.0008611496
199	0x3b7bae4d	0.0038403452
200	0x3c7cb321	0.015423567
201	0xbc602f6a	-0.013683179
202	0xbca09e11	-0.019606622
203	0x3b1529ea	0.0022760578
204	0xbc36d78c	-0.011159789
205	0xb919dcbd	-0.00014673448
206	0x3bb57e27	0.00553872
207	0x3b86e6a3	0.0041168495
208	0x3c1fa9aa	0.009745041
209	0xbc6fee52	-0.014644222
210	0x3c61b478	0.013775937
211	0xbbc758d5	-0.0060835877
212	0x3b9f327d	0.0048583136
213	0xbafbcdf6	-0.0019211161
214	0x3ccd0322	0.025025908
215	0xbbbc40ca	-0.005745028
216	0xbc5054dc	-0.012715545
217	0x3c91e40d	0.017808938
218	0xbc73c8b7	-0.014879397
219	0xbc901a47	-0.017590655
220	0xbc89a7aa	-0.016803581
221	0xbb11e214	-0.0022259997
222	0x3cc84e33	0.02445135
223	0xbc43b30a	-0.011944542
224	0xbc77a4de	-0.015114991
225	0xbb6aad18	-0.0035808738
226	0x3aa8ae02	0.0012869241
227	0xba71c9dc	-0.00092235
228	0xbc7166ab	-0.014733951
229	0x3c6a1950	0.0142882615
230	0x3c5128d9	0.0127660865
231	0x3c27697a	0.010218019
232	0x3cbbf102	0.02294207
233	0xbc62533b	-0.013813789
234	0xba8bddd2	-0.0010670966
235	0x3bd9500c	0.006631857
236	0x3b24a23f	0.002512112
237	0x3b36b7aa	0.0027880468
238	0x39910dc8	0.00027666823
239	0x3c95c79d	0.01828366
240	0xbbb91596	-0.005648325
241	0x3ccb06be	0.024783488
242	0x3c33e7dd	0.0109805735
243	0x3cfba8fd	0.030720228
244	0xbc16f931	-0.009214685
245	0x3c0eb90f	0.008711114
246	0xbbc55f2e	-0.006023309
247	0x3c126881	0.0089360485
248	0xbb530e13	-0.0032204434
249	0xbbc78481	-0.0060887937
250	0x3be731ee	0.0070555126
251	0x3a94d6d5	0.0011355529
252	0x3c4cfa7c	0.012510892
253	0x3b9c8a09	0.0047771973
254	0xbc011014	-0.0078773685
255	0x3c8036ee	0.015651193

b_classifier.fcc.bias f4 [2]
0	0x3d2d5385	0.04231598
1	0xbd733fd1	-0.059387032
