processing/mil classifier/weights/04232023/1.pth (torch, 343759 bytes, 8 tensors)

i_classifier.fc.0.weight f4 [2, 512]
00000000: 7637 f9bc ef82 07bd b36a f33c d101 4abc
00000010: 7f99 a4bc ede9 bbbd 0af8 963c 8882 263c
00000020: a0ec 4fbd 0d73 cb3c a309 d13d 9d79 42bd
00000030: c660 40bd 21f4 2e3d 2976 2dbd 212b 833d
00000040: 6954 46bd 8bd0 83bd 8b5e b4bc 3b9b 023e
00000050: 3cb5 bf3d 6dd3 84bd 8dbc 293e 9f86 2cbd
00000060: 56a8 593c 5fe0 17bd 2c77 0c3e 5442 75bd
00000070: fa85 a73d aab9 2ebd 11e4 4bbc 975f d63d
00000080: f679 523e 53f2 c2bd bbd3 023d 1ab2 22bd
00000090: bf28 a03d fd5b adbd fa33 69bd 5a6c 19be
000000a0: 4626 863c 3b22 9e3d df14 00bd ebb5 383b
000000b0: 0541 72bc 52e8 e43d c122 083d 07bc 4ebc
000000c0: 2064 93bd a95a 2d3d 3760 b6bc 8b4e 043d
000000d0: 7140 fa3d c370 53bc f22b d0bc e1a4 11bd
000000e0: 8df9 ba3d 9b43 7e3c 6b94 4dbc ef0e 3b3c
000000f0: 2b09 97bd 6fc9 7a3e 63fd ffbd 45f7 55bc
00000100: cfc5 eb3b 82e3 acbd 6dff 623d 55a2 a93c
00000110: a588 80bd dfbb 773d 2b7f 8ebd fc72 00bd
00000120: ef39 22bc 2263 ab3d 73d6 a23b f7a5 59bd
00000130: e4fd 813c ca64 48bd 10b0 793c 2500 4b3c
00000140: 5212 503e 2ce7 34bd f39c a0bd e2de 9e3c
00000150: 8693 c93d 40ef f83d f1f5 c9bc e363 3cbd
00000160: d706 f83c 13e9 8fbd 4532 48bd af9c 42bd
00000170: 3dca 8dbd 710b e43c e4f5 0e3e 7a56 8b3d
00000180: ce1a 8fbd dc09 de3d d304 de3c 80ce 403c
00000190: 3db2 923d 25af 573d 363c eebd 51dc 56bd
000001a0: bde5 b6bd 0ce6 27bd 0e9d ebbc 9180 efbd
000001b0: a4d9 b73d c8f2 673d 5041 a6bd 075c 37be
000001c0: f8ba 143d 23ba 45bd 963f 0b3e 6efc 283d
000001d0: cec5 edbc 703a 1fbc b054 073d 3c37 ecbd
000001e0: 0c57 98bd 3481 1fbd 6ee0 1e3d b8b0 36bd
000001f0: 2db8 233d e017 90bd 1120 243d b9fe 85bd
00000200: ec23 59bd e939 2e3c 9729 3d3d 8050 0ebc
00000210: 3dd8 913c be72 d83d f579 0b3e 4334 4b3c
00000220: 3b52 dc3d 335f 86bc d96f 963c aec0 a1bd
00000230: 6f72 84bd 41f5 b4bc 5b1a 3cbd a7c7 9d3d
00000240: c7fb 4d3d 1765 c63d 6228 653d 860b 02be
00000250: 20d4 f0bb 68b8 d83c dc34 cabd 10ce 8ebd
00000260: adf5 5abc 034c 04bd b71b 72b9 8870 683c
00000270: aa08 083e e277 9b3d 9fd8 83bd 6d41 973d
00000280: d38f 9dbd 0051 a9bd ea82 e2bc 4df4 483d
00000290: 3f13 bb3d bce5 86bd 7d6b 213e 9819 223d
000002a0: 4700 2e3e 53b4 82bd 5a91 27be 5637 23bd
000002b0: 0f69 023e 23cb 293d 50f7 03bc 710a e2bb
000002c0: 78c9 dfbd 9f1b f5bb f038 e93d cc9f 033e
000002d0: 6cbf 2d3c 52f9 b1bd 548b 39bd fdf5 eebc
000002e0: fbe2 10be d7be 3fbd 1f40 22bd f9a0 053e
000002f0: 73ed cd3c adcb f43c 26b5 983c d6f4 4abb
00000300: 6a86 77bd 019a 4dbd 1265 8ebc 6795 c0bd
00000310: cbeb 4abd 4d37 653d a2d7 2bbd e95a a23d
00000320: 8ebc d2bd 5ab5 c63c 53fa 84bb df69 363d
00000330: a1ba d63d 4ff5 a73d b9b1 0bbe 9a80 e63c
00000340: c6f6 923d 8f3f 2ebd e07c 1c3d a418 0cbe
00000350: c73d d13c d5f8 aeb9 2bc7 153d b2be 88bd
00000360: c164 ad3d 8360 833d 7751 bfbd 387b 123d
00000370: f27e 753d 4af1 0cbc e859 933d 0901 a3bb
00000380: 011b 0abd 1ab1 1abd ae5e 363d e4e4 823d
00000390: bc87 453d d2b6 e83c 533e ef3b fa3e 9fbb
000003a0: b533 973d 850c a0bd c73f 6b3a 5e77 123d
000003b0: b413 1ebe 24ce 43bd 153b f8bd 12fe 7e3c
000003c0: 47e5 eabd 9ba6 193d 0214 a63d a62a 423c
000003d0: 625c 23bd 3d32 f43d 43a1 e2bd 7db7 e0bc
000003e0: 87c3 ffbc 2e03 75bc f925 963d 3175 4bbd
000003f0: 6b16 9e3d d685 0cbd c69c ccbd 7547 12be
-0.030421954 -0.033083852 0.029713964 -0.012329535 -0.020092724 -0.09175477 0.018428821 0.010162957
-0.050762773 0.024835134 0.10206916 -0.04747926 -0.04696729 0.04271329 -0.042349014 0.064047106
-0.048420344 -0.06436261 -0.022017738 0.12754528 0.093607396 -0.06485639 0.16575833 -0.042120572
0.013284763 -0.03707921 0.13717335 -0.05987771 0.08179851 -0.04265753 -0.012444512 0.10467451
0.20554337 -0.09518876 0.031940203 -0.039720632 0.07820272 -0.08464811 -0.056934334 -0.14982739
0.016375672 0.07721373 -0.031269904 0.0028184603 -0.01478601 0.11177124 0.03323627 -0.012618071
-0.07196832 0.04232279 -0.022262676 0.032301467 0.122193225 -0.012905302 -0.02541158 -0.03555763
0.09129629 0.015519048 -0.012547593 0.011417135 -0.073747955 0.24490903 -0.124995016 -0.013059442
0.0071952115 -0.08441831 0.055419374 0.020707289 -0.06276063 0.060481902 -0.06957849 -0.031359658
-0.009901508 0.083685175 0.004969412 -0.053136792 0.015868135 -0.048924245 0.0152397305 0.012390171
0.20319489 -0.044165775 -0.07842436 0.019393388 0.09842591 0.12155008 -0.024653407 -0.045993697
0.030276699 -0.07026877 -0.048876066 -0.047512706 -0.069233395 0.027837487 0.13960987 0.068036035
-0.069875345 0.10841724 0.02710191 0.011767983 0.071629025 0.052657265 -0.11632578 -0.052456204
-0.08930538 -0.040990874 -0.028761413 -0.11694444 0.089770585 0.05662802 -0.08117926 -0.179062
0.03631112 -0.048273217 0.13598475 0.04125636 -0.029024985 -0.009718522 0.03303975 -0.115339726
-0.07438478 -0.038941577 0.03878825 -0.044602126 0.039970566 -0.07035804 0.040069643 -0.06542725
-0.053012773 0.010633924 0.04618224 -0.008686185 0.017803306 0.1056876 0.13620742 0.012402597
0.10757872 -0.016402816 0.01836388 -0.07898079 -0.06467139 -0.022089602 -0.045923572 0.07704096
0.05028894 0.0968725 0.055946715 -0.12699708 -0.007349506 0.02645512 -0.098733634 -0.06972897
-0.013364238 -0.032299053 -0.00023089243 0.014186986 0.13284555 0.07591225 -0.064378016 0.07385526
-0.07693448 -0.08267403 -0.027650315 0.04906111 0.0913453 -0.06586787 0.1576366 0.03957519
0.16992293 -0.0638205 -0.16364041 -0.039847694 0.12735389 0.041453492 -0.008054569 -0.0068982174
-0.10927099 -0.0074800993 0.11387813 0.12853926 0.010604721 -0.08690132 -0.04529889 -0.02917003
-0.14149086 -0.04681286 -0.039611932 0.13049687 0.025137639 0.029882276 0.018641066 -0.0030968687
-0.06043092 -0.050195698 -0.017382178 -0.09403496 -0.049541276 0.055960942 -0.04195369 0.07927496
-0.1028987 0.024256397 -0.0040581613 0.04453456 0.104848154 0.08201086 -0.13642015 0.028137494
0.071759745 -0.042541083 0.038205028 -0.13681275 0.025542153 -0.0003337326 0.036566895 -0.06676997
0.08466483 0.064148925 -0.0934171 0.03576204 0.059935518 -0.00860245 0.07194883 -0.0049744886
-0.03371716 -0.037766553 0.044523887 0.06391314 0.04822515 0.028407488 0.007301131 -0.0048598023
0.07382909 -0.07814888 0.0008974042 0.03575837 -0.15437204 -0.047804013 -0.12120644 0.015563505
-0.114695124 0.037512403 0.08109285 0.0118509885 -0.039883025 0.11923645 -0.110659145 -0.027431244
-0.031221164 -0.014954371 0.073314615 -0.04967231 0.0771912 -0.034307323 -0.0999084 -0.14285071

i_classifier.fc.0.bias f4 [2]
00000000: 0194 14be b453 b3bf
-0.14509584 -1.4009919

b_classifier.q.0.weight f4 [128, 512]
00000000: b31e 40b8 bd96 d2b8 c231 1bb9 5bef 8a38
00000010: 0df9 28b9 eb98 cbb8 e938 a3b9 1624 da36
00000020: 7ffd ecb8 8490 3eb8 ff44 25ba 977d a838
00000030: 51e4 7d39 7b09 94b9 e6c6 d2b9 f2e9 8739
00000040: 9036 8738 166c ad37 d79d bb39 5018 2c39
00000050: ff5a a938 6403 f737 99c2 d7b8 bc50 013a
00000060: 516a 74b9 66bf 2739 bc41 13b9 927f b8b9
00000070: fedd 9db8 72a2 0239 4232 3e39 3b1b abb9
00000080: 26b8 f838 8220 afb8 2c7e 7db9 d84f beb7
00000090: 0fa2 3d39 87c0 eeb9 c986 3b39 68ce 3ab9
000000a0: 43b3 0c39 0c39 3f38 5a12 c6b8 f825 0bb8
000000b0: f803 1f38 0319 84b9 7d60 bdb4 7414 e039
000000c0: c31e 6637 bc1a ecb8 cb61 0c3a 31d6 4838
000000d0: af61 1fb8 7622 f5b9 5c07 53b8 9b5e 0db9
000000e0: 4f11 9ab9 7662 d9b8 283c 5bb8 e5a7 4db8
000000f0: 621a 8039 f37b 51b9 75f9 87b9 a54c 24b9
00000100: 95d9 93b9 7f33 9838 5f12 0a39 b430 a239
00000110: 13d7 6a39 928a fdb9 5e74 d2b8 d6d5 6ab8
00000120: 5d9d 8e39 a3fd b4b8 3353 0ab8 1c51 29b9
00000130: eca2 6eb8 dbb1 8438 ba4c 4638 d335 54b9
00000140: 5851 2939 0258 c3b7 30da f338 d5b3 53b8
00000150: 79e5 a5b8 bdc3 16b8 ee7f b337 8717 1139
00000160: 178b 3db9 2008 85b8 48bb 6d39 572a 71b9
00000170: 57cb 0eb9 e7b8 b2b9 de5c 0db9 8d4f 88b9
00000180: f5e7 a5b7 8e7a 1ab9 b107 d6b9 a9fc a339
00000190: fa98 2836 6dbb 22b9 6b25 8a38 e429 dcb9
000001a0: 4fe3 b237 7644 59b9 9461 10b9 a904 d039
000001b0: 9837 b435 66e6 0639 23e9 c238 1b8a 5938
000001c0: 952a c436 7344 2539 24c7 0f38 f97d 71b8
000001d0: 914f 9139 aa34 4839 cebd 5c38 e9ad fd38
000001e0: ac79 eab8 9c9c d4b9 92cc 5637 0818 b0b8
000001f0: 873a c638 c7cb 6e39 f95e d639 8d94 7639
00000200: 6338 8e39 5a04 a938 8b07 7b39 935a 9d38
00000210: 1aed 84b6 10e7 9239 e189 b6b9 1bd8 6e37
00000220: 0295 35b9 d262 9739 5287 4239 ca69 0039
00000230: da7f 37b8 7ff0 5eb9 46cf 5f39 248f 7ab9
00000240: d6bd 3638 3377 51b9 adac 65b8 105a e9b8
00000250: 4d41 6d38 7f40 0739 4199 3fb9 e157 da39
00000260: 3846 88b9 6960 8ab6 6c79 96b8 fc90 66b9
00000270: 40eb 87b9 35fa 4939 e1d4 04b9 23c9 5338
00000280: c4fa ad37 2428 b838 a971 e439 7585 59b9
00000290: 9cc0 e6b8 de1a 9b38 6219 aa38 f0ad 81b6
000002a0: 34f8 01b8 751a ccb9 0436 8239 ae18 0bb9
000002b0: d95f fbb9 bd61 b637 5431 0ab9 e914 2eb9
000002c0: 4851 22b8 bdaa 60b9 3d43 1539 410c c2b7
000002d0: 4086 3539 f784 3239 bf99 2c39 a254 8c37
000002e0: e5c1 b0b8 8e9f 2239 7b29 90b9 92bb 0db9
000002f0: c17d 5739 7ccd 7eb9 8417 cfb9 4eff e838
00000300: a214 b6b9 fb4c 8b38 1e4d 6637 ecab 3639
00000310: ee03 9b39 fddd 5638 72b9 83b9 0e4c 3d39
00000320: 64c9 8039 1041 8a39 74e9 2cb9 ca38 f438
00000330: 93d3 0439 55c3 7638 cf6c 96b9 480f 6fb7
00000340: 9eac 54b9 7043 8139 7db8 86b6 b891 8839
00000350: 2617 0139 5e21 edb9 5218 1bb9 df61 f9b8
00000360: 4ccc b838 d886 c9b9 c6f2 0839 101b 6fb9
00000370: fbfe cfb8 6d7f 1639 b3be 31b9 d548 0639
00000380: 5450 1139 fa6b 93b9 cef2 40b9 b1ac 0339
00000390: a6da 44b9 a479 cdb7 6e34 ccb9 a768 3737
000003a0: 9709 2fb9 6c2c ceb8 6e2d b8b8 baf8 d438
000003b0: f011 8439 9807 ac39 2fbc 40b9 3972 9e37
000003c0: 3f89 94b9 2394 1538 b43f 3cba 1335 3bb9
000003d0: 35ce 2539 f2c3 a739 8d00 2438 41c4 dbb8
000003e0: e172 1739 cbe8 87b7 f048 02ba 167f 8d38
000003f0: fc6a 1e39 763a 6139 ec48 24b9 43eb 5c39
-4.5804958e-05 -0.000100416575 -0.00014800488 6.624936e-05 -0.00016114507 -9.7082775e-05 -0.00031132184 6.5011072e-06
-0.00011300574 -4.543412e-05 -0.00063045317 8.034257e-05 0.00024213015 -0.00028235823 -0.00040202512 0.0002592351
6.447465e-05 2.0673539e-05 0.0003578502 0.00016412255 8.075497e-05 2.9446273e-05 -0.000102882455 0.000493299
-0.00023309259 0.00015997663 -0.000140435 -0.00035190262 -7.527693e-05 0.00012458282 0.00018138535 -0.0003263595
0.00011859862 -8.350705e-05 -0.00024174963 -2.2686945e-05 0.00018084816 -0.00045538342 0.00017883921 -0.00017815235
0.0001341822 4.5591078e-05 -9.444794e-05 -3.3175544e-05 3.791225e-05 -0.00025195637 -3.5274198e-07 0.00042739848
1.3716231e-05 -0.000112583366 0.00053551485 4.7883197e-05 -3.799953e-05 -0.00046755717 -5.0313174e-05 -0.00013482051
-0.00029386065 -0.00010365706 -5.2269694e-05 -4.9032173e-05 0.0002443372 -0.00019977968 -0.00025935067 -0.00015668811
-0.00028200136 7.257517e-05 0.0001316755 0.00030935335 0.000223961 -0.00048359163 -0.000100352554 -5.5989098e-05
0.00027201595 -8.6303124e-05 -3.297925e-05 -0.00016147312 -5.6895355e-05 6.327379e-05 4.7278336e-05 -0.00020237947
0.00016147399 -2.3286793e-05 0.000116277835 -5.0473802e-05 -7.910556e-05 -3.5945082e-05 2.1398035e-05 0.00013837042
-0.0001807626 -6.3434476e-05 0.00022671849 -0.00022999324 -0.00013617925 -0.0003408857 -0.00013481404 -0.0002599921
-1.9777546e-05 -0.0001473224 -0.0004082299 0.0003127803 2.5122995e-06 -0.00015519345 6.5873224e-05 -0.0004199288
2.1325102e-05 -0.00020720236 -0.00013769261 0.00039676324 1.3427225e-06 0.00012865066 9.294066e-05 5.1865452e-05
5.8462124e-06 0.00015761126 3.427932e-05 -5.75762e-05 0.00027715837 0.00019093105 5.2628857e-05 0.000120963734
-0.00011180653 -0.00040552474 1.2803024e-05 -8.39681e-05 9.452277e-05 0.00022773362 0.0004088802 0.00023515728
0.00027126362 8.0593585e-05 0.00023940035 7.503214e-05 -3.961509e-06 0.00028019445 -0.00034816473 1.4236221e-05
-0.00017317015 0.0002887459 0.00018551692 0.00012246441 -4.374967e-05 -0.00021261162 0.00021344153 -0.00023895182
4.356898e-05 -0.00019976198 -5.475867e-05 -0.00011127081 5.656602e-05 0.0001289863 -0.00018272271 0.00041645675
-0.00025992258 -4.123944e-06 -7.175174e-05 -0.0002198852 -0.0002592448 0.00019262063 -0.00012667805 5.0493643e-05
2.0739979e-05 8.7812805e-05 0.00043572232 -0.0002074445 -0.00011003131 7.39598e-05 8.1109596e-05 -3.8647486e-06
-3.0987154e-05 -0.00038929624 0.00024835777 -0.00013265267 -0.00047945863 2.1741604e-05 -0.00013179082 -0.00016601723
-3.869951e-05 -0.0002142591 0.00014234796 -2.3132308e-05 0.00017311517 0.00017024936 0.00016460473 1.672871e-05
-8.42845e-05 0.00015508963 -0.00027496726 -0.00013516683 0.00020550845 -0.00024299877 -0.00039499637 0.00011110176
-0.00034729118 6.642375e-05 1.37270235e-05 0.00017420918 0.00029566832 5.122832e-05 -0.00025124435 0.00018052777
0.0002456411 0.00026369886 -0.00016490166 0.000116454044 0.00012667319 5.8832888e-05 -0.00028691298 -1.4249068e-05
-0.000202822 0.00024655042 -4.0149885e-06 0.0002604851 0.00012311022 -0.00045229023 -0.00014791012 -0.00011891475
8.811857e-05 -0.00038438174 0.00013060411 -0.00022802898 -9.918023e-05 0.00014352585 -0.00016951076 0.00012806368
0.00013858202 -0.00028118474 -0.00018400999 0.00012557466 -0.0001877347 -2.4494548e-05 -0.00038948975 1.0932016e-05
-0.00016692873 -9.83112e-05 -8.782266e-05 0.00010155277 0.00025190366 0.00032812054 -0.0001838065 1.8888257e-05
-0.00028331016 3.566233e-05 -0.00071811234 -0.00017853481 0.00015812444 0.00031998713 3.910116e-05 -0.00010479289
0.00014443278 -1.6201657e-05 -0.0004969975 6.7470755e-05 0.00015107909 0.0002147945 -0.00015667424 0.00021068477

b_classifier.q.0.bias f4 [128]
00000000: f6f7 8bb7 74a9 043d d84d 32b7 713a 88b8
00000010: 98dc 4bb6 d4d1 e3b8 9917 d33c 97fc be3c
00000020: 98d9 043a 816f dd3c f94c c23c 8d03 393c
00000030: a8ea 07b8 c8f5 ceb7 c6ab 043d 4ecc e33c
00000040: a9a8 f53b dbcb 4b3c 33bd 92b7 4b77 cf3c
00000050: 4adc f3b8 2812 e03c f477 5634 845d 6f3a
00000060: fd37 963c fff5 b23c 73ea af3a c875 ea3c
00000070: 70eb ac3c e055 063d 7038 b3b6 a2e3 493c
00000080: 4e7c f439 a8cd 6939 e534 f63c 770b 083d
00000090: 1269 e93c d797 17b8 b57c ee3c 1bf5 f43c
000000a0: d76f cc38 cff2 293d 12b5 af3c 979d 8135
000000b0: d1c8 1d3d 679c 4e3a 9d85 f13c 05df b13c
000000c0: d032 db3c 7dd8 0c3b 22e0 cf3c 33a2 173d
000000d0: e722 b33c 24e7 023d 93e5 c53c 947d a43c
000000e0: ca6f 743a 2621 d83c 7a00 173b 63f9 bd3b
000000f0: a692 f03c cd8e f83c 31ff 82b7 2f21 c33a
00000100: 69e8 533a 58c0 ec3c 99c6 8ab8 002c a5b8
00000110: 0afc 303c 00e8 acb8 72cd de3c 6391 963a
00000120: 2d6c 883c 1d81 e23a d7d3 b63a 804d 98b9
00000130: 4261 cd3c c2ce e839 6713 c33c 53fe a33c
00000140: 63c2 bc37 3b34 70b9 0e2a 323c faa9 6c38
00000150: 91d9 d03c dd00 d33c ddc2 c83c e9f8 423a
00000160: 200a c439 7e5a b03c 9684 083b 2c5e bb39
00000170: ee07 8cb6 9578 0cb8 9b97 b03c 8b55 893c
00000180: 12ac dd3c 3134 ca3c 141a f138 8d25 fe3a
00000190: 6070 ad39 6c15 e93c 75c9 85b7 b844 123c
000001a0: 44c4 b536 8ac3 edb6 bc61 6fb6 e36d 1c3a
000001b0: 5a2f cf3c 81ff 133c c399 e93c 28d5 77b9
000001c0: 2290 ad39 4d39 903b 5c0a 0e3b 7b67 ac38
000001d0: 3d26 9b3c b178 093b bc43 0a3b c68c bd3c
000001e0: a2be b73c fa27 fab5 07b2 a93a cdfc 973b
000001f0: ffba 563c 01af 18ba f8f9 073c 8bec 11b9
-1.6685557e-05 0.032388166 -1.0627751e-05 -6.495871e-05 -3.037776e-06 -0.00010863287 0.025768088 0.023313804
0.00050678244 0.027030708 0.023718344 0.0112923505 -3.240505e-05 -2.4671564e-05 0.03239038 0.027807381
0.0074969125 0.01243874 -1.7492659e-05 0.025325438 -0.00011628175 0.027352408 1.9973942e-07 0.00091310614
0.018337244 0.021845816 0.0013421312 0.028620616 0.02110836 0.03279674 -5.341186e-06 0.012322338
0.0004663192 0.00022297224 0.030054519 0.03321406 0.028492484 -3.6142617e-05 0.0291122 0.029902032
9.74831e-05 0.041491326 0.021448646 9.657114e-07 0.03852159 0.0007881582 0.029482657 0.02171279
0.026757628 0.0021491342 0.02537543 0.03701992 0.021867229 0.031958714 0.024157321 0.020079412
0.0009324519 0.026382994 0.0023041056 0.0057975515 0.029366802 0.03034153 -1.561604e-05 0.0014887209
0.0008083643 0.02890031 -6.6173445e-05 -7.876009e-05 0.010802278 -8.2448125e-05 0.027197573 0.001148742
0.016653145 0.001728091 0.0013948631 -0.0002904944 0.02507079 0.00044404535 0.023812963 0.020018732
2.2501865e-05 -0.00022907641 0.010874284 5.6425088e-05 0.025494369 0.025757248 0.02450698 0.0007437603
0.00037391577 0.021527525 0.002083098 0.00035737583 -4.1732483e-06 -3.3490902e-05 0.021556666 0.016764423
0.027059589 0.02468309 0.00011496633 0.0019389853 0.00033080857 0.028452598 -1.5948646e-05 0.008927517
5.4170687e-06 -7.085914e-06 -3.5670664e-06 0.0005967302 0.025291134 0.009033085 0.028515702 -0.00023635163
0.0003310452 0.004401362 0.0021673655 8.220874e-05 0.018939132 0.0020976479 0.0021097502 0.023138415
0.022429768 -1.8638086e-06 0.0012946733 0.0046382905 0.013106107 -0.00058244175 0.008299343 -0.00013916397

b_classifier.q.2.weight f4 [128, 128]
00000000: cfd9 d6b8 d6cd c2bc 378d 8fb8 b629 07b6
00000010: b863 c032 ff87 1938 7e97 97bc 0559 87bc
00000020: fc30 3fb9 2d76 9fbc 0836 8abc b310 eebb
00000030: 11a8 bbb7 30f4 b2ae 78d2 c2bc bc3f a4bc
00000040: 7843 93bb 60ff 04bc 3e52 6cb7 caa8 94bc
00000050: 52d3 9637 7a60 a1bc 0706 7431 43c0 f8b9
00000060: b834 4fbc 8806 7cbc 6e59 f138 4681 a9bc
00000070: e48c 72bc 508f c5bc 32f3 98b9 d590 03bc
00000080: 9a95 f0b5 5e3e c8b9 35ec b2bc 1627 c8bc
00000090: 85af a8bc 2738 49b6 eeb4 acbc 9fec b1bc
000000a0: 3ed6 59b9 e472 ffbc 67fe 76bc 615d 3437
000000b0: de65 ebbc ff94 40b9 0340 afbc 2f69 7abc
000000c0: f3b2 9dbc bc38 b2ba 30ff 94bc d96c e1bc
000000d0: f54d 7cbc 7700 c0bc fbfb 8cbc 3a54 66bc
000000e0: 82c3 33b9 aa47 9bbc 2c15 beba dbc3 5abb
000000f0: 0b74 aebc b8cf b4bc e8ac e3b7 6470 6dba
00000100: b463 3fb9 d555 abbc 8034 feb9 fe6d dc36
00000110: dc05 e2bb 770a f1b7 c485 a0bc a1dc 2c37
00000120: 807a 39bc 9407 6fba a5cc 6cba 569b 95ba
00000130: 13eb 92bc de18 33ba 82d3 8abc a99c 65bc
00000140: 7c99 0a38 7398 bd37 c9d2 e3bb 8fd7 9534
00000150: 4ccc 95bc f67f 97bc c94b 8fbc a9cf 983a
00000160: a8c9 223a 150a 78bc ac50 99ba 7ecd 68b9
00000170: 7696 c033 6cb9 0fb7 6e6a 78bc 73e5 3abc
00000180: 14a2 9fbc 696b 90bc 7020 0238 3392 8cba
00000190: 12af 20b9 da6c a8bc 76cd c734 4871 b2bb
000001a0: 8465 abb9 cd95 09b5 0fa1 2834 9016 a83a
000001b0: bb5d 94bc c5e7 b4bb c8d7 a8bc 30ef 7f38
000001c0: a1e5 82b9 d1c1 09bb fc48 88ba 2d49 1bb8
000001d0: e6d9 56bc 7889 99ba 6a9d afba 1f53 86bc
000001e0: 1ace 81bc 0173 50b2 1649 fdb7 f415 13bb
000001f0: ea18 0dbc e99f 9c38 e5e6 a4bb 349d 1ab9
00000200: e4d9 d6b8 d5cd c2bc 3d8d 8fb8 b229 07b6
00000210: bc63 c032 0188 1938 7c97 97bc 0559 87bc
00000220: f830 3fb9 2d76 9fbc 0736 8abc b010 eebb
00000230: 12a8 bbb7 37f4 b2ae 76d2 c2bc bc3f a4bc
00000240: 7743 93bb 60ff 04bc 4152 6cb7 c9a8 94bc
00000250: 4ad3 9637 7860 a1bc 0906 7431 49c0 f8b9
00000260: bb34 4fbc 8a06 7cbc 6e59 f138 4381 a9bc
00000270: e68c 72bc 508f c5bc 33f3 98b9 d690 03bc
00000280: 9a96 f0b5 603e c8b9 37ec b2bc 1827 c8bc
00000290: 83af a8bc 2938 49b6 eeb4 acbc a0ec b1bc
000002a0: 40d6 59b9 e372 ffbc 66fe 76bc 5f5d 3437
000002b0: de65 ebbc fe94 40b9 0240 afbc 3269 7abc
000002c0: f4b2 9dbc bd38 b2ba 31ff 94bc d86c e1bc
000002d0: f54d 7cbc 7800 c0bc f8fb 8cbc 3b54 66bc
000002e0: 79c3 33b9 ac47 9bbc 2b15 beba dbc3 5abb
000002f0: 0e74 aebc b7cf b4bc e6ac e3b7 6a70 6dba
00000300: b363 3fb9 d955 abbc 7f34 feb9 f56d dc36
00000310: db05 e2bb 720a f1b7 c185 a0bc 64dd 2c37
00000320: 817a 39bc 9607 6fba a4cc 6cba 569b 95ba
00000330: 13eb 92bc dd18 33ba 82d3 8abc ab9c 65bc
00000340: 7c99 0a38 7398 bd37 cbd2 e3bb fed6 9534
00000350: 4ccc 95bc f37f 97bc cc4b 8fbc a6cf 983a
00000360: a5c9 223a 150a 78bc ac50 99ba 7dcd 68b9
00000370: 7596 c033 6cb9 0fb7 6c6a 78bc 71e5 3abc
00000380: 18a2 9fbc 6c6b 90bc 7120 0238 3192 8cba
00000390: 14af 20b9 db6c a8bc 72cd c734 4771 b2bb
000003a0: 8965 abb9 0296 09b5 13a1 2834 8e16 a83a
000003b0: c05d 94bc c7e7 b4bb cbd7 a8bc 34ef 7f38
000003c0: 9fe5 82b9 d1c1 09bb fe48 88ba 2f49 1bb8
000003d0: e6d9 56bc 7889 99ba 6a9d afba 1e53 86bc
000003e0: 1dce 81bc 0173 50b2 ec48 fdb7 f315 13bb
000003f0: ec18 0dbc ed9f 9c38 e3e6 a4bb 359d 1ab9
-0.00010244885 -0.02377979 -6.845075e-05 -2.0140847e-06 2.2397089e-08 3.66047e-05 -0.018504854 -0.01652194
-0.00018233428 -0.01946553 -0.016871467 -0.0072651743 -2.23704e-05 -8.137879e-11 -0.023782 -0.020049922
-0.004494127 -0.008117527 -1.4085845e-05 -0.018146891 1.7979797e-05 -0.019699324 3.55101e-09 -0.00047445492
-0.0126468465 -0.015382417 0.00011508433 -0.020691525 -0.014804099 -0.024116188 -0.00029172894 -0.008030136
-1.7924933e-06 -0.0003819344 -0.021841148 -0.0244327 -0.020591507 -2.998402e-06 -0.021082368 -0.021719275
-0.00020774544 -0.031182714 -0.015075303 1.07505775e-05 -0.028735097 -0.00018366052 -0.021392828 -0.015283867
-0.019250369 -0.001359723 -0.01818809 -0.027517723 -0.015399446 -0.023437722 -0.017209997 -0.014058167
-0.00017143603 -0.01895507 -0.0014502159 -0.00333809 -0.021295568 -0.022071704 -2.7141024e-05 -0.000905758
-0.00018252322 -0.020914951 -0.0004848577 6.5693157e-06 -0.006897671 -2.8734312e-05 -0.019595034 1.0303368e-05
-0.01132071 -0.00091182557 -0.000903318 -0.0011414092 -0.017934358 -0.00068320136 -0.016946558 -0.0140144015
3.3044707e-05 2.2601545e-05 -0.006952618 2.7910252e-07 -0.018285893 -0.018493634 -0.017492192 0.0011658567
0.00062098587 -0.0151391225 -0.0011697016 -0.00022201796 8.9680654e-08 -8.566636e-06 -0.015162094 -0.011407244
-0.019486465 -0.017629342 3.1024625e-05 -0.0010724723 -0.00015324008 -0.020559717 3.721613e-07 -0.005445633
-0.00032691297 -5.1254466e-07 1.5704812e-07 0.0012824107 -0.0181111 -0.005520793 -0.020610705 6.10195e-05
-0.0002496662 -0.0021020065 -0.0010397728 -3.702303e-05 -0.0131134745 -0.0011713943 -0.0013398353 -0.016397057
-0.015845347 -1.2133342e-08 -3.0193984e-05 -0.0022443505 -0.008611897 7.468445e-05 -0.0050324076 -0.00014745147
-0.000102449005 -0.023779789 -6.845079e-05 -2.0140837e-06 2.2397096e-08 3.6604706e-05 -0.01850485 -0.01652194
-0.00018233422 -0.01946553 -0.016871465 -0.007265173 -2.2370401e-05 -8.137884e-11 -0.023781996 -0.020049922
-0.0044941264 -0.008117527 -1.4085847e-05 -0.01814689 1.7979783e-05 -0.01969932 3.5510104e-09 -0.0004744551
-0.012646849 -0.015382418 0.00011508433 -0.02069152 -0.014804101 -0.024116188 -0.00029172897 -0.008030137
-1.7925224e-06 -0.00038193446 -0.021841152 -0.024432704 -0.020591503 -2.9984024e-06 -0.021082368 -0.021719277
-0.00020774547 -0.031182712 -0.015075302 1.0750576e-05 -0.028735097 -0.00018366051 -0.021392826 -0.01528387
-0.01925037 -0.0013597232 -0.018188091 -0.027517721 -0.015399446 -0.023437724 -0.017209992 -0.014058168
-0.0001714359 -0.018955074 -0.0014502158 -0.00333809 -0.021295574 -0.022071702 -2.714102e-05 -0.00090575835
-0.0001825232 -0.020914959 -0.00048485768 6.5693116e-06 -0.0068976707 -2.8734303e-05 -0.019595029 1.0303545e-05
-0.011320711 -0.0009118257 -0.00090331794 -0.0011414092 -0.017934358 -0.0006832013 -0.016946558 -0.014014403
3.3044707e-05 2.2601545e-05 -0.0069526187 2.790984e-07 -0.018285893 -0.018493628 -0.017492197 0.0011658564
0.0006209857 -0.0151391225 -0.0011697016 -0.00022201794 8.968065e-08 -8.566636e-06 -0.015162092 -0.011407242
-0.019486472 -0.017629348 3.102463e-05 -0.0010724721 -0.00015324011 -0.020559719 3.721612e-07 -0.0054456326
-0.0003269131 -5.125477e-07 1.5704818e-07 0.0012824105 -0.01811111 -0.005520794 -0.02061071 6.1019513e-05
-0.00024966613 -0.0021020065 -0.001039773 -3.7023037e-05 -0.0131134745 -0.0011713943 -0.0013398353 -0.016397055
-0.015845353 -1.2133342e-08 -3.0193907e-05 -0.0022443503 -0.008611899 7.468448e-05 -0.0050324067 -0.00014745149

b_classifier.q.2.bias f4 [128]
00000000: 6528 bdba 6028 bdba 6528 bd3a 6b28 bd3a
00000010: 6028 bdba 6828 bdba 6428 bdba 6528 bd3a
00000020: 6228 bdba 6728 bd3a 5222 1bbc 6728 bd3a
00000030: 6c28 bd3a 6628 bd3a 6a28 bdba 6328 bd3a
00000040: 6c28 bd3a 6128 bdba 7028 bdba 5d28 bd3a
00000050: 6428 1bbc 6728 bdba 6a28 bd3a 6028 bdba
00000060: 6428 bdba 6828 bdba 6c28 bd3a 6528 bdba
00000070: 6928 bd3a 6228 bdba 6a28 bd3a 6328 bd3a
00000080: 6e28 bd3a 5a28 bdba 6a28 bd3a 6528 bdba
00000090: 6128 bd3a 5c28 bdba 5d28 bdba 6028 bd3a
000000a0: 6b28 bd3a 6128 bdba 6d28 bd3a 6828 bdba
000000b0: 6328 bd3a 6028 bd3a 6d28 bd3a 6a28 bdba
000000c0: 6628 bdba 6428 bdba 6328 bd3a 7028 bdba
000000d0: 6f28 bdba 6d28 bd3a 6328 bdba 6f28 bd3a
000000e0: 6528 bdba 6e28 bdba 6228 bdba 6b28 bdba
000000f0: 6728 bd3a 6228 bd3a 6828 bd3a 6728 bd3a
00000100: 5628 bd3a 6728 bd3a 6a28 bd3a 6528 bd3a
00000110: 5d28 bdba 6628 bdba 6b28 bdba 6428 bd3a
00000120: 6828 bdba 6c28 bdba 5b28 bd3a 6128 bdba
00000130: 5f28 bd3a 6b28 bdba 6128 bdba 6e28 bd3a
00000140: 6228 bdba 6d28 bd3a 6328 bd3a 5f28 bdba
00000150: 6a28 bd3a 6328 bdba 9121 1b3c 6928 bdba
00000160: 6828 bd3a 6928 bd3a 5828 bd3a 6728 bd3a
00000170: 6428 bd3a 541f 1bbc 7228 bdba 7128 bdba
00000180: 6b28 bd3a 6228 bd3a 6828 bd3a 6e28 bdba
00000190: 6028 bd3a 6028 bd3a 5a28 bd3a 6c28 bd3a
000001a0: 6628 bd3a 6228 bdba 6728 bd3a 491f 1b3c
000001b0: 5e28 bd3a 6b28 bdba 6528 bd3a 6828 bdba
000001c0: 6928 bdba 6828 bd3a 6528 bdba 6928 bd3a
000001d0: 5e28 bd3a 6328 bd3a 6828 bdba eb21 1b3c
000001e0: 6928 bd3a 6628 bdba 6728 bd3a 5728 bd3a
000001f0: 6528 bdba 7528 bdba 6928 bd3a 6d28 bdba
-0.0014431594 -0.0014431588 0.0014431594 0.0014431601 -0.0014431588 -0.0014431598 -0.0014431593 0.0014431594
-0.0014431591 0.0014431597 -0.009468632 0.0014431597 0.0014431602 0.0014431595 -0.00144316 0.0014431592
0.0014431602 -0.001443159 -0.0014431607 0.0014431585 -0.009470079 -0.0014431597 0.00144316 -0.0014431588
-0.0014431593 -0.0014431598 0.0014431602 -0.0014431594 0.0014431599 -0.0014431591 0.00144316 0.0014431592
0.0014431605 -0.0014431581 0.00144316 -0.0014431594 0.001443159 -0.0014431584 -0.0014431585 0.0014431588
0.0014431601 -0.001443159 0.0014431603 -0.0014431598 0.0014431592 0.0014431588 0.0014431603 -0.00144316
-0.0014431595 -0.0014431593 0.0014431592 -0.0014431607 -0.0014431606 0.0014431603 -0.0014431592 0.0014431606
-0.0014431594 -0.0014431605 -0.0014431591 -0.0014431601 0.0014431597 0.0014431591 0.0014431598 0.0014431597
0.0014431577 0.0014431597 0.00144316 0.0014431594 -0.0014431585 -0.0014431595 -0.0014431601 0.0014431593
-0.0014431598 -0.0014431602 0.0014431583 -0.001443159 0.0014431587 -0.0014431601 -0.001443159 0.0014431605
-0.0014431591 0.0014431603 0.0014431592 -0.0014431587 0.00144316 -0.0014431592 0.009468452 -0.0014431599
0.0014431598 0.0014431599 0.0014431579 0.0014431597 0.0014431593 -0.009467918 -0.0014431609 -0.0014431608
0.0014431601 0.0014431591 0.0014431598 -0.0014431605 0.0014431588 0.0014431588 0.0014431581 0.0014431602
0.0014431595 -0.0014431591 0.0014431597 0.009467908 0.0014431586 -0.0014431601 0.0014431594 -0.0014431598
-0.0014431599 0.0014431598 -0.0014431594 0.0014431599 0.0014431586 0.0014431592 -0.0014431598 0.009468536
0.0014431599 -0.0014431595 0.0014431597 0.0014431578 -0.0014431594 -0.0014431613 0.0014431599 -0.0014431603

b_classifier.fcc.weight f4 [2, 2, 512]
00000000: 5c5b e3bb 5527 9cbd 4daf 103d 261f d03a
00000010: dbf6 48bd 56e7 afbd 2788 993c c27d 293c
00000020: 4179 74bc d9c1 223d 3342 cd3c ccff 83bc
00000030: bee1 1abb 7767 a03d e42b 05bd 447c 2ebc
00000040: e03a 41bc dffc 65bd 6542 5abc 73a3 7f3d
00000050: 5bb6 363d b95a e4bc 03c3 b93d a7b1 7e3d
00000060: 0abd 7e3c e404 7cbd 1bec 963d c108 e5bc
00000070: 6d8e 703c 0db5 d8bb b264 8cbc 8f91 d23c
00000080: 5c3c 033e b2c0 54bd 2222 ba3b 2f65 8cbc
00000090: 0f47 8b3d 1c2c 85bd 7a2e 1dbd 2248 01be
000000a0: 0f6c aebc dc72 143e 7ef2 d93c fa0e 0abb
000000b0: acdb 8cbc 407c 553d 364a b23c dff0 b53d
000000c0: f3fa 783c 0951 b03d aeb0 673c d83b 00bd
000000d0: 03d8 703d 20f7 37bc 6338 20bd c87a 673c
000000e0: 31e5 40bc 4247 bebb 3c12 0ebd 44c5 283d
000000f0: 3036 0cbd 7274 e23d 7deb 45bd 384c c5bc
00000100: a590 21bc 09c8 b2bc 3fc0 993c 80db a23d
00000110: d7ab 22bd 41f9 0dbb 20c3 893c df03 883c
00000120: 80e6 d1bc b441 5a3d 9bdb 84bc b9a7 003c
00000130: 92b8 96bd b362 db3c 5faa aa3d 7595 9ebc
00000140: ceb9 e83d 5ad7 43bd c539 29bd 1c16 76bb
00000150: aba8 363d 92d8 b93c f4be 953a 8639 bebc
00000160: 1a61 2d3d 5769 633d c3f8 b83a fea6 b5bd
00000170: a43d 96bd 3ede c5bc 3fb5 e53d f6bb ae3d
00000180: 9c17 3cbd f5e6 713d 58bb c03d cdda 823d
00000190: 0cee ec3b 3c49 91bc ff1d 18be 4e47 3dbd
000001a0: 1704 9fbd 8188 443c 4990 debd 22c2 d6bd
000001b0: 76ea d1bb e770 94bc 8154 1bbd c45b 0bbd
000001c0: 6772 203d 01f5 7ebd 423b cf3c b178 a43d
000001d0: ab5c 46bd 62b1 ffbc 523c 8e3c c35d 2fbd
000001e0: 1ed8 1c3b 52cb c0bc e48a d23d 71fc 1e3c
000001f0: 5876 563d 1971 bfbd bf1f a93d b0c6 85bd
00000200: 9036 5d3d 8916 ea3c af72 b73c 5b3f 133c
00000210: 33b8 54bc c081 f33c c43e d03d cead 433c
00000220: 2ca6 d83c 077f c23c 1d2d 0a3c 9493 90bc
00000230: 89f8 c7bc a072 1abd fb6b 6cbd 5e0b 293d
00000240: b272 b7bc 51d0 3c3d 1402 843c a0d3 1bbd
00000250: 4ad9 13bd cf12 b5bc 593a ecbd c808 c93c
00000260: e6be 84bd e89b 283c f6e2 333d 66fb 8c3c
00000270: 7ea6 363d 96dc 173d 766c 61bc 5a5c 4f3d
00000280: 4176 3abd 942f 9abd 0c1c 35bd 7e90 69bd
00000290: 29c3 073e 6490 7c3b 28b1 1b3e bddf 633c
000002a0: 182b 5c3d f594 c7bd bb05 39bd 1a19 aabb
000002b0: 7fa6 773d c658 893b 9b73 04bd c4c6 57bd
000002c0: 1be8 b2bd 0478 973c e7e2 863d 4de5 ba3d
000002d0: 44bc 7e3d d776 d4bd 02ec 0dbd da8a 50bc
000002e0: 1173 a8bd 8345 b9bb 34e5 01bd d4cd e83d
000002f0: 7bb7 dcba b9ed 573d 9bb1 19bd e225 0dbc
00000300: 5f37 a2bd 36b2 2bbd 7df4 8c3c 28ef 15be
00000310: 92d9 9e3c 1f92 ac3d 8f40 ddbc d49c 583d
00000320: 638d ebbb 41df 69bc 9a0b 04bc 5530 02bc
00000330: c59e 193d 4164 4e3d c38a ecbd 53c4 983d
00000340: 1631 143d 9a35 00bd 4a39 d9bc 55c9 01be
00000350: 8cae 06bd cf3a 81bd 9233 d43d b007 5dbd
00000360: d40e 633d 4e67 8f3b 9e47 87bc 32fb ddbb
00000370: 5df8 083e 62b7 9fbb d40f ac3d 4994 8d3d
00000380: 0744 23bd 037d 84bd 1bc8 a4bc c865 313d
00000390: a6e6 823d 0970 0c3d 7c10 133a 7486 50bd
000003a0: 19b4 583c 8fd4 e3bc e48d ddbd 6bc3 4f3d
000003b0: 2d89 c6bd ff8f 333d 4906 09be b711 793d
000003c0: ed3f d3bc f7b7 833c eedb aa3c 18dc 073b
000003d0: 6aa8 54bd 65a5 f13d cf2b 6d3b 6fd6 6d3d
000003e0: ad88 00bd b398 83bd 8279 0d3d 4a4e dfbc
000003f0: 98e7 e73c 8b0f 9eba 57b5 e4bd 1a2a f7bd
-0.006938381 -0.076246895 0.03532343 0.0015878424 -0.049063545 -0.08589046 0.01874168 0.010344924
-0.014921487 0.03973565 0.02505598 -0.016113184 -0.0023633088 0.07832234 -0.03251256 -0.010649744
-0.011793822 -0.05614936 -0.013321494 0.062411737 0.0446075 -0.027875291 0.09070399 0.06218114
0.015548 -0.0615281 0.07369252 -0.027958276 0.014682394 -0.00661338 -0.017137859 0.025704173
0.12815994 -0.05194158 0.0056803385 -0.017138092 0.06800663 -0.06502554 -0.0383744 -0.12625173
-0.02129176 0.1449694 0.026604887 -0.0021066056 -0.017194591 0.052120447 0.021763902 0.08883833
0.01519655 0.08609206 0.014141245 -0.03130707 0.058799755 -0.011228353 -0.039116275 0.014128394
-0.0117733935 -0.0058068344 -0.03468536 0.041203752 -0.034231365 0.110573664 -0.048320282 -0.024084195
-0.009861146 -0.0218239 0.018768428 0.079520226 -0.03971466 -0.002166346 0.016816676 0.016603408
-0.025622606 0.053285316 -0.016217997 0.007852488 -0.07359423 0.026780462 0.08333277 -0.019358376
0.113635644 -0.047812797 -0.04131486 -0.00375498 0.044594448 0.022686277 0.0011424706 -0.023220789
0.04232893 0.05552038 0.0014112223 -0.08869742 -0.07335976 -0.024153825 0.112162106 0.085319445
-0.045920953 0.05905815 0.09410733 0.06389389 0.007230526 -0.017735116 -0.14855193 -0.04621058
-0.07764452 0.011995436 -0.10867364 -0.10486247 -0.0064061237 -0.018120242 -0.037922386 -0.03402306
0.039171603 -0.062245373 0.025296811 0.080308326 -0.04842822 -0.031212512 0.017362747 -0.042814028
0.0023932527 -0.02353445 0.102803975 0.009703741 0.052358955 -0.093477435 0.08258008 -0.06532037
0.054007113 0.028575199 0.022393553 0.008987273 -0.01298337 0.029724956 0.101682216 0.011943294
0.026446424 0.023742212 0.008433607 -0.017648496 -0.024410503 -0.03770697 -0.057720166 0.041270606
-0.022393558 0.046097104 0.016114272 -0.03804362 -0.036095895 -0.022103695 -0.115345664 0.02454032
-0.064817235 0.010291077 0.04391762 0.01720972 0.044592373 0.0370756 -0.013758769 0.050625183
-0.045522932 -0.07528606 -0.0442162 -0.057022564 0.13258041 0.0038538212 0.15204298 0.013908324
0.053752035 -0.09745208 -0.04517148 -0.0051909806 0.060461517 0.004191491 -0.032336812 -0.052679792
-0.08735677 0.018489845 0.06586247 0.09125767 0.062191263 -0.103742294 -0.034648903 -0.012728417
-0.08225072 -0.0056540384 -0.031712726 0.113673836 -0.0016839349 0.052716944 -0.037522893 -0.008614989
-0.079207174 -0.041918002 0.017206425 -0.14642012 0.019390855 0.08426308 -0.027008323 0.052883938
-0.0071884855 -0.014274419 -0.008059407 -0.007946094 0.03750493 0.05038858 -0.11549904 0.07459321
0.036179624 -0.03130112 -0.026516575 -0.12674458 -0.032881305 -0.06310045 0.10361399 -0.05396241
0.055434063 0.0043763286 -0.016513642 -0.0067743296 0.13375993 -0.004874156 0.084014565 0.06913049
-0.039859798 -0.064691566 -0.020114949 0.043309957 0.06391649 0.034286533 0.00056100613 -0.050909474
0.013226532 -0.027811317 -0.10818079 0.050723474 -0.09694133 0.043838497 -0.13381304 0.06080791
-0.025787318 0.016078932 0.020856824 0.0020730551 -0.051918425 0.11799125 0.0036189442 0.058065828
-0.031380344 -0.064256094 0.034539707 -0.02725901 0.028308675 -0.0012059076 -0.111674 -0.12068577

b_classifier.fcc.bias f4 [2]
00000000: f9cb b53d 08b4 d4bd
0.08876795 -0.10385901
