processing/mil classifier/weights/04232023/2.pth (torch, 343759 bytes, 8 tensors)

i_classifier.fc.0.weight f4 [2, 512]
00000000: 7bc9 7abc 6ded 91bd 3b7d dd3c 34a0 3bbd
00000010: f28d 9cbc 4698 96bd ad0c 323d 9149 b33b
00000020: 468a 51bd 48ff 6abb 42d1 a43d f9fc a2bd
00000030: 7e8c b03b ae56 183d ce27 a03c 769a a73c
00000040: 12d5 48bd 4ed1 adbd 3f90 1dbd 1b75 913d
00000050: ea99 bb3d 1dad 4cbd 8aba f43d c701 84bb
00000060: 340e 753d ccf3 16bd 0f70 d73d 1e06 98bc
00000070: a350 b53c 56b0 b1bc 39b3 5abd 2cb1 ac3d
00000080: de39 223e 218c a2bd 1505 a93c 2372 55bd
00000090: b880 00bd 7467 8cbd 2eb2 8ebd 9307 babd
000000a0: 6056 c53d f0eb 9d3d b213 17bc 5056 0f3d
000000b0: 9292 08bd b372 b63d 3e31 703d e7db cf3c
000000c0: b702 a9bc 90a7 363d 1bca 093c 9a52 acbc
000000d0: ea99 133e 0e7b cfbc 684a 59bd 5874 ebbb
000000e0: 0561 2b3d 6c7f 11bd 7a8d 4cbc 6ef3 bc3b
000000f0: 7ca1 86bd 679b 2a3e 6923 1cbe 0eff 4bbd
00000100: 0af9 b0bc 2e53 b9bd 61ba bc3c 9f42 3a3c
00000110: e6c7 c4bd 79fd be3c b6fe bcbd 668a eebc
00000120: c593 cd3c b105 ca3d ecdc 323d b090 04bc
00000130: 8593 11bd f1e3 efbc 553c 653d afc5 d13c
00000140: 061c 003e 8167 cabd b51c ccbd cc5e e23c
00000150: df29 1b3e 802b 083e ca02 0dbe 7b05 b8bd
00000160: 130f 3e3d 6ee3 96bd 9e52 bbbc 1c83 e2bb
00000170: bb13 a7bd 0f6f e5bb 6390 c73d 4fee c5bb
00000180: 68cf 9dbd f270 aa3d 0f67 09bb 5a8e 653d
00000190: 172a a73d 0260 953d f19f babd 6d76 abbc
000001a0: 1f78 b6bd 1e8a 2c3c 3f1d 85bc 9793 ebbd
000001b0: 0304 683c b132 443d 14c3 e2bc 02fa 2dbe
000001c0: dd79 5c3c 7ffd 64ba 56a5 ca3d cb53 e23c
000001d0: ebd9 8c3c fe5a 56bc db9f a33c e0dc 0bbe
000001e0: 39c5 d4bc 21f7 66bd fac7 2c3d 0ca4 40bd
000001f0: c081 173d 8256 aabd 2415 5e3d b448 f5bd
00000200: 721c 01bd d132 f23b c007 b33c 0822 80bd
00000210: 3bc5 823d 37ab a13d 5d95 d53d 162f 9cbb
00000220: 299a 9e3d fb55 1ebd fa6d ac3c e228 8abd
00000230: 5ead a6bd f44c 663a f493 e5bb 67a6 9a3d
00000240: fd83 c83d 7582 e53d 56ec a4bb a61c 0dbe
00000250: c763 ebbc e583 073d a84e b7bd 6b43 1bbd
00000260: 4ca0 61bd 7bda c8bc be39 42bd f525 54ba
00000270: 0d53 a83d 1764 893d 551d adbd 0ad4 b73d
00000280: bce6 efbd 0edd b7bd c89f 2ebd fe42 473b
00000290: 8ada e33d b73d 72bd 92af 1a3e 30d3 febb
000002a0: f48d 043e 2403 47bd aff5 eebd 971b a7bc
000002b0: f969 023e 4842 773c 9e2c 5cbc 613b acbd
000002c0: 7483 cabd 3c92 4d3c ac99 af3d a413 bc3d
000002d0: 776d a33b 5dc7 01bd 55b4 84bd 8c01 85bd
000002e0: 6655 14be ba7f 12bd af4f 8abd b28b 3e3e
000002f0: bba1 153d 7553 9bbb 36be 4e3d 0cd0 8e3b
00000300: 12ec 89bd 201f 8cbc f137 90bd 3c25 b3bd
00000310: 032b 693c e118 253d 9676 41bd 4836 983d
00000320: 972e d9bd 42da 12bd 02bc 113d 8e78 333c
00000330: 773a f73d b52e 453d a18d 21be df96 003c
00000340: b8fe a43b 2fbc d8bc 3870 f33b d895 fcbd
00000350: a640 0a3c 8a58 58bc 847b 703d 81b9 e2bd
00000360: 98de f23d d086 1e3d 5177 e0bd 36cf a13c
00000370: 2112 373d d70e 063c 10b2 ca3d 5c96 ba3c
00000380: e0a6 bbbc 60e6 7abd 618a 243d 8550 393d
00000390: 7610 3b3d fbe8 6e3d 2bb6 1abc fb30 d63b
000003a0: a9b1 51b9 b192 4ebd 6940 2b38 00d9 893c
000003b0: 42f3 06be 5182 99bc ea38 05be fffa e63c
000003c0: 3f1e 9fbd 5b2f c93d 4207 693d 1086 fa3c
000003d0: b3b5 0abd 4370 913d 4804 0ebd f7f7 3ebd
000003e0: 8970 683d 4ba4 463c 4fb3 4a3d eb4e 29bd
000003f0: 6bf6 fe3c 7537 d3bc 2bd7 a8bd f7e7 23be
-0.015306826 -0.071253635 0.027037254 -0.04580708 -0.019110654 -0.073532626 0.04346912 0.0054714163
-0.05115726 -0.0035857726 0.08047725 -0.07958407 0.0053878417 0.03719204 0.01955023 0.020459395
-0.049031325 -0.08487187 -0.038467642 0.07102414 0.09160216 -0.04996978 0.11949642 -0.004028532
0.059828 -0.036853597 0.1051942 -0.018557604 0.022133177 -0.021690529 -0.053393576 0.0843223
0.15842387 -0.07936884 0.020632306 -0.052110802 -0.031372756 -0.068556696 -0.06967579 -0.09083476
0.09635615 0.07711017 -0.009221004 0.034994423 -0.033342905 0.08908596 0.05864071 0.025373412
-0.020631177 0.044593394 0.008410002 -0.021035481 0.14414182 -0.025327232 -0.053049475 -0.0071855
0.041840572 -0.03552191 -0.0124849025 0.005766324 -0.065737695 0.16660844 -0.15247883 -0.049803786
-0.021603126 -0.090490684 0.023038091 0.011368423 -0.0960844 0.023314225 -0.0922827 -0.029118728
0.025094876 0.09864367 0.04366772 -0.008091137 -0.035541076 -0.029283496 0.05596574 0.025606958
0.1251069 -0.09883023 -0.09966413 0.027633093 0.15152691 0.13297844 -0.13770595 -0.0898542
0.046401095 -0.073675975 -0.022866543 -0.006912602 -0.0815806 -0.0070017646 0.097443365 -0.0060403715
-0.07705575 0.08322324 -0.0020965969 0.05604396 0.08162325 0.07293703 -0.09112538 -0.020930493
-0.0890963 0.010530977 -0.016249297 -0.1150276 0.014161113 0.047899906 -0.027680911 -0.16989902
0.013456789 -0.00087352836 0.098948166 0.027627846 0.017193755 -0.013083218 0.019973686 -0.13658476
-0.02597295 -0.056388024 0.0421829 -0.047031447 0.036988974 -0.08317281 0.05421938 -0.11976758
-0.03152127 0.0073913117 0.021854281 -0.06256491 0.06385275 0.07893985 0.104288794 -0.0047663553
0.077442475 -0.038656216 0.021048535 -0.06746079 -0.08138536 0.00087852706 -0.007006163 0.0755127
0.097908 0.11206523 -0.0050330563 -0.1378046 -0.028734101 0.03308477 -0.08950549 -0.03790609
-0.05508451 -0.024518242 -0.04741835 -0.0008092814 0.08218966 0.06708544 -0.0845286 0.0897599
-0.11713931 -0.0897771 -0.042632848 0.003040492 0.111256674 -0.059140887 0.15106037 -0.0077766404
0.12944776 -0.04858698 -0.11667954 -0.020398898 0.12735738 0.015091486 -0.013438372 -0.08409763
-0.09888354 0.012547072 0.085742325 0.09183434 0.0049874145 -0.03168427 -0.06479708 -0.06494436
-0.14485702 -0.03576634 -0.0675348 0.18607977 0.03653119 -0.0047401735 0.050474368 0.004358297
-0.0673448 -0.017104685 -0.0704192 -0.08747336 0.014231446 0.04030693 -0.047232233 0.07432228
-0.106045894 -0.035852678 0.03557969 0.010954035 0.12071698 0.048140246 -0.15776683 0.0078484705
0.0050352477 -0.02645692 0.007429149 -0.12333268 0.008438265 -0.013204703 0.058711544 -0.11070538
0.11858863 0.038702786 -0.10960258 0.019752126 0.044695023 0.008182249 0.09897244 0.022776775
-0.02290672 -0.06125486 0.04017103 0.045242805 0.045669995 0.058327656 -0.009442846 0.0065366006
-0.00019997977 -0.050432865 4.0829564e-05 0.016827106 -0.13178733 -0.018738898 -0.13009992 0.028195856
-0.07769441 0.098234855 0.056891687 0.030581504 -0.033864688 0.0710149 -0.03467205 -0.046623196
0.056747947 0.012124131 0.04948741 -0.041335028 0.03112336 -0.02578328 -0.08244165 -0.16006456

i_classifier.fc.0.bias f4 [2]
00000000: ea11 c2bd 3b29 aebf
-0.09476073 -1.3606333

b_classifier.q.0.weight f4 [128, 512]
00000000: af06 00bc ad8b 023b 3d1f 3cbc c241 023c
00000010: 6001 62bc 613c 96bb 368b 03bc 7143 873c
00000020: 722d 81b9 959d 8fbc 5c8b 8a3c 49ba 823a
00000030: 3f49 ab3c 6872 603c 498e f5bb f474 ccbc
00000040: d2e0 bbbb c429 ffba 609f e43c 7a34 023c
00000050: 4c41 8e3c 4bbd 2fbb ea0d 373c 94e9 f53b
00000060: dcf6 43bb 9aef cebb 64c9 833c 5f7f 003b
00000070: dd70 433c e2a9 62bc c047 b0bb 9eda 573b
00000080: ee93 843c 9316 3c3c c70a a73c 8df3 2abc
00000090: a2bc 0ebc f52d dcbc a44f 04bc 3873 d7bb
000000a0: fa7b bfbb 2f7f 6b3c ba2f 363c 717a 1b3c
000000b0: cdf7 b53c fb24 1c3b d4f1 033c 70fe 9c3b
000000c0: 8bed 44bb 64c2 413c 4393 953c e7d8 f2bb
000000d0: b5e2 3e3c 1980 7abc 0763 013d 0c77 e33b
000000e0: 727a 09bd 02fd 76ba adfb b3bb 6df3 68bb
000000f0: a333 adb9 d64d 3b3c 725d fbbb a11f 5b3c
00000100: 454f 74bb 1ccc c9ba ff42 67bc 21b1 7c3c
00000110: 11db 09bc 4352 9bb9 17e6 ba38 7522 513a
00000120: 6e89 58bc 652b b73a 1dd4 503b 10f0 1abc
00000130: 3fc6 c1bb c226 4c3c a02b b33b edb5 14bc
00000140: ac82 883c 807f c6ba 3df7 52bc 2d36 53bc
00000150: 7518 943c 5f26 b23b a3d1 49bc ac05 a0bb
00000160: a3fc 9c3c b4e1 493b 501f 25ba fd97 2a3b
00000170: d113 3bbb 406c 6fbc 3dbc fa3b f445 523a
00000180: febd d63c a70d 5e3c d663 2e3c fb1d 6abb
00000190: f4ec 403c 5391 f53a 1713 41bc a67f ca3c
000001a0: 08eb 55bc 4a88 babb a650 b83a c7c5 79bc
000001b0: 3489 8d3b 2aaa c7bc 3524 00bc 8037 b7bc
000001c0: f58d 363c e604 bfbb 9e93 033b 85cc 523b
000001d0: f093 32bc f03e 8cbb 8126 f33b dd22 95bc
000001e0: 2614 0fbc ecc2 87bc 6ee2 f93b 612f 41bc
000001f0: 54a1 52bc edf6 21bc b64f 60bb fb83 0abc
00000200: c15e 973c f1c7 04bc 5a69 a1bb d208 4dbb
00000210: ac80 eb3b 46c8 2ebc 88d2 633c 3ab2 06bc
00000220: f108 613c 67da ad3b 5d66 033b d608 99bb
00000230: b4eb 1dbb a5c3 983c e2d0 34bc d3b8 613b
00000240: abdb e53b 8b78 c7bb a622 613c e074 bcbc
00000250: 35f5 7cbb 2f6b 05bc 2c4a 11bc f872 c5bb
00000260: bd4b 11bc ce6d c33b ff21 0c3c f3b8 683b
00000270: 48b2 013c 941c c13c 0c34 0fb9 12bc abbb
00000280: 5127 87bc 1fd7 a8bc 8ace 62ba 3ccb 15bc
00000290: c441 d43c 4e6b 2ebc ad11 7c3c da83 8ebb
000002a0: 9f56 8c3c 7c39 b9bb ccf2 dbbb e28e aa3c
000002b0: 379f bc3c 82f5 d33b 4e4d b53b 1b96 c5bb
000002c0: 52bf d2bc 63a1 06bb f41f 353c 468e 7b3c
000002d0: 20c8 ce3b 6c57 e6ba 7cf5 2bbc cf85 63bc
000002e0: 1b13 14bc f56e df3c fde2 e13a eddb ae3a
000002f0: 81ff d7bb 4648 803c 3bf8 cfba e63f 2abc
00000300: a84c 8cbc e988 a3bb dd5d 613a 6f75 03bc
00000310: f114 2e3b 4bee b53a 8643 b13c f833 2fbc
00000320: ec78 ecbb 6c7f 52bc 100f 67bb 246d d4bb
00000330: 6711 84bc eb31 a83c 3d23 95bc 01c9 c1bb
00000340: ac83 9f3c bdca 4bbc 5c7c ddbc 8146 8dbb
00000350: 7938 44bc 99ab 92bb bb36 523c 79f9 f6bb
00000360: 5148 4a3c 5b15 bb39 e562 4cbc b261 28ba
00000370: f380 493b 6449 a33b ce0b 3c3c 8bdf 493c
00000380: b9e6 473c 106b d8bb e38d 633b 8f2d 9abb
00000390: a75b c13a a984 103c e9c5 70bb 12d3 d3bb
000003a0: 0fd4 95ba 4960 163c aa65 ffbb fb91 6fba
000003b0: 98fd 9dbc 5c3b 513c bc8c 36bc 84ba 4a3a
000003c0: d600 783c e753 6abc 03ad 9439 9c6f 383c
000003d0: c459 e6bb 8701 013c 711d 41bb 96cf 03bc
000003e0: 8054 b1bb 4f34 0a3b 1bf0 9e3b aded bb3b
000003f0: dd2f d43a 853e d73c bd66 a3bc 0aaf 08bc
-0.0078140935 0.001991968 -0.011482057 0.007950248 -0.013794273 -0.0045848344 -0.008028796 0.01651165
-0.00024638657 -0.017531196 0.016912155 0.000997373 0.02090895 0.013699152 -0.0074937684 -0.024958111
-0.005733588 -0.0019467403 0.027908027 0.007947082 0.01736512 -0.0026815708 0.011172751 0.0075046513
-0.0029901778 -0.006315184 0.016087241 0.001960717 0.011928764 -0.0138344485 -0.005379647 0.0032936702
0.01618382 0.0114799915 0.020390881 -0.010434044 -0.008711966 -0.026877383 -0.008075628 -0.0065750144
-0.0058436366 0.014373585 0.011119777 0.0094896415 0.022212887 0.0023825753 0.008053262 0.0047910735
-0.0030048813 0.0118261315 0.018258696 -0.0074111107 0.011650731 -0.01528933 0.03158858 0.0069416817
-0.03356404 -0.00094218564 -0.0054926486 -0.0035545484 -0.00033035604 0.011432132 -0.0076710517 0.01337424
-0.0037278694 -0.0015395912 -0.014115094 0.01542309 -0.008414046 -0.00029625194 8.912029e-05 0.0007977852
-0.01321636 0.0013974725 0.003186471 -0.009456649 -0.0059135254 0.012460412 0.005467847 -0.009076578
0.016663872 -0.0015144199 -0.012876329 -0.0128913345 0.018078068 0.005436703 -0.012318048 -0.0048834886
0.019163435 0.0030804696 -0.00062989164 0.0026030533 -0.0028545747 -0.014613211 0.0076518343 0.0008021288
0.026213642 0.01355306 0.01064392 -0.0035723436 0.011775244 0.0018735327 -0.0117843365 0.02471907
-0.013056524 -0.0056925165 0.0014062121 -0.015244908 0.0043193344 -0.024373133 -0.007821132 -0.022365332
0.011142244 -0.0058294414 0.0020077 0.003216536 -0.010899529 -0.0042799637 0.0074203615 -0.0182051
-0.008732831 -0.016572438 0.0076258695 -0.011791081 -0.012855846 -0.009885532 -0.00342272 -0.008454318
0.0184778 -0.00810431 -0.004925889 -0.0031285775 0.0071869697 -0.010667866 0.013905175 -0.008221203
0.013735042 0.0053055766 0.0020050027 -0.004670243 -0.002409679 0.018647978 -0.01103613 0.003444244
0.007014712 -0.006087368 0.013741171 -0.02300495 -0.0038598303 -0.00814323 -0.008867782 -0.0060256682
-0.008868155 0.0059640175 0.008553027 0.003551063 0.007916041 0.023573197 -0.00013656932 -0.0052409256
-0.01649824 -0.02061039 -0.00086519925 -0.009142693 0.025910266 -0.010645701 0.015385074 -0.004349214
0.017131148 -0.0056526046 -0.0067122933 0.020820085 0.023025138 0.006468476 0.005532897 -0.006029857
-0.025725994 -0.0020542971 0.0110549815 0.015353745 0.006310478 -0.0017573661 -0.01049554 -0.013886883
-0.009037758 0.027274588 0.0017233785 0.001334069 -0.0065917377 0.015659463 -0.0015866825 -0.010391211
-0.017126396 -0.004990686 0.00085970556 -0.008023604 0.0026562775 0.0013880221 0.021638643 -0.010693543
-0.0072165634 -0.012847763 -0.003525678 -0.006482737 -0.01612158 0.020531615 -0.01820528 -0.005913854
0.019471966 -0.012438473 -0.027036838 -0.0043113832 -0.011976355 -0.0044760224 0.012830432 -0.0075370637
0.012346343 0.0003568333 -0.01247475 -0.0006423249 0.0030747026 0.004983114 0.011477424 0.012321363
0.012201005 -0.0066045597 0.0034722022 -0.004705138 0.0014752046 0.008820691 -0.0036739057 -0.0064643705
-0.0011430996 0.00917823 -0.0077941017 -0.0009138879 -0.019285962 0.0127705 -0.011141952 0.00077334815
0.015136918 -0.01430223 0.00028357664 0.0112570785 -0.007029744 0.007873899 -0.0029467011 -0.008045098
-0.0054116845 0.0021088307 0.0048504 0.0057351203 0.0016188581 0.026274929 -0.01994645 -0.008342514

b_classifier.q.0.bias f4 [128]
00000000: d313 ff3c 2613 3f3a 584b bc3c 3554 80b9
00000010: 87d2 8c3a 02f7 b0b7 cbcc 023d d0f9 14b8
00000020: ecd4 d73c faf3 7c3a 5ace fc3c e2df 3237
00000030: 2949 513a 36b5 033d 4945 e73c 0376 e53c
00000040: 0a6d c83a 6684 9b3a bb4d df3c 8474 2439
00000050: d8e9 0db8 9695 063d 3b5f db38 c816 cd3c
00000060: 4dd8 983c d85d 1bb9 3865 1835 5fea 243a
00000070: 3726 073d 4144 223a d961 9a3c 9d15 a53c
00000080: bc7a 583c 40b2 973c c3ca ec35 12a0 be3c
00000090: c84c 473a bb5c ce3c f16f 183c e667 19b9
000000a0: ffbf 153d 9e3c 45b9 7b1b fb3c 9ff4 25b7
000000b0: 5dd8 04b9 a030 c83c 9153 263d 7ad7 e23c
000000c0: 93fd 4f3a c579 6ab8 d908 983a 5947 f138
000000d0: 70aa 523c 6cda 7db9 aeda db3c 5fec f339
000000e0: c82f 6bb6 018a e53c 3a59 f43c ab30 d13c
000000f0: c723 0bb9 8955 8039 fa26 a13c 7ba7 8e39
00000100: 6869 0039 e2a3 a93c 1c53 6439 ce8e 8c3c
00000110: 8928 913c ed4b 953a 1d92 f73c 1506 b6b9
00000120: 0d0e b23c c22f a53c ae96 183a a8e5 0b3d
00000130: 2017 e43c 88bc bab8 08c2 9f3c 3084 0b3d
00000140: 8966 2d39 2abb 373c 15cb ea3b 2e41 c833
00000150: f640 953a 089c 6d39 799c 5a38 0b2c c73c
00000160: 51a6 1e3d 05f8 d3b8 1076 143d a954 833a
00000170: c730 ff3c 4fb9 993c bdff 7c39 d7cf 28b8
00000180: 81b0 da3c a55d 9b3c 7e5c 2c3d d66a 3139
00000190: 1011 7d37 a255 e83c 9c77 abb7 84ad 173d
000001a0: c44c 22b7 cd06 ae3a 1c9c 623a 5207 cb3c
000001b0: 8506 dd36 8bb6 e33c 024a e33c 7f2f 243a
000001c0: 7830 153a 9e1a c53a c111 403d 2c28 963a
000001d0: e324 09b8 09f7 ff3c 0521 473c b626 e33c
000001e0: 78b6 e93c dfa6 0a3d ce04 a23c 449e f53c
000001f0: 4267 8ab8 f005 7db8 e946 2f39 818f 2fb9
0.031137383 0.0007288925 0.022985145 -0.00024476802 0.0010743894 -2.1095857e-05 0.031933587 -3.5518606e-05
0.026346646 0.00096493925 0.030860115 1.0661754e-05 0.0007983619 0.032155238 0.02823128 0.028010374
0.0015291285 0.0011865019 0.027258744 0.00015683664 -3.3834804e-05 0.0328575 0.00010460472 0.025035277
0.018657828 -0.00014816911 5.6771705e-07 0.00062910275 0.03299543 0.000618998 0.018845486 0.020151908
0.013212856 0.018517613 1.7642382e-06 0.023269687 0.0007602689 0.025190702 0.009304033 -0.00014629922
0.036560055 -0.00018809966 0.030652752 -9.891722e-06 -0.00012669103 0.024437249 0.04060704 0.027690638
0.0007934209 -5.5903354e-05 0.0011599316 0.00011505065 0.012858018 -0.00024209329 0.026837673 0.00046524682
-3.5045541e-06 0.028019907 0.029827703 0.025535902 -0.00013269401 0.0002447779 0.019671906 0.00027209133
0.00012246298 0.020708028 0.00021774735 0.017157938 0.017719524 0.0011390425 0.03022104 -0.00034718277
0.021735216 0.020164374 0.0005820793 0.034154564 0.027843058 -8.904288e-05 0.019501701 0.03406161
0.00016536763 0.011214057 0.0071653225 9.325082e-08 0.0011387158 0.00022660207 5.2120977e-05 0.024312994
0.03873283 -0.00010107461 0.036245406 0.0010019738 0.031151189 0.01876512 0.00024127863 -4.0247887e-05
0.026695492 0.018965552 0.042080395 0.00016919835 1.5083948e-05 0.028361145 -2.0440486e-05 0.03703071
-9.673826e-06 0.0013277173 0.0008644478 0.024783764 6.587072e-06 0.027797004 0.02774525 0.0006263181
0.00056911213 0.001503784 0.04689193 0.0011456064 -3.26977e-05 0.031245725 0.012153869 0.02772842
0.02852939 0.033850547 0.019777682 0.029982693 -6.599586e-05 -6.032543e-05 0.00016715717 -0.0001674276

b_classifier.q.2.weight f4 [128, 128]
00000000: 8270 b53c 46eb 4f3a 09bc 853c d856 4c37
00000010: 1220 893a ae96 ff36 8b54 ba3c c75f 96b7
00000020: f61a 983c 5681 5d3a 70ae b33c 7ec3 4638
00000030: 00c3 613a b1b2 bb3c 0383 a33c 9e28 a23c
00000040: 1749 df3a 87a9 b73a 79a0 9d3c 3465 e6b7
00000050: 05ff 82b5 70e8 bf3c d3a5 f738 0723 903c
00000060: 70d5 533c 4b86 7cb3 82f4 9535 7420 35b7
00000070: 38be c03c c0cb 303a df1b 563c 16fb 683c
00000080: 07ca 0c3c d223 523c 2f2a c3b6 6470 873c
00000090: d0bc 383a 4810 913c 91d9 b93b 0534 a0b3
000000a0: f1d7 d63c a41b be37 b06a b23c b4e2 5eb3
000000b0: 25bd ac38 2f76 8c3c 1810 f03c 8a39 a03c
000000c0: f99c 583a 6a6b 1f38 6c33 03b9 ac2e 4f39
000000d0: c9c8 083c e1f3 42b8 0811 9b3c 5097 27b9
000000e0: d61f d9b5 d636 a23c a044 ad3c 412d 933c
000000f0: dd11 e9b7 aa36 1a38 53d1 5f3c 7cc4 b7b8
00000100: f81a c639 85fc 6f3c d07a 9939 aa24 403c
00000110: ed4a 483c 9402 953a beba af3c 0ead 2a38
00000120: a979 7c3c fe22 693c 8019 2c3a ca12 c83c
00000130: 8325 a13c 00b6 1836 fed4 5d3c a181 c73c
00000140: 1eb0 ce39 9125 e63b 9a29 893b dffd 0437
00000150: 2665 bab9 fa11 d0b8 0e14 e739 f9b5 8b3c
00000160: f8d3 e43c 2cb4 bcb2 78f5 d43c be46 29b9
00000170: 9085 b53c 0e20 553c ea9c 2eb8 ee14 4836
00000180: 6d47 9a3c ca58 573c c82a f93c c88d 71b7
00000190: af2e 4d38 c960 a43c 2e00 25b6 2e42 da3c
000001a0: 5527 22b6 1bd4 42b9 3e11 563a 738d 8e3c
000001b0: 4f0f 17b6 20e2 a03c 2d92 a03c 4670 403a
000001c0: 2dd5 ecb8 8689 d33a 226f 0b3d 104b 6f3a
000001d0: da7a 6137 1c1a b63c 439f 003c 7777 a03c
000001e0: d960 a53c 55f3 c53c 7e17 613c c441 ae3c
000001f0: 46ab 38b6 06f3 87b5 6986 80b7 fe61 0eb6
00000200: 8270 b53c 43eb 4f3a 07bc 853c da56 4c37
00000210: 0f20 893a ae96 ff36 8a54 ba3c c75f 96b7
00000220: f61a 983c 5081 5d3a 6fae b33c 7dc3 4638
00000230: ffc2 613a b0b2 bb3c 0483 a33c 9d28 a23c
00000240: 1749 df3a 85a9 b73a 77a0 9d3c 3565 e6b7
00000250: 00ff 82b5 71e8 bf3c d4a5 f738 0723 903c
00000260: 6ed5 533c 4086 7cb3 83f4 9535 7320 35b7
00000270: 36be c03c bfcb 303a dc1b 563c 16fb 683c
00000280: 08ca 0c3c d323 523c 322a c3b6 6370 873c
00000290: cfbc 383a 4710 913c 90d9 b93b 2234 a0b3
000002a0: f0d7 d63c a41b be37 b26a b23c d4e2 5eb3
000002b0: 22bd ac38 2f76 8c3c 1710 f03c 8939 a03c
000002c0: f79c 583a 6a6b 1f38 6933 03b9 ac2e 4f39
000002d0: c8c8 083c e0f3 42b8 0911 9b3c 4d97 27b9
000002e0: cc1f d9b5 d536 a23c a244 ad3c 402d 933c
000002f0: de11 e9b7 a636 1a38 52d1 5f3c 7bc4 b7b8
00000300: f71a c639 87fc 6f3c cf7a 9939 a824 403c
00000310: eb4a 483c 9302 953a beba af3c 0ead 2a38
00000320: aa79 7c3c fc22 693c 7f19 2c3a ca12 c83c
00000330: 8125 a13c f4b5 1836 fed4 5d3c a481 c73c
00000340: 1eb0 ce39 8d25 e63b 9929 893b defd 0437
00000350: 2665 bab9 fa11 d0b8 0f14 e739 f8b5 8b3c
00000360: f9d3 e43c 27b4 bcb2 78f5 d43c bc46 29b9
00000370: 8c85 b53c 0e20 553c ea9c 2eb8 ee14 4836
00000380: 6d47 9a3c cb58 573c cb2a f93c c68d 71b7
00000390: af2e 4d38 c960 a43c 2f00 25b6 2f42 da3c
000003a0: 5327 22b6 19d4 42b9 3e11 563a 758d 8e3c
000003b0: 4f0f 17b6 21e2 a03c 2c92 a03c 4670 403a
000003c0: 2dd5 ecb8 8589 d33a 226f 0b3d 0f4b 6f3a
000003d0: dc7a 6137 1c1a b63c 419f 003c 7577 a03c
000003e0: d960 a53c 54f3 c53c 7c17 613c c641 ae3c
000003f0: 44ab 38b6 f4f2 87b5 6886 80b7 fe61 0eb6
0.022148374 0.0007931482 0.016325014 1.2179567e-05 0.0010461828 7.6171336e-06 0.022745391 -1.7925993e-05
0.018567543 0.00084497535 0.021933764 4.7388945e-05 0.0008612126 0.022912355 0.019959932 0.019794758
0.0017035332 0.0014012315 0.019241558 -2.7465263e-05 -9.759975e-07 0.023426265 0.00011808765 0.017594827
0.012929305 -5.879546e-08 1.1172526e-06 -1.0795997e-05 0.023528203 0.00067442283 0.013068168 0.01422002
0.008593089 0.012825923 -5.8163637e-06 0.016533084 0.0007047178 0.017707959 0.005671688 -7.460043e-08
0.026226016 2.2662636e-05 0.021779388 -5.1894588e-08 8.23683e-05 0.017146198 0.02930455 0.019558687
0.0008263137 3.800859e-05 -0.0001251229 0.00019758445 0.008348652 -4.6480334e-05 0.01892902 -0.0001598273
-1.6177025e-06 0.019801538 0.021150887 0.017965915 -2.7784083e-05 3.676737e-05 0.013660747 -8.762718e-05
0.00037785596 0.014647608 0.00029273937 0.011727491 0.012224895 0.0011368566 0.02145135 4.069233e-05
0.015409865 0.014229534 0.0006565079 0.024423022 0.019671207 2.2755703e-06 0.013539551 0.024353804
0.000394226 0.0070235212 0.0041858675 7.926922e-06 -0.00035552046 -9.921561e-05 0.00044074695 0.017054545
0.027933106 -2.1968013e-08 0.025995955 -0.0001614345 0.022158414 0.013008131 -4.163097e-05 2.9814505e-06
0.018832887 0.013143728 0.030415908 -1.439773e-05 4.8919286e-05 0.020065682 -2.458702e-06 0.026642885
-2.4162775e-06 -0.00018580297 0.00081660214 0.017401433 -2.2509664e-06 0.019639075 0.019600952 0.0007340949
-0.00011293064 0.0016139008 0.03404153 0.00091283116 1.3439649e-05 0.022229247 0.007850471 0.019588215
0.020187782 0.024163881 0.013738511 0.021271594 -2.751783e-06 -1.0129013e-06 -1.5321379e-05 -2.1216688e-06
0.022148374 0.000793148 0.01632501 1.2179569e-05 0.0010461825 7.6171336e-06 0.02274539 -1.7925993e-05
0.018567543 0.000844975 0.021933762 4.738894e-05 0.00086121255 0.022912353 0.019959934 0.019794757
0.0017035332 0.0014012313 0.019241555 -2.7465265e-05 -9.75997e-07 0.023426266 0.00011808766 0.017594827
0.012929304 -5.8795422e-08 1.1172527e-06 -1.0795996e-05 0.0235282 0.0006744228 0.013068166 0.01422002
0.00859309 0.012825924 -5.816365e-06 0.016533082 0.00070471776 0.017707957 0.0056716874 -7.4600635e-08
0.026226014 2.2662636e-05 0.021779392 -5.1894702e-08 8.236828e-05 0.017146198 0.029304547 0.019558685
0.00082631357 3.800859e-05 -0.00012512285 0.00019758445 0.008348651 -4.648033e-05 0.018929021 -0.00015982725
-1.6177014e-06 0.019801537 0.02115089 0.017965913 -2.7784085e-05 3.6767357e-05 0.013660746 -8.762717e-05
0.00037785593 0.01464761 0.00029273934 0.0117274895 0.012224893 0.0011368565 0.02145135 4.069233e-05
0.015409866 0.014229532 0.00065650785 0.024423022 0.019671204 2.2755676e-06 0.013539551 0.02435381
0.000394226 0.0070235194 0.004185867 7.926921e-06 -0.00035552046 -9.921561e-05 0.00044074698 0.017054543
0.027933108 -2.1968004e-08 0.025995955 -0.00016143447 0.022158407 0.013008131 -4.163097e-05 2.9814505e-06
0.018832887 0.0131437285 0.030415913 -1.4397729e-05 4.8919286e-05 0.020065682 -2.4587023e-06 0.026642887
-2.416277e-06 -0.00018580294 0.00081660214 0.017401436 -2.2509664e-06 0.019639077 0.01960095 0.0007340949
-0.00011293064 0.0016139006 0.03404153 0.0009128311 1.34396505e-05 0.022229247 0.007850469 0.019588212
0.020187782 0.02416388 0.013738509 0.021271598 -2.7517826e-06 -1.0128992e-06 -1.5321377e-05 -2.1216688e-06

b_classifier.q.2.bias f4 [128]
00000000: f8cb 5c3b f7cb 5c3b f9cb 5c3b f5cb 5c3b
00000010: facb 5cbb fccb 5cbb f5cb 5cbb f9cb 5cbb
00000020: f6cb 5c3b f6cb 5c3b f8cb 5cbb fecb 5cbb
00000030: fecb 5cbb fecb 5cbb f5cb 5cbb fdcb 5cbb
00000040: fbcb 5cbb 03cc 5cbb f9cb 5cbb f6cb 5c3b
00000050: f6cb 5cbb f9cb 5c3b fdcb 5c3b f7cb 5c3b
00000060: fecb 5cbb f7cb 5cbb f6cb 5cbb f8cb 5c3b
00000070: b1ae 5f3b f9cb 5cbb facb 5c3b f8cb 5c3b
00000080: f9cb 5cbb 00cc 5cbb fdcb 5cbb facb 5c3b
00000090: f6cb 5cbb facb 5c3b f2cb 5c3b f7cb 5cbb
000000a0: f7cb 5cbb f8cb 5c3b 262b 5f3b f8cb 5c3b
000000b0: f9cb 5cbb e275 5f3b f4cb 5c3b ff32 603b
000000c0: f2cb 5cbb f8cb 5c3b f7cb 5c3b f6cb 5c3b
000000d0: f8cb 5cbb f9cb 5cbb f5cb 5cbb fccb 5c3b
000000e0: f2cb 5cbb f8cb 5cbb f2cb 5cbb f8cb 5cbb
000000f0: f6cb 5cbb f3cb 5c3b f2cb 5cbb f2cb 5c3b
00000100: f6cb 5cbb f6cb 5c3b f9cb 5cbb f6cb 5c3b
00000110: f0cb 5cbb facb 5c3b facb 5cbb f9cb 5c3b
00000120: f9cb 5cbb f8cb 5cbb fbcb 5cbb f6cb 5cbb
00000130: 5d98 5fbb f6cb 5c3b f6cb 5c3b f5cb 5c3b
00000140: facb 5cbb fbcb 5cbb f8cb 5cbb fecb 5c3b
00000150: fccb 5cbb f5cb 5cbb f6cb 5cbb f9cb 5cbb
00000160: f1cb 5cbb fbcb 5cbb f8cb 5c3b facb 5c3b
00000170: f9cb 5cbb aa30 5f3b f8cb 5c3b c066 603b
00000180: f2cb 5c3b f5cb 5c3b fbcb 5c3b afe7 5fbb
00000190: f6cb 5cbb fbcb 5c3b f5cb 5cbb fbcb 5cbb
000001a0: f8cb 5c3b f7cb 5c3b f7cb 5c3b f6cb 5c3b
000001b0: 01cc 5c3b f3cb 5c3b 04cc 5c3b facb 5c3b
000001c0: fbcb 5cbb f9cb 5cbb 00cc 5cbb fecb 5cbb
000001d0: ffcb 5cbb facb 5c3b f6cb 5cbb facb 5cbb
000001e0: f9cb 5cbb facb 5cbb fecb 5c3b f3cb 5cbb
000001f0: f0cb 5c3b f9cb 5cbb fdcb 5cbb f6cb 5c3b
0.003369091 0.0033690908 0.0033690913 0.0033690904 -0.0033690915 -0.003369092 -0.0033690904 -0.0033690913
0.0033690906 0.0033690906 -0.003369091 -0.0033690925 -0.0033690925 -0.0033690925 -0.0033690904 -0.0033690922
-0.0033690918 -0.0033690936 -0.0033690913 0.0033690906 -0.0033690906 0.0033690913 0.0033690922 0.0033690908
-0.0033690925 -0.0033690908 -0.0033690906 0.003369091 0.0034131224 -0.0033690913 0.0033690915 0.003369091
-0.0033690913 -0.003369093 -0.0033690922 0.0033690915 -0.0033690906 0.0033690915 0.0033690897 -0.0033690908
-0.0033690908 0.003369091 0.0034052818 0.003369091 -0.0033690913 0.0034097363 0.0033690901 0.0034210084
-0.0033690897 0.003369091 0.0033690908 0.0033690906 -0.003369091 -0.0033690913 -0.0033690904 0.003369092
-0.0033690897 -0.003369091 -0.0033690897 -0.003369091 -0.0033690906 0.00336909 -0.0033690897 0.0033690897
-0.0033690906 0.0033690906 -0.0033690913 0.0033690906 -0.0033690892 0.0033690915 -0.0033690915 0.0033690913
-0.0033690913 -0.003369091 -0.0033690918 -0.0033690906 -0.0034117915 0.0033690906 0.0033690906 0.0033690904
-0.0033690915 -0.0033690918 -0.003369091 0.0033690925 -0.003369092 -0.0033690904 -0.0033690906 -0.0033690913
-0.0033690894 -0.0033690918 0.003369091 0.0033690915 -0.0033690913 0.0034056106 0.003369091 0.0034240931
0.0033690897 0.0033690904 0.0033690918 -0.0034165194 -0.0033690906 0.0033690918 -0.0033690904 -0.0033690918
0.003369091 0.0033690908 0.0033690908 0.0033690906 0.0033690932 0.00336909 0.0033690939 0.0033690915
-0.0033690918 -0.0033690913 -0.003369093 -0.0033690925 -0.0033690927 0.0033690915 -0.0033690906 -0.0033690915
-0.0033690913 -0.0033690915 0.0033690925 -0.00336909 0.0033690892 -0.0033690913 -0.0033690922 0.0033690906

b_classifier.fcc.weight f4 [2, 2, 512]
00000000: 57d5 7c3c 1806 73bd 9319 3d3d c36d 0e3b
00000010: a58f 0dbd 93f4 c2bd e6f9 9a3c 9237 bc3c
00000020: 26da 32bd 99e9 d73c de33 5e3d 3f80 aebc
00000030: 6c77 b23b 725b 903d 2b02 9ebc 288f c93b
00000040: 5543 5cbc b998 76bd 8f34 c0bc ab6a a83d
00000050: 008b 403d 6608 12bd 74ce 933d 7c08 1d3d
00000060: 83b7 c73c 0968 5fbd 851d 733d a020 8cbc
00000070: dd8a 023c 1ead a0bc 0abd 24bd 9294 013d
00000080: c22f c73d dcbf 68bd eb36 743c 985e a4bc
00000090: 8186 393d a02a 96bd ae6f 3fbd c98f c5bd
000000a0: c0e6 6ebc 6ffe 283e 766f 273d d0bb c63c
000000b0: 27b5 b3bb 0825 903d da72 363d 552f aa3d
000000c0: 7450 ed3b a2d8 aa3d 16cc 69bc 336c a4bc
000000d0: bfd6 de3d e9ed 2ebc 52b1 8ebc ee2e d53b
000000e0: e88d a7bb cac5 6fbc 7ad6 f8bc 8d37 883c
000000f0: 6037 9dbc d99c e63d 60df 9bbd 0242 a8bc
00000100: e82e ac3b c25f 5fbd c949 313b 8dde 463d
00000110: aa9f 6cbd 0e82 003d 2aac 52bc ce38 893c
00000120: 1af9 ffbb 6364 7c3d 15bb a2bc 636d 7bbb
00000130: 13cc 9cbd 78fa 0c3d 5665 d93d 4f1a 9bbc
00000140: d84e c53d c094 4ebd 6117 3dbd 0a22 bc3c
00000150: 2334 8b3d ba9e 3d3d c925 1dbd 978c f5bc
00000160: 2619 313d 245c 4f3d cd33 303c 4836 74bd
00000170: 318e 7fbd 6d13 8cbc 5b05 c83d 74b5 a53d
00000180: 90a3 61bd 9de9 993d aeca bd3d be0e 7c3d
00000190: b81b ca3c ee20 81bc 7cbe eabd 0067 dfbc
000001a0: dac2 8dbd ca28 bb3c 6f0a dbbd ce7c 01be
000001b0: 6ff4 94bc 158a 36bc b48d c1bc d795 92bd
000001c0: 8e12 1d3d 5c31 21bd a5cd 0b3d b360 193d
000001d0: e78f 7bbd 34ee 24bd 5c4c c73c d066 70bd
000001e0: 6d06 f6bc 57aa dfbc b5d2 a83d 6cbd bbbc
000001f0: 0b67 523d c242 a6bd 5801 843d 81ff 6bbd
00000200: df9b 343d 08dd 173c 24e4 4bbc 4a81 0ebc
00000210: c402 cf3b 42a9 343d 1353 c03d 5125 913c
00000220: dbf8 2f3d ed8c d0bb f07e 2a3d 9550 adbc
00000230: 4b8f 6abc d536 fbbc 9c83 4ebd 356f 313d
00000240: 4fcc 0f3c c7f9 633d e827 4c38 615b 83bd
00000250: 6c1a a8bc c057 ddbc 99a9 06be 5c8c ef3c
00000260: ccf0 7cbd 08aa 49ba cdd1 9b3c 640f 9b3c
00000270: 2ddf 623d f8bf 9f3c 8493 bbbb d43a 7f3d
00000280: 7fc6 78bd 649f 96bd dfd9 79bd 7946 49bd
00000290: f368 0f3e c4cf 50bb 3482 f73d 34e9 ee3c
000002a0: d7ff 803d c5ad 53bd a64b 28bd 7213 aabb
000002b0: 06c8 4b3d d844 0d3b c41a d0bb 35b3 70bd
000002c0: 3da4 f1bd 30cf 943c 8834 963d 8923 a83d
000002d0: d861 453d f78d 97bd 8a5c 4abd 05a7 27bd
000002e0: aa2c b8bd 4597 5cbc c26d e0bc 439c f03d
000002f0: 298f 8bba 9c93 253d 3118 79bc fcb0 1dbd
00000300: ae21 79bd 5de0 5abd 10d8 afbb 62a5 cfbd
00000310: b0cf 5c3c 6d97 6b3d 04a3 d1bb 4b76 893d
00000320: ffa1 61bc 2147 eeba 8332 79bc 78bc 06bd
00000330: 92c4 203d bc32 063d 8efb d3bd 98cc 613d
00000340: 21d7 473d 008b 12bd ec7a 02bd ba77 f2bd
00000350: 5cd7 e7bc c495 93bd ec8d d03d 871c 80bd
00000360: 084e a03d 630c b23a 5c34 0dbd 8a23 b0bc
00000370: 630b ce3d b3e9 0c3c 6b3d c43d 6def 833d
00000380: c32f 06bd 6f46 60bd a0a7 1cbc e50c f73c
00000390: 9725 483d a8e4 863d cdce a53a 8ed4 47bd
000003a0: 412e 7b3c e797 b1bc 7d53 ddbd 3ef7 043d
000003b0: f677 d5bd 112d 2a3d 9e37 1ebe 747b 4d3d
000003c0: 55b8 7dbc 04ff 133d 53cc 243d 03e5 ae39
000003d0: dc5c 2dbd da65 b53d e4b2 17bc 93b9 1c3d
000003e0: 4450 f0bc 4b44 4ebd dc5d 793d 204c 05bd
000003f0: 9219 0e3d 0b5c 9eb9 67b7 03be a86b cebd
0.015431724 -0.059331983 0.046166968 0.0021732904 -0.03456082 -0.09519305 0.018917989 0.022975717
-0.043665074 0.026356505 0.054248683 -0.021301387 0.005446365 0.07048692 -0.019288143 0.0061510988
-0.013443788 -0.06020424 -0.023462562 0.0822347 0.04700756 -0.03565254 0.07217112 0.03833817
0.024379497 -0.054542575 0.059354324 -0.0171054 0.007967678 -0.019613799 -0.040219344 0.03163583
0.09725906 -0.056823596 0.014905672 -0.020064637 0.04529429 -0.07332349 -0.046737365 -0.096465655
-0.014581382 0.16503309 0.04087778 0.024259478 -0.0054842415 0.07038313 0.044543125 0.08309809
0.007242257 0.08342101 -0.014269849 -0.020071125 0.10880803 -0.010676839 -0.017418537 0.0065058386
-0.005113352 -0.014634559 -0.030375708 0.016628051 -0.019191444 0.11260385 -0.07610965 -0.020539287
0.005254615 -0.05453468 0.0027052036 0.048552085 -0.057769455 0.03137403 -0.01285843 0.01675072
-0.0078116776 0.061619174 -0.019864598 -0.003836476 -0.076561116 0.034418553 0.106150314 -0.018933443
0.09634179 -0.050434828 -0.046164874 0.02296545 0.06797054 0.04629395 -0.038366113 -0.029974265
0.043236874 0.05062498 0.010754538 -0.05962208 -0.062391464 -0.017099107 0.097666465 0.0809125
-0.055087626 0.07515261 0.09267174 0.061537497 0.02467142 -0.015762772 -0.11462113 -0.027270794
-0.069219306 0.022846598 -0.106953494 -0.12645265 -0.018182961 -0.01114132 -0.02362714 -0.07157486
0.038347773 -0.039353713 0.034131665 0.037445735 -0.061416533 -0.04026623 0.024328403 -0.0586918
-0.03003236 -0.027302904 0.08243314 -0.022917472 0.0513678 -0.08118202 0.06445569 -0.057616714
0.044093963 0.009269007 -0.01244453 -0.008697817 0.0063174684 0.04410673 0.09390845 0.01771799
0.042961936 -0.006364456 0.041624963 -0.021156589 -0.01431639 -0.030665794 -0.05041848 0.043318946
0.008776738 0.055658128 4.8674556e-05 -0.064139135 -0.020520411 -0.027019382 -0.13150634 0.029241733
-0.06175308 -0.0007692878 0.01902094 0.018928237 0.05538862 0.019500718 -0.0057243723 0.062311962
-0.060736176 -0.0735462 -0.060998794 -0.049139474 0.14004879 -0.003186212 0.12085381 0.029163934
0.062987976 -0.05167939 -0.04108777 -0.0051903063 0.049751304 0.0021555927 -0.006350847 -0.058764655
-0.11798904 0.018165201 0.07334238 0.08209903 0.048189014 -0.074001245 -0.04940466 -0.040930767
-0.08992894 -0.0134638 -0.027396087 0.117485546 -0.0010647523 0.040423974 -0.015203522 -0.038498864
-0.060823135 -0.053436626 -0.005366333 -0.10138966 0.013477251 0.057517458 -0.006397607 0.06712016
-0.013771533 -0.0018179157 -0.015209797 -0.03289458 0.039249964 0.032763228 -0.103507146 0.055126756
0.048789147 -0.035777092 -0.03185551 -0.11839242 -0.028300934 -0.072063 0.101833194 -0.06255441
0.07827383 0.0013584014 -0.034473762 -0.021501321 0.100607656 0.00860064 0.09582027 0.06442151
-0.032760393 -0.05475467 -0.009561449 0.030157516 0.048863973 0.065865815 0.0012650132 -0.048786692
0.015330852 -0.021678878 -0.1080694 0.03246235 -0.10423271 0.041546885 -0.15450904 0.050166562
-0.015485843 0.036131874 0.04023392 0.00033358493 -0.042324886 0.08857317 -0.009258959 0.038262915
-0.029335149 -0.050358098 0.060880527 -0.0325433 0.034692355 -0.00030204686 -0.12862931 -0.100791276

b_classifier.fcc.bias f4 [2]
00000000: ee73 503d c9e5 a7bd
0.05089181 -0.08198125
