processing/mil classifier/weights/04232023/3.pth (torch, 343759 bytes, 8 tensors)

i_classifier.fc.0.weight f4 [2, 512]
00000000: eb1f c83d 38c1 9fbb bf6e e33c ebde f93c
00000010: 248e 71bd 6d67 353e 5b4e b33d 4360 d3bd
00000020: 8ec5 e0bd 6ee3 2b3c 3d59 3b3c 56ec d53d
00000030: 6f28 023e b530 bcbd 457c d53c 04a8 0e3d
00000040: c91f f53d edd1 413d 6709 4c3e 371a 883d
00000050: e81d 74bd d5de 533d 4c82 7b3d 372e c3ba
00000060: 72ad 383d 2b05 fdbb 838c 0cbe d8c2 163d
00000070: 0963 27bd f0da 96bd baca 25be f234 06bd
00000080: 246a 3a3e c654 273b 1390 0bbe f6b2 af3d
00000090: 0fbc 9a3d a47e 263e a955 473d a9ea adbd
000000a0: f0f1 a3bd bac0 a23c 2dd4 13bc 40a3 0cbd
000000b0: df03 a43c cc10 f1bc c0ee 2e3e cd2a c9bd
000000c0: b654 a33d 60bb d6bd 5064 083d f18e 07be
000000d0: b5da 05be a900 5cbd a7d5 3bbe 8914 063e
000000e0: 6e43 a8bd e475 2c3e 4818 823d 7cac 4b3e
000000f0: a091 843d a61e bc3b 1b02 2ebd a901 ebbd
00000100: 427b 63bc 83ea 2a3d 5677 07be 0f21 75bc
00000110: adcd 3dbe 0a02 18be 20db b43c f1f7 873c
00000120: 6da2 9fbd 819a 713d fc5b 97ba da38 413d
00000130: 8cd0 88bd dd6b 65bd fee4 f13d 2e47 12bd
00000140: 5d33 673d b928 40bd a224 273d a690 e0bd
00000150: 6484 9b3d 252d 7f3d b954 263e 4571 9ebd
00000160: 6b8d 883d a5ac 7bbc 0ceb 58bd 55cb 07be
00000170: e043 3ebe 4d4c 0b3e 426a 673d 1cf2 4bbd
00000180: 88ca 31be f5df 1cbd a803 ffbd c5bf 9e3d
00000190: d6e1 373d 9fb0 3abe 7483 54bd 2a86 9bbd
000001a0: 3dcb 0fbe 4430 0bbd f404 d43d 3343 e2bd
000001b0: 18bd 6abd 440a a2bd a9fb 91bc 1c2e 4dbd
000001c0: f518 f23d 7eae c0bc 92d0 393e 3e1e 273d
000001d0: e9ed 8b3d ae8e 21be 24d2 a9bd 54aa 97bd
000001e0: de95 6cbc 4e8a 8cbd b47b 373d 5221 243d
000001f0: d006 593b f2ca 02be 67aa d9bd f883 323a
00000200: d30f 1c3d d43a 04be 3e91 253e 9aa8 193e
00000210: ae9f 4ebd 0ead b9bc be71 a63d 754e d13c
00000220: cfee 063e 83b8 43bd b539 863c 0de7 4a3d
00000230: a436 e73d 4e05 8a3b 062d 5e3d 3814 57bd
00000240: 2004 113e fceb cdbc 0bfd cabd e2b3 ae3d
00000250: 0868 273e 7ca0 613d 2482 0abe 8e4d 2a3d
00000260: 4199 4a3c 6bac 263d ee55 1e3d d6c2 1d3e
00000270: 4d97 6b3d c4a5 813b e31d ba3c 2cef b43c
00000280: 9e36 edbc ddfc 52bc 8526 c73d 1363 093e
00000290: 355c 043e 2cd9 fb3d 7b7e e8bd 9389 f2bd
000002a0: 451b 5d3c 6222 7ebd ee16 153e 7799 983d
000002b0: 3626 243e 79ce 1cbe 9b62 86bc e659 23be
000002c0: a997 debd b79a de3d a564 2cbe 91fb 673d
000002d0: 670a 0dbe a086 e5bd 7e75 abbd bde5 04bd
000002e0: 780a b7bd abe2 233e dc32 ffbd 995a 0a3d
000002f0: 6627 f53d 2ac6 ef3c 4c60 e2bd e1c7 393d
00000300: 45fa 713b 5fb7 af3d 43f8 fabd 834d 1abe
00000310: 0d6e c03d db5c 51bd f874 cebd 07e6 c9bd
00000320: cf9d 1e3e fdea 36bd 7f27 823c b480 01bd
00000330: cf7c 97bd 78a3 843c fef0 303c eef5 d23c
00000340: cfbf 643d fb4f 1c3e 4f6f fc3d 8994 93bd
00000350: 546d d5bd 4bd1 e8bb 6d66 19bd 3b6d 2c3e
00000360: 8277 f0bb 220f 9b3d 3218 a2bd 8158 533d
00000370: cfad 57bd c1ee 80bd 821c 933c ba3c 063e
00000380: 4a99 89bc 6aa3 9abc 7053 413c 5721 fd3d
00000390: f8d3 4dbd 4d47 513e ff07 c93d 9b24 0abd
000003a0: 0f16 e53d c2a4 003e c1f6 c6bc 092e 02be
000003b0: 6fa7 e23d b709 f0bd 2d33 103e 9718 0e3e
000003c0: cab4 0c3d debd 053e 633f 993d aa65 bc3d
000003d0: ce4f 40be 8ab3 c93d e8cd c43c aa28 b73b
000003e0: a4d8 863d 38ee 5f3d a114 853c b327 a73c
000003f0: 1c16 bfbd bae5 fcbd 6652 f6bc ce0a 283e
0.09771713 -0.0048753284 0.027762769 0.030501803 -0.058973446 0.17715235 0.087551795 -0.10321095
-0.109751806 0.010491235 0.01143485 0.10445468 0.12710737 -0.09188978 0.026060233 0.0348282
0.11968953 0.04731934 0.19925462 0.06645625 -0.059598833 0.05172618 0.061403558 -0.0014891092
0.045087285 -0.0077215633 -0.13725476 0.03680691 -0.04086593 -0.07365978 -0.16190615 -0.032765336
0.18204552 0.0025532707 -0.13629179 0.08579056 0.075554006 0.16259247 0.048665676 -0.084920235
-0.0800513 0.01986729 -0.009022755 -0.034335375 0.020021377 -0.029426955 0.17083263 -0.09822617
0.07975142 -0.10484958 0.03329879 -0.13238122 -0.13071711 -0.053711567 -0.1834322 0.13093771
-0.08215986 0.16841847 0.063522875 0.19890016 0.06473088 0.0057409583 -0.042482477 -0.11474926
-0.013884367 0.041727554 -0.13229117 -0.014961495 -0.1853549 -0.14844528 0.022077143 0.01659772
-0.07794652 0.058985237 -0.0011547799 0.04717336 -0.06680402 -0.05601107 0.11811255 -0.035712413
0.05644547 -0.046913836 0.04080642 -0.109650895 0.07593611 0.062298913 0.16243257 -0.07736448
0.06667598 -0.015360986 -0.052958533 -0.13261159 -0.1858058 0.13603325 0.05649782 -0.04979144
-0.17362416 -0.03829952 -0.12451869 0.07751421 0.04489311 -0.18231438 -0.051883176 -0.07593949
-0.14042373 -0.033981577 0.10352507 -0.110479735 -0.05730924 -0.07912114 -0.017820196 -0.0500928
0.118211664 -0.023520704 0.1814597 0.040800326 0.06832487 -0.15777084 -0.08292034 -0.074055344
-0.014440028 -0.06862317 0.044795707 0.04007084 0.0033115633 -0.1277273 -0.10628205 0.0006809826
0.03810103 -0.12913066 0.16168687 0.15005723 -0.05044525 -0.022665527 0.08127163 0.025550107
0.13177036 -0.047783386 0.016384939 0.049536753 0.11289719 0.004212058 0.054242156 -0.052509516
0.1416173 -0.02513694 -0.09911545 0.08530404 0.16348279 0.05508469 -0.13526207 0.04157787
0.01236564 0.040691774 0.038656168 0.15406355 0.05751734 0.0039565284 0.02271933 0.022086702
-0.028956708 -0.01287767 0.09724144 0.134167 0.12925799 0.122972816 -0.11352249 -0.118426464
0.013495271 -0.06204451 0.14559528 0.07451146 0.16030201 -0.15313138 -0.01640444 -0.15952262
-0.10868771 0.10869353 -0.16835268 0.056636397 -0.137735 -0.11207318 -0.08372019 -0.032445658
-0.08937544 0.16004436 -0.124608725 0.033777807 0.11970405 0.029269297 -0.110535234 0.045356635
0.0036922854 0.08579897 -0.122543834 -0.15068631 0.093959905 -0.051113945 -0.10080904 -0.09858327
0.15489887 -0.044657696 0.015887974 -0.03161688 -0.07396852 0.01619123 0.0107996445 0.025752034
0.055846985 0.15264885 0.12325918 -0.07206065 -0.10421243 -0.007105028 -0.037451196 0.16838543
-0.007338465 0.07571246 -0.07914771 0.051598076 -0.05265599 -0.06295539 0.01795793 0.13109103
-0.016796727 -0.01887675 0.011799678 0.12359875 -0.050250977 0.20437355 0.09815978 -0.033726316
0.11185848 0.1256285 -0.024287583 -0.12712874 0.11067092 -0.11720603 0.14082022 0.13876568
0.0343521 0.1306071 0.07482793 0.091990784 -0.18780443 0.098486975 0.024023965 0.0055895643
0.0658429 0.054670542 0.016245188 0.020404672 -0.09330389 -0.12348504 -0.030068588 0.16410372

i_classifier.fc.0.bias f4 [2]
00000000: 9cb2 b33e 6cc7 16bf
0.35097206 -0.58898044

b_classifier.q.0.weight f4 [128, 512]
00000000: c58e e2b7 8406 84b7 244e 82b8 2fdc 2a38
00000010: 6bec 2037 1a4b d836 51e6 9cb6 a49b 9037
00000020: 4ec6 4d36 ce23 8d37 d12e 4d37 92b4 5fb7
00000030: 8281 6e37 6b3e 28b8 ef97 77b7 4b7b 6337
00000040: 02cd e737 c09e 34b8 7e47 34b7 c68f ed37
00000050: 31fb fa37 dcf4 5eb6 6afd 99b7 064c 3d38
00000060: b153 4737 3b08 3338 2107 fbb7 c930 7db8
00000070: d613 8138 25f1 6fb6 5631 3ab7 6747 61b8
00000080: d5e0 a3b7 a692 1f35 46f6 9637 a941 9337
00000090: 2bcd 50b8 c3b0 fd37 9d0a 89b7 dd43 2337
000000a0: 9741 dfb7 506c 4438 3323 2f37 5f56 e037
000000b0: 576b 0eb7 c121 1938 fcdf 4438 dea6 d1b6
000000c0: 0f34 9137 0d98 9d37 17ca 82b8 d6c9 53b8
000000d0: 3031 cb37 05ab a7b6 05e2 49b8 7270 4bb7
000000e0: 3381 5737 8ef7 f235 37c1 48b7 b855 48b8
000000f0: 7d56 1eb7 2d71 3db6 c3b0 3ab8 250b 8d36
00000100: e4cb 8737 5dce 44b8 2119 5f38 af94 a2b7
00000110: c316 30b8 4ab4 3038 e720 90b7 dfcf 6837
00000120: b309 90b7 c95d 72b7 fc64 dfb5 5b20 60b8
00000130: 7d12 0938 73b1 8d37 86e5 90b7 cb31 6eb8
00000140: 840a 3738 4011 3eb6 1c36 5ab8 8dff 7ab8
00000150: 6f89 11b8 c522 35b8 3e79 d637 1e4b 07b7
00000160: 0885 5a38 2f5e 0eb8 3e81 81b8 34d6 9bb7
00000170: 44ae 8fb7 95eb 6938 f49c 4837 a3fa 65b8
00000180: e984 a437 5b2c 2037 5777 0e37 9e85 34b7
00000190: f984 2638 46a0 9bb7 0da0 5c38 fa4f 2cb8
000001a0: 98f3 3538 4642 87b7 7df3 5d38 3f77 a0b7
000001b0: d7c5 9437 1889 bdb7 8554 4538 383e 8db7
000001c0: 7ebc 06b8 f98b f1b6 45db 0bb8 00ed 7c37
000001d0: d84c 09b8 02b8 2bb8 a77c beb7 48f1 57b8
000001e0: 396f 0738 312d 37b8 729e 9d36 7e18 afb7
000001f0: 8901 d036 4ba0 f537 74f1 f237 79aa 3638
00000200: 4f93 9537 c2a1 2737 8901 b9b7 a772 7437
00000210: 4240 bfb7 5d4e aab7 6f18 b3b7 1a0b 54b8
00000220: 7156 3b38 809b ad37 a6d6 4db7 652d 88b7
00000230: 06a9 c837 f1ae 42b8 7900 6136 8786 acb7
00000240: 3c64 45b6 b4a0 d0b7 7209 ca37 5539 eab5
00000250: 4ad9 e5b7 00dc 09b7 a553 86b5 9e4f 5bb8
00000260: d334 f7b7 68ad 2138 ef5f 2238 a3de 7038
00000270: 1951 1db8 d301 9037 48f3 9db7 e35d 78b7
00000280: 6e0b cbb6 5c69 a835 0d21 2238 1436 84b7
00000290: 2099 5837 9fcf 5bb8 c642 0138 0a28 2136
000002a0: 367a 62b7 06d2 8138 6ae0 7338 da1f 3f38
000002b0: ad96 9eb5 66a6 20b8 4f4b 30b7 f4d2 1338
000002c0: 631d 9937 55f9 8a37 b929 73b7 a8b0 9d37
000002d0: f753 d837 9a65 4038 2f31 e337 70d6 69b7
000002e0: f10c 8836 3c7f abb7 0317 eab7 278c 8237
000002f0: 7dfa 6238 0ee9 1035 c3d2 1c37 0a92 8138
00000300: 15dc c036 d14b e7b7 01b4 9a37 18f4 5cb7
00000310: 374b 67b7 9b40 9337 2f49 4638 8002 8238
00000320: 87ab 9237 da72 da37 424a 1cb8 001a 4837
00000330: 0d14 0fb8 adf0 a337 a694 0ab8 2768 a3b7
00000340: cbe6 cc37 89fe 1eb8 186c 06b6 abbd 3fb7
00000350: ab9c 9337 bd17 1936 587c 21b8 6a58 84b7
00000360: 7df0 dab7 9fc4 7b37 9dba da37 607a 95b7
00000370: 57ed 8337 6ab0 d036 7cfb 57b8 5baf 9b37
00000380: 4cc9 8036 7438 f937 55ad ec35 0efc 58b7
00000390: 45f9 30b8 ce8c 4bb7 a1b5 3bb7 c2d5 90b7
000003a0: e421 ac37 fa39 8137 c422 93b7 1b32 43b7
000003b0: 8500 4ab8 b5c9 0c37 9d29 4db8 4f7b 2b38
000003c0: 2c69 d135 9673 e437 c570 4e38 b3b4 9237
000003d0: 452a 90b7 97e8 93b6 b6a6 e337 d903 1d38
000003e0: 6e5a 9437 73a1 d9b7 daa0 b437 08cf bf37
000003f0: 3bbb ad37 b1b0 22b8 2ca0 3a38 5f19 adb7
-2.7007782e-05 -1.573866e-05 -6.213438e-05 4.073622e-05 9.5917885e-06 6.4460446e-06 -4.6759747e-06 1.7238614e-05
3.066281e-06 1.6825183e-05 1.22298525e-05 -1.3333878e-05 1.4216059e-05 -4.0112453e-05 -1.4757722e-05 1.3558961e-05
2.763281e-05 -4.306319e-05 -1.0745482e-05 2.8319551e-05 2.9919293e-05 -3.3223105e-06 -1.8357026e-05 4.5131914e-05
1.188081e-05 4.268459e-05 -2.9924851e-05 -6.0365335e-05 6.154894e-05 -3.575414e-06 -1.1097951e-05 -5.371068e-05
-1.953581e-05 5.944552e-07 1.7996073e-05 1.7554341e-05 -4.9782142e-05 3.0242261e-05 -1.6336615e-05 9.731358e-06
-2.6614214e-05 4.6830915e-05 1.0439008e-05 2.67431e-05 -8.488852e-06 3.650948e-05 4.6938643e-05 -6.2481113e-06
1.7309589e-05 1.8786663e-05 -6.236525e-05 -5.0494295e-05 2.422239e-05 -4.996897e-06 -4.813263e-05 -1.2125924e-05
1.284508e-05 1.8102453e-06 -1.1965915e-05 -4.7763548e-05 -9.437671e-06 -2.8229072e-06 -4.4510478e-05 4.203425e-06
1.6188198e-05 -4.6922232e-05 5.3190746e-05 -1.9381141e-05 -4.198287e-05 4.2129577e-05 -1.7181459e-05 1.3876676e-05
-1.7170654e-05 -1.444616e-05 -1.6644185e-06 -5.3435895e-05 3.2680564e-05 1.6891141e-05 -1.7273018e-05 -5.6789995e-05
4.3640393e-05 -2.8322247e-06 -5.2025644e-05 -5.9842645e-05 -3.469869e-05 -4.3186144e-05 2.5567246e-05 -8.064117e-06
5.2099145e-05 -3.3943154e-05 -6.1752726e-05 -1.8577186e-05 -1.7128077e-05 5.577093e-05 1.1957472e-05 -5.483128e-05
1.9612215e-05 9.5470705e-06 8.4916455e-06 -1.0759946e-05 3.9701325e-05 -1.8552073e-05 5.2601146e-05 -4.108248e-05
4.3380627e-05 -1.6124115e-05 5.2917272e-05 -1.9129015e-05 1.7735101e-05 -2.2594395e-05 4.7047175e-05 -1.6837483e-05
-3.2123637e-05 -7.1986547e-06 -3.3344393e-05 1.5075551e-05 -3.273491e-05 -4.0940948e-05 -2.270781e-05 -5.1484705e-05
3.2290092e-05 -4.3672688e-05 4.69741e-06 -2.087303e-05 6.1990618e-06 2.9280918e-05 2.8961083e-05 4.3550946e-05
1.783078e-05 9.991638e-06 -2.2054433e-05 1.4570228e-05 -2.2798897e-05 -2.030207e-05 -2.134984e-05 -5.0555078e-05
4.466478e-05 2.0695617e-05 -1.2268929e-05 -1.6233602e-05 2.3920566e-05 -4.641613e-05 3.3527888e-06 -2.0566642e-05
-2.9413632e-06 -2.4870365e-05 2.4084675e-05 -1.7451044e-06 -2.740011e-05 -8.217059e-06 -1.0008122e-06 -5.2287818e-05
-2.9469293e-05 3.854689e-05 3.8713155e-05 5.7427806e-05 -3.7507245e-05 1.7166987e-05 -1.8829145e-05 -1.4803812e-05
-6.051202e-06 1.2547639e-06 3.865459e-05 -1.5760808e-05 1.29102555e-05 -5.240703e-05 3.0818184e-05 2.4014175e-06
-1.3499104e-05 6.190319e-05 5.8144717e-05 4.5567613e-05 -1.181577e-06 -3.8301943e-05 -1.0507952e-05 3.5243997e-05
1.8252706e-05 1.6566986e-05 -1.4493643e-05 1.879812e-05 2.5788306e-05 4.587099e-05 2.7083412e-05 -1.393781e-05
4.0546224e-06 -2.0444037e-05 -2.790569e-05 1.5562471e-05 5.4115884e-05 5.398332e-07 9.347396e-06 6.178401e-05
5.747667e-06 -2.757265e-05 1.8442051e-05 -1.3169854e-05 -1.3786185e-05 1.755385e-05 4.7275036e-05 6.199349e-05
1.748443e-05 2.6041107e-05 -3.7262456e-05 1.1926983e-05 -3.411253e-05 1.9543188e-05 -3.3040204e-05 -1.9479614e-05
2.4426166e-05 -3.790719e-05 -2.0030475e-06 -1.1428648e-05 1.759672e-05 2.2812594e-06 -3.8501195e-05 -1.5776797e-05
-2.6099611e-05 1.5006545e-05 2.6074524e-05 -1.781917e-05 1.5726937e-05 6.2194204e-06 -5.1494208e-05 1.8559096e-05
3.8381313e-06 2.9709401e-05 1.7633816e-06 -1.2933289e-05 -4.219382e-05 -1.21325265e-05 -1.1188357e-05 -1.7265676e-05
2.051978e-05 1.5404996e-05 -1.7539955e-05 -1.1634572e-05 -4.8161037e-05 8.391614e-06 -4.8914564e-05 4.0884417e-05
1.5602322e-06 2.7233542e-05 4.9219252e-05 1.74887e-05 -1.7185821e-05 -4.4080184e-06 2.713814e-05 3.74353e-05
1.7685084e-05 -2.5943596e-05 2.1532574e-05 2.286538e-05 2.0710393e-05 -3.8788367e-05 4.4495027e-05 -2.0635021e-05

b_classifier.q.0.bias f4 [128]
00000000: 3087 9037 76de 9ab7 4bd7 82b8 b99b a437
00000010: ed78 0b38 5a82 9b37 d0f3 fa37 bcea deb7
00000020: 254d f337 f1b9 5eb8 46e6 cdb6 ab7e 7338
00000030: 8003 5bb8 aa8d 9537 647e 0fb8 1a63 f036
00000040: c5af c237 17eb 2437 c8f4 d737 6107 2238
00000050: 4e46 99b7 8ac1 5338 b7fe 9337 f25d 6438
00000060: 2a5e 5e38 b1f7 afb7 5e83 b5b7 fa8e 58b8
00000070: 4660 d3b7 8da3 36b8 977d a2b7 b261 52b8
00000080: 039b a237 9278 57b7 53a7 5737 6325 9637
00000090: ec4b 96b7 f415 40b6 5ee4 9337 99cb be37
000000a0: 7b47 6038 18a3 0038 1d1e 5738 1585 40b7
000000b0: 800d 69b8 0666 4c38 5491 48b8 9828 83b7
000000c0: 0414 bd37 0083 3237 55e4 4038 358f 9337
000000d0: 6ada 6138 2377 44b8 2c70 eeb7 1c58 8bb7
000000e0: 6aaf 4938 29b6 8a37 7098 84b7 4e44 27b8
000000f0: 2c58 4f37 a6a2 88b6 7a83 4e35 d980 ea37
00000100: cf6e 0d37 2255 3db8 8abc 25b7 1a96 a537
00000110: f0ba 8138 0d19 0f37 597c d0b5 f7a5 0fb8
00000120: 5d8d 2db8 1058 5f38 89a7 39b6 7468 6438
00000130: f433 91b7 6032 62b8 c472 7837 3e71 73b7
00000140: 0cb6 1738 59a3 34b8 aee1 e137 d3e5 59b7
00000150: e53a cfb7 9877 3138 7ac1 2fb8 00e0 15b8
00000160: 6ce7 69b7 8c64 9cb7 5bb8 d736 7701 2f37
00000170: 986e a137 2123 3137 bbbe 94b7 2385 3cb8
00000180: 766c 08b8 567b 66b7 fcef 0cb8 bf7f 3b37
00000190: ac2d d935 33ed 8237 f220 70b8 bd40 07b8
000001a0: 8d61 4cb8 38e1 3836 4456 6738 0361 9637
000001b0: 4d4e edb4 4c6e 68b7 3037 4d38 141a 85b4
000001c0: 5964 a3b7 18e9 46b8 1c70 53b8 02c8 52b7
000001d0: c4f9 95b7 a645 d637 4f96 82b8 4da3 4838
000001e0: 423d 4538 5f63 a0b6 49e1 2ab6 9942 0c36
000001f0: 00c3 9d37 8d3e 66b8 ebbd 06b8 963b 59b8
1.722909e-05 -1.8461822e-05 -6.2389845e-05 1.9622837e-05 3.3252803e-05 1.853814e-05 2.9915856e-05 -2.6573769e-05
2.900378e-05 -5.3102096e-05 -6.1362834e-06 5.8053683e-05 -5.221693e-05 1.7828152e-05 -3.4211567e-05 7.1640943e-06
2.3208451e-05 9.829898e-06 2.5743982e-05 3.8630682e-05 -1.827176e-05 5.0486567e-05 1.7642376e-05 5.444693e-05
5.301662e-05 -2.0976966e-05 -2.1638054e-05 -5.163157e-05 -2.519799e-05 -4.35445e-05 -1.9370387e-05 -5.0158887e-05
1.9384088e-05 -1.2843071e-05 1.2853957e-05 1.7898803e-05 -1.7916747e-05 -2.8623008e-06 1.7630107e-05 2.2744573e-05
5.3472333e-05 3.066947e-05 5.128804e-05 -1.1475077e-05 -5.55641e-05 4.8732407e-05 -4.7819063e-05 -1.563532e-05
2.2539876e-05 1.0640128e-05 4.5989018e-05 1.7590452e-05 5.3847594e-05 -4.6840996e-05 -2.8424045e-05 -1.661112e-05
4.80855e-05 1.6535707e-05 -1.580661e-05 -3.9879516e-05 1.2358691e-05 -4.0720506e-06 7.6932304e-07 2.7954973e-05
8.430055e-06 -4.5140398e-05 -9.878664e-06 1.973943e-05 6.186019e-05 8.529297e-06 -1.5533398e-06 -3.4248424e-05
-4.137807e-05 5.3249358e-05 -2.7664667e-06 5.4456716e-05 -1.730954e-05 -5.3929514e-05 1.4808673e-05 -1.4510295e-05
3.617075e-05 -4.3067474e-05 2.692718e-05 -1.2987718e-05 -2.4703748e-05 4.231147e-05 -4.190344e-05 -3.5732985e-05
-1.3941764e-05 -1.864347e-05 6.428961e-06 1.0431154e-05 1.9244195e-05 1.0558201e-05 -1.773179e-05 -4.4946686e-05
-3.252594e-05 -1.3737785e-05 -3.3602104e-05 1.1175812e-05 1.6181052e-06 1.5607662e-05 -5.725114e-05 -3.22468e-05
-4.872824e-05 2.7549231e-06 5.5155033e-05 1.7926568e-05 -4.420166e-07 -1.3853958e-05 4.8927206e-05 -2.4792155e-07
-1.9477842e-05 -4.7423964e-05 -5.041073e-05 -1.2563543e-05 -1.787849e-05 2.554322e-05 -6.22688e-05 4.78358e-05
4.702551e-05 -4.77994e-06 -2.5463107e-06 2.090039e-06 1.8806662e-05 -5.4894528e-05 -3.2124964e-05 -5.1792325e-05

b_classifier.q.2.weight f4 [128, 128]
00000000: e50e d9b7 79e9 2738 bd61 0fb8 a5e6 8635
00000010: c7c3 17b5 dd63 06b8 b786 8ab7 fbd9 0338
00000020: b212 7fb7 7f6c 48b8 1d3f 5237 eb5d 99b7
00000030: b68c 6b37 5ca8 1eb8 9572 3eb8 f246 f737
00000040: 505d 0838 05bc 97b7 6ca7 df37 da6a 5037
00000050: 84b8 3f37 a556 71b7 5950 2938 e816 fa37
00000060: 4daa 0f38 fc5f 9037 9b80 4f38 b998 5ab8
00000070: c64d b537 fcce 0138 e879 45b7 72db 9037
00000080: 40cc fdb7 1641 a3b7 7bab 7f35 4090 c537
00000090: 3def 36b8 bfbc 0938 44f6 ff36 4685 5c38
000000a0: 665f e1b6 de12 df36 76d9 0837 6de4 a3b7
000000b0: 1d66 7fb8 f7ab f537 d69a 6538 24c6 f637
000000c0: 3f26 7438 71ac 0738 f691 c2b7 dd8b 0e38
000000d0: b903 b8b7 bc4f aeb6 596d 9237 a245 6738
000000e0: f605 bdb7 1856 a837 b539 5038 19f7 2fb8
000000f0: 7d1b bd37 4544 4d35 8d94 23b8 05b8 59b8
00000100: 02f3 24b8 c282 f8b7 f0f9 9237 6bdf e3b7
00000110: 33d8 4038 d951 aa37 98c4 cbb5 f307 a2b7
00000120: 8fde 9037 8bcf 0ab8 fbb8 4037 cb35 9737
00000130: 0288 ceb7 e4c0 1037 df08 6d37 c516 9bb7
00000140: 3063 59b8 4241 9437 be8c 4ab8 8f33 9b37
00000150: d153 cdb7 596d ceb6 6f07 4ab7 9116 e6b6
00000160: 4230 6738 83bf 5538 dbd7 7eb6 fc88 df37
00000170: d766 abb6 e027 edb6 9420 7a35 163c 4838
00000180: 374a f0b5 609a 3037 ce25 9537 35a6 f136
00000190: fc2b 3337 d3c2 2138 0a66 d1b7 e878 32b7
000001a0: ee8e 25b7 1d8b 0837 712a 9537 d784 aab7
000001b0: a6e0 6cb7 6b5b 6038 4cca 7d37 ebb7 a937
000001c0: 1784 d8b7 c998 3138 1318 b0b7 31e2 93b7
000001d0: e09d 3b37 c495 73b6 5f74 3f38 57ce 2738
000001e0: 86db 8eb7 229d af36 8912 87b7 fddb 81b7
000001f0: 4b39 bd37 196d f236 53e7 9936 3b6e 7eb8
00000200: 3c2b 24b8 9133 fcb7 1b67 0d38 148b b137
00000210: db9c 25b8 7df9 53b8 8db2 7737 aff8 1338
00000220: 9afa ab37 c50c 2238 e882 a3b7 032f 73b7
00000230: 010b 93b7 63f2 62b8 31ab 7638 2a91 0eb8
00000240: 0c03 3737 2932 f7b7 855f 2538 c166 0938
00000250: 9601 3ab8 d6c5 54b7 b7ae 9a37 88e4 0a38
00000260: b8e7 6138 0b2d 74b7 f9b5 8ab6 6278 14b5
00000270: 7c1e 7937 3655 ddb7 621c 2ab8 d252 ad37
00000280: 80e2 cc36 ebca 91b7 c2dd 3e38 398e 92b7
00000290: 8a31 4f38 7dd2 0ab7 803a 4a38 53c5 1eb8
000002a0: 408a 4037 9056 bab6 702b 7eb7 233d 03b5
000002b0: 06b2 40b8 3cb9 dcb7 6854 5638 8065 6d36
000002c0: a682 b837 8d37 0d38 b7c2 4b38 12ad 5838
000002d0: 1547 a2b7 402e 8a37 19f1 f0b7 5382 5c38
000002e0: 210e 2037 a129 f3b7 9418 57b8 5cc5 5c38
000002f0: 3476 9e37 7168 9637 aba8 e937 f548 81b7
00000300: 167b e537 1920 2938 e625 a437 efbb f436
00000310: efee e237 35c6 66b8 5d3a 76b8 d105 94b7
00000320: cbed 8fb7 13bb 8eb7 7910 9fb7 63ab 6bb8
00000330: d9fe 4a37 6351 9d37 063b 94b7 e805 e9b7
00000340: c8df 57b8 15aa 11b8 85b6 7a37 d665 7f38
00000350: 51df 08b8 0cb5 66b8 753e 9c37 a3bd c937
00000360: bce3 22b6 01ef a7b7 f392 acb7 01f6 7937
00000370: f95b 07b8 76f2 3e38 a85b 33b6 ffcd e137
00000380: 6178 0137 938a 5d38 9848 e837 5a20 da37
00000390: 5b96 3e38 f790 9837 e80d 92b7 5eea d037
000003a0: 43b7 6338 e1c8 5cb8 e7f9 24b8 62e7 1eb8
000003b0: c4e1 6f38 db67 6e37 03a6 d537 2afc f3b6
000003c0: f9dd 59b8 8eca 3438 9377 1938 d63a 9db7
000003d0: 304b 57b8 5419 a9b7 4ec4 83b7 d0c4 2cb8
000003e0: 07cc 5fb8 5b8d 27b8 8cd1 8fb7 c6bc 94b7
000003f0: 5212 d2b6 2643 b036 55a0 18b8 4063 1bb7
-2.5875352e-05 4.003334e-05 -3.4184883e-05 1.0050904e-06 -5.6536777e-07 -3.2041095e-05 -1.6513613e-05 3.1435844e-05
-1.5203537e-05 -4.778476e-05 1.253167e-05 -1.8282755e-05 1.4039853e-05 -3.7826932e-05 -4.5406243e-05 2.9477731e-05
3.251183e-05 -1.8088156e-05 2.6661633e-05 1.2422644e-05 1.1427448e-05 -1.4384893e-05 4.036757e-05 2.9812989e-05
3.425246e-05 1.7210834e-05 4.947242e-05 -5.2117484e-05 2.1613097e-05 3.0948766e-05 -1.17704985e-05 1.7268325e-05
-3.0255062e-05 -1.9461422e-05 9.524444e-07 2.3551402e-05 -4.361499e-05 3.283913e-05 7.6282613e-06 5.2576208e-05
-6.7166284e-06 6.6481143e-06 8.156863e-06 -1.9537483e-05 -6.0891838e-05 2.9286353e-05 5.4742057e-05 2.9417752e-05
5.8209753e-05 3.2347107e-05 -2.319457e-05 3.3985696e-05 -2.1936243e-05 -5.1948864e-06 1.7455475e-05 5.5139542e-05
-2.2533332e-05 2.0067251e-05 4.964481e-05 -4.195338e-05 2.2543356e-05 7.6467796e-07 -3.9000577e-05 -5.1908213e-05
-3.9326966e-05 -2.9624793e-05 1.7520942e-05 -2.7164546e-05 4.597772e-05 2.0303693e-05 -1.5181895e-06 -1.9315607e-05
1.7269775e-05 -3.3095053e-05 1.1487161e-05 1.8025652e-05 -2.4620447e-05 8.62798e-06 1.4128366e-05 -1.8488043e-05
-5.1829207e-05 1.7673363e-05 -4.829163e-05 1.8501449e-05 -2.4476934e-05 -6.152008e-06 -1.2041869e-05 -6.857161e-06
5.5119635e-05 5.0961517e-05 -3.7974594e-06 2.664746e-05 -5.1081693e-06 -7.0677925e-06 9.3179665e-07 4.7739675e-05
-1.7902993e-06 1.0526361e-05 1.7779788e-05 7.2017087e-06 1.0679472e-05 3.8566835e-05 -2.4962257e-05 -1.0637777e-05
-9.868045e-06 8.1386215e-06 1.7781947e-05 -2.0327438e-05 -1.4119001e-05 5.34909e-05 1.5127076e-05 2.0232013e-05
-2.5810716e-05 4.234238e-05 -2.0992045e-05 -1.7629094e-05 1.1182827e-05 -3.6296997e-06 4.5646328e-05 4.000807e-05
-1.7029943e-05 5.233699e-06 -1.6101885e-05 -1.5480438e-05 2.2557235e-05 7.2248627e-06 4.586685e-06 -6.066098e-05
-3.9140912e-05 -3.0064753e-05 3.3713044e-05 2.1164808e-05 -3.948515e-05 -5.0538674e-05 1.4763919e-05 3.5279136e-05
2.0501484e-05 3.8635702e-05 -1.9492072e-05 -1.4494874e-05 -1.752889e-05 -5.410834e-05 5.8810405e-05 -3.3990633e-05
1.0908359e-05 -2.9468052e-05 3.9428025e-05 3.2759042e-05 -4.4347333e-05 -1.2682247e-05 1.8439589e-05 3.31146e-05
5.3859985e-05 -1.4554021e-05 -4.133905e-06 -5.5309476e-07 1.4848654e-05 -2.6384932e-05 -4.0557592e-05 2.0661773e-05
6.106042e-06 -1.7379838e-05 4.5506058e-05 -1.7470784e-05 4.9398783e-05 -8.274449e-06 4.8215035e-05 -3.7853908e-05
1.1476281e-05 -5.553309e-06 -1.5149693e-05 -4.889027e-07 -4.5942164e-05 -2.63123e-05 5.1100185e-05 3.5374833e-06
2.1995347e-05 3.3668755e-05 4.8580314e-05 5.1659597e-05 -1.9345005e-05 1.6472419e-05 -2.87225e-05 5.257346e-05
9.540033e-06 -2.8987242e-05 -5.1282885e-05 5.2635893e-05 1.889011e-05 1.7930028e-05 2.7854307e-05 -1.5411972e-05
2.7356244e-05 4.0322633e-05 1.9567971e-05 7.293645e-06 2.7052562e-05 -5.5020868e-05 -5.8705326e-05 -1.7645683e-05
-1.715766e-05 -1.7014832e-05 -1.8961948e-05 -5.6187982e-05 1.2099475e-05 1.8753757e-05 -1.767046e-05 -2.7778515e-05
-5.1468407e-05 -3.4729095e-05 1.4943657e-05 6.089158e-05 -3.2632906e-05 -5.5004886e-05 1.8625733e-05 2.4049374e-05
-2.427244e-06 -2.0019246e-05 -2.0572426e-05 1.4898834e-05 -3.2272164e-05 4.552534e-05 -2.672643e-06 2.6918015e-05
7.717027e-06 5.2819563e-05 2.769036e-05 2.600269e-05 4.543956e-05 1.8187317e-05 -1.7411032e-05 2.4904668e-05
5.4291693e-05 -5.263917e-05 -3.9333387e-05 -3.7885628e-05 5.71923e-05 1.4210086e-05 2.5468884e-05 -7.27132e-06
-5.194356e-05 4.3103988e-05 3.6589405e-05 -1.8743256e-05 -5.133002e-05 -2.0158164e-05 -1.5707828e-05 -4.119129e-05
-5.335736e-05 -3.994755e-05 -1.7144506e-05 -1.773088e-05 -6.2606205e-06 5.253026e-06 -3.6388945e-05 -9.261828e-06

b_classifier.q.2.bias f4 [128]
00000000: 2fae 8238 3043 3537 25ad 3438 b5ad 9237
00000010: f376 0ab8 bc35 b9b7 4d10 5e37 51fa 9a37
00000020: b221 b037 6b78 52b8 80e4 1db8 61c5 d6b7
00000030: 838c e2b7 0814 8c37 98aa deb6 84af b937
00000040: b77d 69b8 a6ea 94b7 6101 64b8 aa0b 70b8
00000050: f0d3 dcb7 1487 ccb7 4d1d 5bb8 4186 4fb8
00000060: 93f0 0eb8 e3a4 5fb8 abf3 9137 5359 27b7
00000070: 57c0 d5b7 5246 a3b7 669d 2638 9609 3b36
00000080: 60b9 2c38 0e29 cab7 fb74 58b8 a90e 1937
00000090: a8d3 c1b7 4e5b 4f37 5a2a 3138 ce8e 9237
000000a0: 228e 5db8 22df aab7 4179 75b8 b587 05b8
000000b0: 1758 d7b5 0d7a 76b7 9485 3c38 ebba 2638
000000c0: 6d54 0838 7345 5f38 c859 2e38 edda fab7
000000d0: 8765 3d38 e17f be37 7733 afb7 c498 b6b7
000000e0: 8341 3bb8 71c9 60b8 3994 6338 2de5 7f38
000000f0: 55c7 f5b7 022b f037 ab31 30b8 ca99 7638
00000100: 3fc8 feb7 c5ac 1038 039d 2bb7 8b33 5db7
00000110: 9d76 2b37 f6b0 3537 8d8b a5b7 2154 00b8
00000120: c4fb 84b7 be36 3a37 a998 0ab8 da11 9f37
00000130: 621f 1b38 9c31 a937 bf3b 2bb8 4f92 72b7
00000140: 880e d236 04ce 81b7 7b18 0938 01a5 6937
00000150: 086f 47b8 3d1e e836 6862 6a38 5cd8 50b8
00000160: 31a6 5c37 f117 8437 0368 6838 7dac 5338
00000170: 871f 3fb5 df5e 4738 7337 d2b6 45c5 0738
00000180: fd2b 0838 c072 6938 7caf 95b7 733e 4c38
00000190: c694 fdb6 bafe 6d38 3f31 93b7 5210 51b8
000001a0: 3813 19b7 6bdf 7db7 1fdc 7537 37f5 8fb7
000001b0: d439 75b8 9051 55b8 b9be 7638 b882 4f36
000001c0: 1bd8 5537 4609 dab7 0d1b aeb7 03f7 44b8
000001d0: 5e52 adb7 5e42 d737 92c4 6eb8 8152 00b8
000001e0: 9b51 5637 0fe3 28b8 a19d ba37 f222 2eb7
000001f0: f106 9e37 ab3b 0d38 3ff0 19b8 d3c3 aeb7
6.231327e-05 1.0804084e-05 4.3076598e-05 1.7485445e-05 -3.3012544e-05 -2.207874e-05 1.32360265e-05 1.8474793e-05
2.0996526e-05 -5.018005e-05 -3.7644524e-05 -2.56027e-05 -2.700673e-05 1.6698628e-05 -6.6359753e-06 2.213545e-05
-5.566861e-05 -1.7752242e-05 -5.436072e-05 -5.7231322e-05 -2.6324735e-05 -2.4381596e-05 -5.2240957e-05 -4.947768e-05
-3.407949e-05 -5.3320906e-05 1.7398814e-05 -9.974773e-06 -2.5481144e-05 -1.946386e-05 3.9724073e-05 2.7870751e-06
4.118064e-05 -2.4099394e-05 -5.160736e-05 9.122924e-06 -2.3105953e-05 1.235942e-05 4.223953e-05 1.7471055e-05
-5.2822877e-05 -2.0369484e-05 -5.852548e-05 -3.1836058e-05 -1.6044386e-06 -1.469116e-05 4.4947097e-05 3.9751565e-05
3.2503554e-05 5.3232023e-05 4.1568448e-05 -2.9904268e-05 4.5155666e-05 2.2709313e-05 -2.088559e-05 -2.1767228e-05
-4.4645287e-05 -5.359337e-05 5.425906e-05 6.1010174e-05 -2.9299097e-05 2.8630257e-05 -4.2007927e-05 5.8794198e-05
-3.0372406e-05 3.449318e-05 -1.0228951e-05 -1.3184627e-05 1.0220011e-05 1.0829643e-05 -1.9734516e-05 -3.059593e-05
-1.5852864e-05 1.109921e-05 -3.304394e-05 1.896259e-05 3.6984107e-05 2.0169471e-05 -4.082522e-05 -1.4458389e-05
6.2601794e-06 -1.5473932e-05 3.2686145e-05 1.39263e-05 -4.7548703e-05 6.917659e-06 5.5881595e-05 -4.9792565e-05
1.3151716e-05 1.5746775e-05 5.540998e-05 5.0466962e-05 -7.1198923e-07 4.7533653e-05 -6.264943e-06 3.237023e-05
3.2465894e-05 5.56584e-05 -1.78439e-05 4.869555e-05 -7.557307e-06 5.6742436e-05 -1.7546698e-05 -4.9844683e-05
-9.123985e-06 -1.5131994e-05 1.4654389e-05 -1.7161115e-05 -5.846641e-05 -5.085912e-05 5.8828595e-05 3.0921492e-06
1.2746105e-05 -2.5991943e-05 -2.0755013e-05 -4.696009e-05 -2.0661562e-05 2.5660902e-05 -5.6926692e-05 -3.0594416e-05
1.2774394e-05 -4.0265786e-05 2.224633e-05 -1.03793445e-05 1.88383e-05 3.367259e-05 -3.670179e-05 -2.0833604e-05

b_classifier.fcc.weight f4 [2, 2, 512]
00000000: b315 5b3b 9f39 b6bb de59 a33b 7a27 6a3c
00000010: 7d8d 85bc c713 ce3c a749 5b3c 651b 563c
00000020: ebde e0bc 2db8 edbc faf8 af3c b5d0 d63b
00000030: 481f ae3c b9d2 abbb 0a6e 343c e907 26bc
00000040: 20c3 fc3c a5a3 653b 9a79 793c 9cfe 213c
00000050: ddc1 85bb dfaf b9bc f27a bf3c 9780 0c3b
00000060: 1068 42bc c439 063b f26f bcbc edf2 09bc
00000070: 55ef 46bc 8fea 21bc f2b8 09bc c648 3abc
00000080: a3e9 093c fd7e 3d3c 832f 703c 94c8 2e3c
00000090: 1231 c33c 9671 9a3c f194 d1bb 1d15 24bc
000000a0: b568 b53b 9dd8 23bc 307a 953b 6bb5 323c
000000b0: 77c8 593c 56c1 fe3b 286d d63c b1e8 573b
000000c0: f410 86ba 9ce8 32bc bbfb 81bc a752 a9bb
000000d0: 6fc9 3cbb 8ca7 7c3c 186f e43b 20b7 1b3c
000000e0: 9e61 44bb 782b 803c 830d 06bd 62a1 923c
000000f0: faba 20bb ec7f 8b3c 414d bd3a ae76 f3bb
00000100: 783a 98bc 6486 2f3c 5451 03bd ffca 5bbc
00000110: 4f66 44bc 510f 5fbb e096 babb e263 a0bc
00000120: 6b02 913a d1d6 43bc 719e 153b a9e8 383c
00000130: 038d 663c 6194 b1bc 68c4 293c 6e69 26bc
00000140: e0f5 0f3c c5cd 96bc 77a4 623b 70b9 0fbc
00000150: 58c7 e9bb 5903 d53b 9e3a c9b9 6f0b 88bc
00000160: da81 8b3c 5c38 60bc de4c 12bc 36ae ab3a
00000170: 9406 e7bc c331 943c f285 ae3b 766f 10bc
00000180: 451d 01bb f288 55bc d499 dfbc 7258 a4bb
00000190: 62c1 043c 7198 35bc 77f1 a0bc 4068 4e3c
000001a0: 6ac9 1bbc e39c 0ebc 8ea8 07bc 110e 09bd
000001b0: b9c7 163b 9cd3 963c ada0 353c b222 c73a
000001c0: 8653 833c 3602 14bc 9c81 143c 37be f0ba
000001d0: ea87 8fbb c4de d0bc 6c27 83bc 074f 5f3c
000001e0: 1d73 8c3a 458e 3abb 484a 61bb e4e8 c837
000001f0: f5b2 98bc a282 11bc ce47 aabc e84b 393c
00000200: eb61 8ebc 3187 a5bc 002d 453b a684 e0bb
00000210: 2d75 3abc fc4f f63b 9120 953c b33e 96bb
00000220: 2737 a93c 2741 e83b 7bd0 b6bb 1f02 603c
00000230: 5d6e 923c 3e06 573c 2562 0dbc 7de1 ccbc
00000240: 7eca 4c3b 73d8 0e3b 334b ffbb 0550 a6bb
00000250: 9915 193c bdaf 313a 95da b7bc 2499 ae3b
00000260: 5c5b a7bb ba62 1f3c 90b0 273c 865c cbbb
00000270: 096f 3f3c 2e53 a23c 4a4f 673c 6d14 b4bc
00000280: feb4 01bc df1b 92bb d07a 343c f228 04bb
00000290: f73d 8d3c 17ab b13c da14 243b 674e 09bb
000002a0: 8ff6 963c b2fe 5ebc 296a a03c 5750 be3b
000002b0: 13c0 eb3c c773 493b 14bd 463a 6263 6abc
000002c0: 1d0a 823c efa8 933c bd2e 81bc b065 683c
000002d0: a1f7 fb3b e6fc d037 1390 75bc 9115 853c
000002e0: 7a28 babc 2174 273c 59fb 05ba eb04 a3bc
000002f0: 73a5 5c3c 7ce2 a83b e4e5 83bc b474 013c
00000300: 6e62 81bb 4de8 ea3c eb0f d53b 75e9 38bc
00000310: 6f5e 5c3c e172 5c3b aa7c 4cbb 6e10 53bc
00000320: bfc6 193c 2215 10bc 9c10 39bc 3003 103c
00000330: 2029 b23b fbc7 17bb 9952 2f3c c85f c63b
00000340: 15db fe3b 5e23 cc3a f9a5 be3b aa7d 3dbb
00000350: a3ab 18bc d985 1a3c 2252 a23c de58 db3a
00000360: b0db 06bc 1205 883c 51ea debb 41f1 a4bb
00000370: 1274 b4bc cacf 1e3b eb3e 7a3c 6a93 143c
00000380: 8eff b2bc 7568 853c 718b cc3b 5344 0ebb
00000390: 9638 86bc a15e e33c fa36 c4bb 2d5f 1d3c
000003a0: e680 533c de94 553b 49f4 a7bc 8d39 b6bb
000003b0: 0535 ddbb 3cb0 7c3b 6b97 8a3c 3a80 593c
000003c0: 662a 21bc 1fdd 973c 5126 9c3b a7cd b13c
000003d0: 9ea6 5bbc 4ccf 863b e11e 0dbc 68ba 353c
000003e0: 6bb4 f2ba 3c14 20bc 4859 5c3c d357 003b
000003f0: 0cbb 403b 5dd7 2abc c273 5c3c 185e 653c
0.0033429682 -0.005561068 0.0049850782 0.0142916385 -0.016302818 0.025155915 0.013384259 0.013068055
-0.027450046 -0.029018486 0.021481026 0.0065556415 0.02125515 -0.005243626 0.0110125635 -0.010133722
0.030854762 0.0035040167 0.015226746 0.009887364 -0.004081948 -0.02266687 0.023374055 0.002143895
-0.011865631 0.0020481208 -0.023002598 -0.008419734 -0.012142022 -0.009882583 -0.008405911 -0.01136989
0.00841752 0.011565921 0.014659765 0.010667939 0.02382711 0.01885299 -0.006395929 -0.010014799
0.0055361637 -0.010000375 0.004561685 0.010907511 0.013292423 0.0077745123 0.026175097 0.0032945091
-0.0010228441 -0.010919716 -0.015867105 -0.0051673236 -0.0028806587 0.015420806 0.006971251 0.00950411
-0.002996541 0.015645728 -0.03272773 0.017899219 -0.002452551 0.017028771 0.0014442579 -0.007429919
-0.018582568 0.010713194 -0.032059982 -0.013415097 -0.011987283 -0.003403623 -0.005694255 -0.019578878
0.0011063343 -0.011953072 0.0022830034 0.011285939 0.014071706 -0.021677198 0.010361768 -0.010156972
0.0087866485 -0.018408665 0.0034582892 -0.008772239 -0.0071343593 0.006500643 -0.0003838138 -0.016607014
0.017029691 -0.013685312 -0.008929459 0.0013098184 -0.028201379 0.018090134 0.005326026 -0.008815637
-0.0019701284 -0.013033139 -0.02729503 -0.0050154263 0.008102747 -0.011083708 -0.01964639 0.012598097
-0.00950847 -0.008704397 -0.008279933 -0.03346068 0.0023007228 0.01841145 0.011085671 0.0015192835
0.016031038 -0.00903373 0.009064104 -0.0018367235 -0.004380216 -0.025496848 -0.016010009 0.013629681
0.0010715459 -0.0028466147 -0.003437655 2.3950306e-05 -0.01864002 -0.008881243 -0.020786192 0.011309601
-0.017380675 -0.020206066 0.0030086637 -0.0068517504 -0.011380476 0.007516859 0.018204005 -0.004585111
0.020656181 0.007087845 -0.005579052 0.013672381 0.017874891 0.013124047 -0.0086293565 -0.025009865
0.0031248624 0.0021796494 -0.007790947 -0.005075457 0.009343528 0.0006778201 -0.022443095 0.0053283144
-0.0051073264 0.009728128 0.010234967 -0.006206098 0.011684188 0.019815054 0.014118025 -0.021982396
-0.007916687 -0.004458889 0.011015609 -0.0020166007 0.017241461 0.021688027 0.0025036843 -0.0020951272
0.018428115 -0.013610529 0.019581871 0.005807917 0.028778112 0.0030739175 0.00075812754 -0.014305921
0.015873963 0.01802489 -0.015769357 0.0141844 0.007689432 2.4913297e-05 -0.014987963 0.016245635
-0.022724379 0.010220558 -0.0005111001 -0.019899806 0.013467181 0.005153952 -0.016100831 0.007901359
-0.0039485013 0.028675223 0.0065021417 -0.011286129 0.013450249 0.003363781 -0.0031202235 -0.012882335
0.009385764 -0.008794101 -0.011295464 0.008789822 0.0054370314 -0.002315997 0.010700845 0.0060538985
0.0077775815 0.0015574505 0.0058181253 -0.0028914013 -0.009318265 0.009431326 0.019814555 0.0016734859
-0.0082310885 0.01660398 -0.006802835 -0.0050336425 -0.022028003 0.0024232739 0.01527379 0.009068349
-0.021850374 0.01628516 0.0062422086 -0.0021708205 -0.016384404 0.027755084 -0.005987999 0.009605211
0.01290915 0.0032589952 -0.020502226 -0.00556106 -0.006750705 0.0038557192 0.016917905 0.0132752005
-0.009836769 0.018538056 0.00476531 0.021704508 -0.013406424 0.004114067 -0.008613319 0.011091806
-0.0018516904 -0.009770449 0.013449021 0.0019583597 0.0029408364 -0.010427323 0.013455333 0.0139994845

b_classifier.fcc.bias f4 [2]
00000000: d030 103f 40db 0bbf
0.5632448 -0.54631424
