processing/mil classifier/weights/05142023/1.pth (torch, 343887 bytes, 8 tensors)

module.i_classifier.fc.0.weight f4 [2, 512]
0	0x3dc4a564	0.09601858
1	0xbdddf810	-0.1083833
2	0x3d6b2405	0.057407398
3	0xbd92a9f5	-0.07161323
4	0xbd8221b9	-0.06354088
5	0x3da03861	0.078232534
6	0x3e02229a	0.12708512
7	0x3e0d2943	0.13785271
8	0xbda63e7a	-0.08117385
9	0xbd88916f	-0.06668364
10	0x3d8b8e7d	0.06814287
11	0xbc724185	-0.014786129
12	0x3ddb0e44	0.1069608
13	0x3d915584	0.07096389
14	0xbd912a18	-0.07088107
15	0x3e005848	0.12533677
16	0x3d7a9b45	0.061183233
17	0x3d47dbc0	0.048793554
18	0xbda71d5e	-0.08159898
19	0xbd7a6dfa	-0.061140038
20	0xbd7c3f4b	-0.0615838
21	0xbe14c577	-0.14528452
22	0xbd813fbb	-0.06310984
23	0xbcc34746	-0.023837697
24	0x3bf68665	0.0075233453
25	0xbda027f2	-0.07820119
26	0xbde0bd8d	-0.10973654
27	0xbda361a3	-0.07977607
28	0xbdb6dba0	-0.08928609
29	0xbd1826cb	-0.03714637
30	0xbd93973f	-0.07206582
31	0x3d8f9225	0.07010297
32	0x3db73e59	0.08947439
33	0x3d28bbd0	0.041194737
34	0x3deb2c43	0.11483052
35	0x3d6a4e33	0.057203483
36	0xbd3594bb	-0.044331294
37	0xbd0edd2e	-0.034878902
38	0xbdac48b0	-0.084123015
39	0xbd5bc319	-0.053652856
40	0xbd534d91	-0.051587645
41	0x3d54a13b	0.051911574
42	0x3c8f4595	0.017489234
43	0x3d62f256	0.05540689
44	0x3d820896	0.06349294
45	0x3d683e83	0.05670024
46	0x3d1e3ce4	0.03863229
47	0xbda6e592	-0.08149256
48	0xbcef082d	-0.029178703
49	0x3d44acb4	0.048016265
50	0x3c407a47	0.011747903
51	0x3dc9d3f1	0.09854878
52	0xbdec52e3	-0.11539247
53	0x3daf35c1	0.085551746
54	0x3cf7018a	0.030152101
55	0x3d4759ad	0.048669506
56	0xbd871451	-0.06595672
57	0x3c65ae3f	0.014018594
58	0xbd91cfbd	-0.07119701
59	0x3dab0a29	0.08351547
60	0xbc9e71bc	-0.019341342
61	0x3b4fa2c2	0.0031682705
62	0x3dbf6c77	0.0934686
63	0xbcb65f92	-0.022262368
64	0xbd7fed75	-0.062482316
65	0x3e11d0b4	0.1423977
66	0xbd094493	-0.033512663
67	0xbdddce5e	-0.10830377
68	0xbe09ce72	-0.13457659
69	0x3dac6bdf	0.08419012
70	0xbd02d4b3	-0.031941127
71	0x3d4a06dc	0.049322948
72	0x3d9f13f5	0.077674784
73	0xbdcd20fb	-0.10016056
74	0x3d630aa8	0.055430084
75	0x3c942525	0.018084118
76	0x3d169cf0	0.03677076
77	0xbdcd3508	-0.100198805
78	0xbd2058be	-0.03914713
79	0xbe0a5e09	-0.13512434
80	0xbd83127e	-0.064000115
81	0xbdbfb5bf	-0.09360837
82	0x3dc43139	0.09579701
83	0x3dcf6c13	0.101280354
84	0x3c8e356f	0.017359463
85	0x3d129a23	0.035791527
86	0xbd8a80f4	-0.06762877
87	0x3c941c3b	0.018079868
88	0xbd1d5f55	-0.038420994
89	0x3c835543	0.016031867
90	0xbc9582d0	-0.018250853
91	0xbb701571	-0.0036633874
92	0xbd84039d	-0.06446002
93	0x3c2951b6	0.010334423
94	0xbdec2a28	-0.11531478
95	0xbd444eac	-0.04792659
96	0x3c7404f2	0.014893757
97	0x3d86ef8e	0.0658866
98	0xbd1a22c0	-0.037630796
99	0xbdd6c364	-0.104864866
100	0xbcf334af	-0.029688207
101	0x3bd112c6	0.006380412
102	0x3c760807	0.015016562
103	0x3d320553	0.04346211
104	0x3d838b91	0.064231046
105	0xbcb876f4	-0.022517659
106	0xbce59dfa	-0.02802943
107	0xbd54bb8e	-0.05193668
108	0xbac6e296	-0.0015173729
109	0xbcaae65d	-0.020861799
110	0x3df3f712	0.11912359
111	0xbcafb675	-0.021449307
112	0xbd87dbb3	-0.06633701
113	0x3da858b1	0.082200415
114	0x3c7061e5	0.014671777
115	0xbe02185b	-0.12704603
116	0x3cdb6350	0.026780754
117	0xbd99dff9	-0.075134225
118	0x3be9f3c2	0.007139654
119	0x3d801e5e	0.06255792
120	0x3d4a7351	0.04942638
121	0x3d0bde85	0.034147758
122	0x3d1325f5	0.03592487
123	0x3d94ba28	0.07262069
124	0xbd1ad929	-0.037804756
125	0xbde42b00	-0.11141014
126	0xbe0ad3bc	-0.13557333
127	0x3dbd9985	0.09257797
128	0xbd2454c4	-0.0401199
129	0xbc58a17e	-0.0132220965
130	0x3bfea6af	0.007771335
131	0x3d802115	0.0625631
132	0xbc2f5003	-0.010700229
133	0xbd397077	-0.04527327
134	0x3d393282	0.045214184
135	0xbd87ad2e	-0.06624828
136	0x3dc017b7	0.09379523
137	0x3de2acac	0.11068091
138	0xbe005a7b	-0.12534516
139	0x3d6d830f	0.057986315
140	0xbd847108	-0.064668715
141	0x3d0bab66	0.034099005
142	0xbd8820e1	-0.06646896
143	0xbcdc114e	-0.02686372
144	0x3bd0b4fa	0.0063692303
145	0xbd889b7d	-0.06670282
146	0x3e119525	0.1421705
147	0xbdc6d958	-0.09709424
148	0x3d25aec5	0.040449876
149	0xbdaed73f	-0.08537149
150	0xbe027a9b	-0.12742083
151	0x3d21e84e	0.039528184
152	0xbe04332e	-0.12910149
153	0xbc383a28	-0.011244334
154	0x3d7b13d5	0.06129821
155	0xbd86cefb	-0.06582447
156	0x3e0507f2	0.12991312
157	0x3da2640a	0.07929237
158	0x3dd0321b	0.10165807
159	0x3d74409d	0.059631933
160	0xbdbbca85	-0.09169487
161	0x3d5ab5d6	0.05339607
162	0x3d161e8b	0.03665022
163	0xbc943974	-0.018093802
164	0xbda41ab5	-0.080129065
165	0xbd932eb1	-0.0718664
166	0x3c8535e4	0.016261049
167	0xbc204063	-0.009780976
168	0x3d2cf0a7	0.04222169
169	0x3d46799a	0.048455812
170	0x3c800c2f	0.01563081
171	0x3e0b9412	0.13630703
172	0x3d8e0ad1	0.06935657
173	0xbe0e6515	-0.13905747
174	0x3d99e008	0.07513434
175	0xbd292001	-0.041290287
176	0x3ce48655	0.027896086
177	0x3da05ea9	0.07830555
178	0xbdbe99c6	-0.09306674
179	0x3d72148f	0.059101637
180	0xbd16503f	-0.036697622
181	0xbdc38071	-0.09545983
182	0x3d1dfd67	0.03857174
183	0x3ddce3c1	0.10785628
184	0xbd8978fa	-0.067125276
185	0xba0dfb62	-0.0005416182
186	0xbb8eb0b9	-0.004354563
187	0xbd7b5ac3	-0.061365854
188	0x3b3ecb8e	0.0029113027
189	0xbcf93234	-0.030419447
190	0x3d33a210	0.043855727
191	0x3ddaca53	0.106831215
192	0x3cc65382	0.024209742
193	0x3da59af6	0.08086197
194	0x3d946eb8	0.072476804
195	0xbda08c81	-0.07839299
196	0x3d7b6a4b	0.061380666
197	0x3dca3794	0.09873882
198	0x3cbcb679	0.023036228
199	0x3cacd0bc	0.021095626
200	0x3d0854e6	0.03328409
201	0x3d74d19b	0.059770208
202	0x3dd1aa35	0.102375425
203	0xbc50116a	-0.012699464
204	0x3ceed988	0.029156461
205	0xbcda8de5	-0.026678989
206	0x3dfd556c	0.123698086
207	0xbce20526	-0.027590346
208	0xbdb81d98	-0.089900196
209	0xbc47fdeb	-0.012206535
210	0x3d405d8b	0.04696421
211	0x3d27c3c6	0.04095819
212	0xbdf154d5	-0.117837586
213	0x3d297b4f	0.041377362
214	0x3dca3561	0.098734625
215	0xbcb5d89d	-0.022198016
216	0x3afd2934	0.0019314648
217	0x3dcd767c	0.10032365
218	0xbdebc862	-0.11512829
219	0x3da5dd07	0.08098798
220	0xbd8c648c	-0.06855115
221	0x3d62104a	0.055191316
222	0x3db8aa8f	0.090169065
223	0x3cfec12f	0.031097976
224	0xbd694cc4	-0.056957975
225	0x3da10d44	0.07863858
226	0xbc6a83cb	-0.014313648
227	0xbce5b001	-0.028038027
228	0xbca4ebf0	-0.020132035
229	0x3deee7fd	0.11665342
230	0xbde8c7e0	-0.11366248
231	0xbcf46540	-0.029833436
232	0xbd3dd091	-0.046341483
233	0x3d876537	0.06611102
234	0x3d79c414	0.06097801
235	0x3dafb36e	0.08579145
236	0x3b7d25e7	0.0038627328
237	0xbda2585d	-0.0792701
238	0xbcbc29fd	-0.02296924
239	0x3d42f366	0.047595404
240	0x3b175b7f	0.0023095307
241	0xbc81889d	-0.015812213
242	0xbd97a0fc	-0.07403752
243	0x3df6ff1d	0.12060378
244	0x3d90aa9e	0.07063793
245	0xbdbf8a50	-0.09352553
246	0x3d976579	0.07392401
247	0x3d894393	0.06702342
248	0xbdc5dd6b	-0.09661373
249	0x3d625640	0.055258036
250	0xbd0486c9	-0.032355104
251	0xbd3abfea	-0.04559318
252	0x3d434598	0.04767379
253	0xbda569b7	-0.08076804
254	0xbd33ee10	-0.043928206
255	0x3d79ee34	0.061018184

module.i_classifier.fc.0.bias f4 [2]
0	0x3dfc577e	0.12321375
1	0xbe063c92	-0.13109043

module.b_classifier.q.0.weight f4 [128, 512]
0	0x381fea88	3.812698e-05
1	0x37e381e1	2.7120988e-05
2	0x3566153a	8.5712566e-07
3	0xb85f6c04	-5.326794e-05
4	0xb7474765	-1.1877947e-05
5	0xb78e9f5f	-1.7001932e-05
6	0x37cdf99e	2.4554141e-05
7	0xb7890078	-1.6331891e-05
8	0xb8035dbd	-3.1320134e-05
9	0x37232f5a	9.726582e-06
10	0xb7ce38c0	-2.458354e-05
11	0xb784ec37	-1.5845622e-05
12	0x380117f5	3.077831e-05
13	0xb835fa37	-4.3386794e-05
14	0xb7a39d09	-1.950424e-05
15	0xb6547b39	-3.1662187e-06
16	0x38657148	5.4703356e-05
17	0xb71a8976	-9.21112e-06
18	0x37950e87	1.7768949e-05
19	0x37debae7	2.6551495e-05
20	0xb872e41b	-5.7909736e-05
21	0xb8b182b9	-8.464367e-05
22	0x36c588ad	5.8869687e-06
23	0xb78afed8	-1.6569553e-05
24	0xb8343b10	-4.297035e-05
25	0xb7f5881e	-2.926966e-05
26	0x371d041e	9.358888e-06
27	0x3843c295	4.667284e-05
28	0xb863adb8	-5.4282806e-05
29	0x37fcaf87	3.0122477e-05
30	0x37ce5ff2	2.4601792e-05
31	0xb8665d5d	-5.4923225e-05
32	0x37f3dbb0	2.9070157e-05
33	0xb7c15279	-2.3045797e-05
34	0x37a4da91	1.9652101e-05
35	0xb73d9a94	-1.1301268e-05
36	0x38068c78	3.207891e-05
37	0x37d172b3	2.4968153e-05
38	0xb835f47c	-4.3381457e-05
39	0xb8368ca9	-4.352318e-05
40	0x381d6652	3.752701e-05
41	0xb63fa0c9	-2.8554807e-06
42	0x379b0ae9	1.848252e-05
43	0xb80a71f7	-3.3007902e-05
44	0x382a72cc	4.063807e-05
45	0x37711f2e	1.4371979e-05
46	0xb6179b3f	-2.2591119e-06
47	0xb851fd8b	-5.0065613e-05
48	0x37911a85	1.7297696e-05
49	0xb6e378f8	-6.77921e-06
50	0xb70ac94b	-8.272308e-06
51	0x379e685d	1.8883666e-05
52	0xb79063a4	-1.7212536e-05
53	0x363ad520	2.7840215e-06
54	0xb7e328db	-2.7079534e-05
55	0xb87f2dc1	-6.083935e-05
56	0xb758c9c2	-1.2921579e-05
57	0x384b1810	4.842138e-05
58	0x37db8346	2.6167963e-05
59	0xb718cee7	-9.108079e-06
60	0x379174cb	1.7339733e-05
61	0xb7836f43	-1.5668227e-05
62	0x37ffbd6f	3.048658e-05
63	0xb7d803a3	-2.57509e-05
64	0xb83b5d3c	-4.4671106e-05
65	0x36c30f86	5.81326e-06
66	0xb78f3cc7	-1.707523e-05
67	0xb6002004	-1.9092122e-06
68	0x37749fb5	1.4580718e-05
69	0xb7fd68a6	-3.0208681e-05
70	0xb7824750	-1.5530415e-05
71	0xb822ab9e	-3.878364e-05
72	0x376eae1d	1.4226444e-05
73	0x37821ce9	1.551067e-05
74	0x375c9468	1.3147575e-05
75	0xb742a01a	-1.1600578e-05
76	0xb7a11da5	-1.92065e-05
77	0xb6c37f7e	-5.826295e-06
78	0x3868aefa	5.547607e-05
79	0x372bab1e	1.0232236e-05
80	0xb7255073	-9.853497e-06
81	0xb783be0f	-1.570492e-05
82	0xb78f59a0	-1.7088663e-05
83	0x3831820e	4.232121e-05
84	0x373b43b2	1.116183e-05
85	0xb7f43c1e	-2.911506e-05
86	0x386a1de5	5.581779e-05
87	0x3833334d	4.2724703e-05
88	0x3820879f	3.827328e-05
89	0x3827ae59	3.9978277e-05
90	0xb7b76418	-2.186191e-05
91	0x373e77a5	1.1352739e-05
92	0x3730259c	1.0499174e-05
93	0xb72a0e19	-1.0136072e-05
94	0x351199a9	5.4240314e-07
95	0x379d8f8f	1.8782708e-05
96	0x37f84406	2.959558e-05
97	0xb85004e6	-4.9595626e-05
98	0xb82cadce	-4.1169864e-05
99	0x3787b9db	1.61798e-05
100	0x3685b56b	3.9848287e-06
101	0x35df3cd8	1.6632503e-06
102	0x3796a5b9	1.7958564e-05
103	0xb70bb969	-8.328215e-06
104	0xb7c4ed6a	-2.3475575e-05
105	0xb8051373	-3.1727785e-05
106	0x375d5447	1.3192249e-05
107	0x355a3f9b	8.1303887e-07
108	0x37e3619f	2.7105967e-05
109	0xb791cbd5	-1.7380264e-05
110	0x366f34b6	3.5644457e-06
111	0x386c8e08	5.639906e-05
112	0x384700c9	4.744603e-05
113	0xb80b3c02	-3.319607e-05
114	0x37ca7ecb	2.4139319e-05
115	0x382d602a	4.1335974e-05
116	0xb73bdd6f	-1.1197625e-05
117	0xb75ee0b8	-1.3284553e-05
118	0x3777d01f	1.4770804e-05
119	0xb820ddda	-3.8353588e-05
120	0xb8707307	-5.7327587e-05
121	0x36bf099c	5.6933623e-06
122	0x38695da0	5.5638724e-05
123	0xb796273a	-1.789966e-05
124	0xb62968a3	-2.524387e-06
125	0xb75f20bf	-1.329946e-05
126	0xb8998f02	-7.322246e-05
127	0xb7915c47	-1.7328317e-05
128	0xb865239d	-5.4631022e-05
129	0x37e839b1	2.768342e-05
130	0xb7168f13	-8.974009e-06
131	0x36dc3c4d	6.563531e-06
132	0xb8530abf	-5.031633e-05
133	0xb7ca8f94	-2.4147135e-05
134	0x378df406	1.6922142e-05
135	0xb7907c31	-1.7223969e-05
136	0xb868f32a	-5.5539575e-05
137	0xb62d2e5e	-2.5805998e-06
138	0x3895807c	7.128806e-05
139	0xb86dce2a	-5.669721e-05
140	0xb52692fc	-6.205371e-07
141	0xb72d193d	-1.031748e-05
142	0x3789b2e4	1.6414975e-05
143	0xb794ad27	-1.7723605e-05
144	0x3794872a	1.7705916e-05
145	0xb87b14e7	-5.986253e-05
146	0x37819224	1.544605e-05
147	0xb85fcf26	-5.3360265e-05
148	0xb785d161	-1.5952335e-05
149	0xb811bb7d	-3.4745306e-05
150	0xb85788a0	-5.1387236e-05
151	0x378a2397	1.6467455e-05
152	0xb79abc78	-1.8445993e-05
153	0xb79f4369	-1.8985667e-05
154	0xb79391c8	-1.759165e-05
155	0x37acf4e5	2.0618036e-05
156	0xb82ac567	-4.0715004e-05
157	0x37906caa	1.7216738e-05
158	0xb84d1383	-4.889398e-05
159	0x38472c7c	4.7486727e-05
160	0xb706454b	-8.003156e-06
161	0xb83556c2	-4.3234562e-05
162	0x381d7ae2	3.754616e-05
163	0x37cab3cb	2.4164e-05
164	0xb70b8526	-8.316047e-06
165	0x379ca5fc	1.8673942e-05
166	0xb844c746	-4.691563e-05
167	0x386a8a2b	5.5918626e-05
168	0x379bc4a0	1.8569e-05
169	0x387c1e9c	6.010999e-05
170	0x385b928e	5.235016e-05
171	0x37fb3461	2.9945923e-05
172	0x381cce5e	3.7385493e-05
173	0xb71872a6	-9.0866e-06
174	0xb80c030d	-3.3381442e-05
175	0xb62afb08	-2.5478093e-06
176	0x3840a36f	4.5928577e-05
177	0xb7277dee	-9.983296e-06
178	0xb63ba1fd	-2.795946e-06
179	0x37c86f56	2.3893703e-05
180	0xb629cb73	-2.5301385e-06
181	0x37a00821	1.9077272e-05
182	0xb7808395	-1.5320062e-05
183	0x3858cc58	5.1688723e-05
184	0x3794726f	1.7696262e-05
185	0x361ebebc	2.3654857e-06
186	0xb7906da9	-1.7217202e-05
187	0xb558761c	-8.063814e-07
188	0xb57c2ab8	-9.393948e-07
189	0x36b7bc48	5.475744e-06
190	0xb71a76a8	-9.206742e-06
191	0xb87a841d	-5.9727685e-05
192	0xb82e4669	-4.1550407e-05
193	0x383e5bbc	4.5384964e-05
194	0xb70853a3	-8.125705e-06
195	0x3858fa1f	5.1731357e-05
196	0xb85fafa5	-5.3330925e-05
197	0xb815ce2c	-3.571638e-05
198	0x383e6314	4.5391804e-05
199	0xb6e47ba9	-6.8093254e-06
200	0x36213aa0	2.4024994e-06
201	0xb7831616	-1.5626701e-05
202	0x3825bfac	3.9517574e-05
203	0xb803a8ac	-3.138992e-05
204	0xb79d3d79	-1.8744484e-05
205	0x379a7b14	1.8415543e-05
206	0xb7d92f48	-2.5890433e-05
207	0xb6660214	-3.427388e-06
208	0x3793c2c2	1.7614457e-05
209	0x378cbb8b	1.6776632e-05
210	0x379d108b	1.8723562e-05
211	0xb72fd41a	-1.0480197e-05
212	0x37241edd	9.782348e-06
213	0x385c5ad0	5.2536663e-05
214	0xb7866af1	-1.6023843e-05
215	0xb5e26de7	-1.6870298e-06
216	0x37166abd	8.965549e-06
217	0xb78f5a32	-1.7088929e-05
218	0x37dab86c	2.6073503e-05
219	0x37e99367	2.7844404e-05
220	0x36ea7231	6.987037e-06
221	0xb83af769	-4.4576274e-05
222	0x37351074	1.07922715e-05
223	0xb7a31cff	-1.9444617e-05
224	0x385b550a	5.2292868e-05
225	0x38512a17	4.9868682e-05
226	0xb74c3fe6	-1.2174225e-05
227	0xb826e942	-3.9794722e-05
228	0xb7676a97	-1.379349e-05
229	0x37187a32	9.088357e-06
230	0xb795675a	-1.7810311e-05
231	0x3657fd14	3.2184807e-06
232	0xb847f33f	-4.7671838e-05
233	0xb80b40ee	-3.3200653e-05
234	0x37fa929c	2.9870593e-05
235	0xb81b7218	-3.7061138e-05
236	0x377b6b87	1.49858015e-05
237	0xb760289a	-1.3360894e-05
238	0xb832dd33	-4.2644515e-05
239	0xb7ada9a2	-2.0702199e-05
240	0xb8237e99	-3.898013e-05
241	0x381b6094	3.7044825e-05
242	0x377cb2c3	1.5061992e-05
243	0x3841bdcb	4.6191544e-05
244	0xb76dd2c4	-1.41753735e-05
245	0xb833e679	-4.289157e-05
246	0xb8147897	-3.5398258e-05
247	0xb8530dbd	-5.0319115e-05
248	0xb85c5c52	-5.2538067e-05
249	0xb79014d8	-1.7175844e-05
250	0xb60c09b4	-2.0867274e-06
251	0xb74d6978	-1.22435085e-05
252	0xb77dd94e	-1.513057e-05
253	0x38449e53	4.6877492e-05
254	0x387f4f4e	6.0870596e-05
255	0xb747efc2	-1.1917147e-05

module.b_classifier.q.0.bias f4 [128]
0	0x37414b9f	1.1521303e-05
1	0xb88b0384	-6.628691e-05
2	0xb854f934	-5.0776827e-05
3	0x385b9efc	5.2361735e-05
4	0x382a34aa	4.0580206e-05
5	0xb81c424d	-3.7255046e-05
6	0x38442711	4.6766425e-05
7	0x38198c82	3.66089e-05
8	0x37e662cd	2.7464144e-05
9	0x3764f134	1.36460185e-05
10	0xb527cda2	-6.2511583e-07
11	0xb6534263	-3.1480092e-06
12	0xb75de74b	-1.3226479e-05
13	0x3578954b	9.260445e-07
14	0xb790ab0a	-1.7245784e-05
15	0x37423904	1.1576576e-05
16	0x37c2edc0	2.3237313e-05
17	0xb8146a50	-3.538496e-05
18	0x3880fd28	6.15067e-05
19	0xb8291bcd	-4.031863e-05
20	0x379816f4	1.81305e-05
21	0x378f6865	1.709554e-05
22	0xb826c834	-3.9763938e-05
23	0xb58a56df	-1.0307084e-06
24	0x36da36a3	6.503267e-06
25	0x3768f600	1.3885554e-05
26	0xb7ad2384	-2.0639745e-05
27	0x3573d3ce	9.083277e-07
28	0xb7a59be7	-1.974213e-05
29	0x3801f8a3	3.0987558e-05
30	0x37eb4b0e	2.8049133e-05
31	0xb7de22da	-2.6480691e-05
32	0x37e07c2a	2.67607e-05
33	0x3677b7b1	3.691279e-06
34	0x37b5c048	2.166642e-05
35	0x37a08f0e	1.9140101e-05
36	0xb7bb646a	-2.2338896e-05
37	0x379183fd	1.7346809e-05
38	0xb62a57e1	-2.5383126e-06
39	0x37cf8d9a	2.4742261e-05
40	0x386deb1a	5.672416e-05
41	0x38221c5d	3.8650225e-05
42	0xb746b9b3	-1.1844956e-05
43	0x3863a525	5.427482e-05
44	0xb791c51e	-1.7377137e-05
45	0xb7d1212b	-2.4930187e-05
46	0xb56399d1	-8.478792e-07
47	0x378228f6	1.5516282e-05
48	0xb7ef817a	-2.8551312e-05
49	0xb85ed209	-5.3124535e-05
50	0x36f2c413	7.234988e-06
51	0xb872b889	-5.7869158e-05
52	0xb7c997e7	-2.4031802e-05
53	0x3826e618	3.9791776e-05
54	0x374e0ae4	1.22810925e-05
55	0xb7b12bcb	-2.1120437e-05
56	0xb7139460	-8.796429e-06
57	0x37212052	9.603873e-06
58	0xb6b157fa	-5.285253e-06
59	0x37e8e08b	2.7761116e-05
60	0x37c9cf9e	2.4057746e-05
61	0x37fee1ea	3.0384359e-05
62	0x375dce9f	1.3220734e-05
63	0x386aa8fa	5.594732e-05
64	0xb87780f3	-5.9009482e-05
65	0x373c7675	1.1233254e-05
66	0xb7b101a3	-2.1100806e-05
67	0x387da991	6.047782e-05
68	0xb73a9d57	-1.11230975e-05
69	0xb78f1436	-1.705634e-05
70	0xb7e1a61d	-2.6899443e-05
71	0xb8084d12	-3.2496704e-05
72	0xb78e9dd1	-1.7001208e-05
73	0xb8276c51	-3.991678e-05
74	0xb80a10e1	-3.2917484e-05
75	0x379f031e	1.8955729e-05
76	0x38b71c11	8.731348e-05
77	0x38645d98	5.4446602e-05
78	0xb7971556	-1.8010538e-05
79	0xb7cc2dd1	-2.434003e-05
80	0x37612d4e	1.3421593e-05
81	0x3840f17c	4.6001267e-05
82	0x373879ed	1.0995643e-05
83	0x3792b80f	1.7490265e-05
84	0xb65aa916	-3.2582952e-06
85	0x387139c4	5.7512676e-05
86	0xb7c8ebe1	-2.3951698e-05
87	0x37d17c32	2.4972574e-05
88	0x36f3cf76	7.266116e-06
89	0xb7c054be	-2.2927645e-05
90	0x37881429	1.6221851e-05
91	0x387f5a20	6.0880673e-05
92	0xb71d8ae6	-9.390269e-06
93	0x38814f47	6.165966e-05
94	0x3837ca9b	4.381929e-05
95	0x380363fe	3.132596e-05
96	0x379bc89b	1.8570854e-05
97	0xb79bc946	-1.8571165e-05
98	0xb8713003	-5.7503592e-05
99	0xb8256e04	-3.9441526e-05
100	0x37902876	1.7184979e-05
101	0xb7b7a6a8	-2.1892905e-05
102	0xb884662e	-6.313283e-05
103	0xb8734841	-5.8003006e-05
104	0x36ee5e34	7.1039194e-06
105	0xb4773021	-2.3021177e-07
106	0x377dc589	1.5125967e-05
107	0xb753338f	-1.25885845e-05
108	0xb8634525	-5.4185413e-05
109	0x386c0ab4	5.6276753e-05
110	0xb7968334	-1.794249e-05
111	0x373ce054	1.1257904e-05
112	0xb67aa9b5	-3.7351685e-06
113	0xb721334e	-9.608293e-06
114	0xb85b5f9c	-5.2302712e-05
115	0xb5b7da8e	-1.369817e-06
116	0xb777840c	-1.4753092e-05
117	0x3875b3c8	5.8579986e-05
118	0xb8476e3b	-4.7547957e-05
119	0x37bae508	2.2279579e-05
120	0x378fa3f2	1.7123271e-05
121	0xb70313d4	-7.812825e-06
122	0x36153983	2.2236206e-06
123	0x37fa1800	2.9813498e-05
124	0x378c9dbc	1.6762751e-05
125	0xb770e602	-1.4358668e-05
126	0xb867fbab	-5.5309076e-05
127	0xb7edb670	-2.8337556e-05

module.b_classifier.q.2.weight f4 [128, 128]
0	0x370aea78	8.2800325e-06
1	0xb7f4793e	-2.9143524e-05
2	0x3795db11	1.7864195e-05
3	0x386dcf7e	5.6698445e-05
4	0xb7169103	-8.97446e-06
5	0x37cd33d8	2.4462046e-05
6	0xb73b2878	-1.1155491e-05
7	0xb87a4c85	-5.967591e-05
8	0x37197c5a	9.1484635e-06
9	0xb6ae416c	-5.19322e-06
10	0xb81895f0	-3.6379264e-05
11	0xb80a6269	-3.2993416e-05
12	0xb87cda20	-6.0284627e-05
13	0xb869194b	-5.5575085e-05
14	0xb767e827	-1.3822725e-05
15	0x36acb90a	5.147541e-06
16	0xb68c03e5	-4.1727785e-06
17	0xb6861308	-3.9957267e-06
18	0xb862d9a9	-5.408531e-05
19	0xb8709ee7	-5.736845e-05
20	0xb87eb239	-6.0724302e-05
21	0xb87d6e51	-6.042264e-05
22	0xb7ccd7ea	-2.4419238e-05
23	0x377258dd	1.4445014e-05
24	0xb7f63f8b	-2.9355075e-05
25	0xb7d9d6f9	-2.596852e-05
26	0xb73a3433	-1.10986175e-05
27	0x371a2895	9.188564e-06
28	0xb799b105	-1.8321452e-05
29	0xb86d57cd	-5.6586974e-05
30	0x382d4739	4.1312745e-05
31	0x37a5ff89	1.9788526e-05
32	0x371567a3	8.905222e-06
33	0xb78bc089	-1.6659747e-05
34	0x3782d0d7	1.5594456e-05
35	0xb7ec8e8c	-2.819977e-05
36	0x3685732e	3.9771176e-06
37	0x380ed4b0	3.405352e-05
38	0x386dabdd	5.6665263e-05
39	0xb760361d	-1.336404e-05
40	0xb7a220ac	-1.9327119e-05
41	0xb83c4306	-4.4885113e-05
42	0xb80d0742	-3.362378e-05
43	0xb7d42748	-2.5290661e-05
44	0xb7bd64e4	-2.2577537e-05
45	0x37feba33	3.0365865e-05
46	0xb793694f	-1.7572804e-05
47	0xb6ef4e8c	-7.131899e-06
48	0xb855e675	-5.0997787e-05
49	0x37c87fc2	2.390135e-05
50	0x37299896	1.0108712e-05
51	0x3793c5a8	1.7615806e-05
52	0x378a9ebf	1.6524804e-05
53	0x387a5b77	5.9689828e-05
54	0xb89e67f3	-7.553389e-05
55	0xb796690b	-1.7930308e-05
56	0x37317355	1.0576875e-05
57	0xb777f876	-1.4780197e-05
58	0xb83c3b81	-4.487811e-05
59	0xb71705ab	-9.001621e-06
60	0xb7a41b65	-1.956308e-05
61	0x36a3ba57	4.8794714e-06
62	0x3800ee4c	3.073951e-05
63	0xb81590af	-3.5659115e-05
64	0x37926035	1.7449356e-05
65	0xb7617d40	-1.3440207e-05
66	0x36f35f71	7.253075e-06
67	0xb86d8dc8	-5.6637247e-05
68	0x3795040a	1.7764065e-05
69	0xb72ae2d5	-1.0185603e-05
70	0x37ed96c4	2.8322807e-05
71	0xb759197d	-1.2940142e-05
72	0x386683ed	5.495914e-05
73	0x3858a1b9	5.164903e-05
74	0xb7992415	-1.8255823e-05
75	0x386edf35	5.69515e-05
76	0xb78752af	-1.6131757e-05
77	0x389a4474	7.3560426e-05
78	0x37a5e866	1.9777752e-05
79	0x379006ce	1.7169306e-05
80	0xb855947f	-5.0921455e-05
81	0xb8027540	-3.1103613e-05
82	0x3829dd0d	4.049861e-05
83	0x37bb83c9	2.2353504e-05
84	0x37cadf7c	2.4184345e-05
85	0xb757dd09	-1.2866462e-05
86	0xb7e7ff64	-2.7656271e-05
87	0xb7308bac	-1.0522937e-05
88	0x370c40bb	8.3597215e-06
89	0xb8448dcf	-4.686211e-05
90	0x36c48bd9	5.8575356e-06
91	0x38018488	3.0879426e-05
92	0xb78ad726	-1.6551068e-05
93	0xb876c7e9	-5.883715e-05
94	0xb8ac3286	-8.21101e-05
95	0xb520efe0	-5.995371e-07
96	0x375ec2d6	1.3277595e-05
97	0x3755fe5d	1.2755013e-05
98	0x380946fb	3.272945e-05
99	0x37ab6202	2.0430427e-05
100	0xb73d41d5	-1.1280606e-05
101	0xb7de1654	-2.647486e-05
102	0xb6cbd379	-6.07449e-06
103	0x37a0b353	1.915699e-05
104	0x38816857	6.170634e-05
105	0x37398142	1.10569545e-05
106	0xb712328a	-8.714045e-06
107	0x38472690	4.748121e-05
108	0xb87d8d27	-6.045136e-05
109	0xb69bb8ec	-4.6408877e-06
110	0x38347744	4.302642e-05
111	0x378dc747	1.6901306e-05
112	0xb8814fb0	-6.166042e-05
113	0x3889daec	6.5734464e-05
114	0xb83c41ac	-4.4883855e-05
115	0x3858a9e5	5.165664e-05
116	0x37e17b90	2.6879628e-05
117	0x3708566a	8.1263515e-06
118	0xb855d287	-5.0979226e-05
119	0xb6f4440a	-7.2796875e-06
120	0x37359919	1.08240865e-05
121	0x371e36b0	9.430267e-06
122	0xb798f786	-1.8235074e-05
123	0xb7c6ca18	-2.3697547e-05
124	0xb78994b0	-1.640091e-05
125	0xb861fedd	-5.388154e-05
126	0xb707725a	-8.073252e-06
127	0x36d072ac	6.2122326e-06
128	0xb6753575	-3.653896e-06
129	0x37af6550	2.0908803e-05
130	0x376d158b	1.4131317e-05
131	0xb7034092	-7.823242e-06
132	0xb82f04dc	-4.1727777e-05
133	0x3436d00c	1.7025758e-07
134	0xb715803f	-8.910952e-06
135	0x36652d77	3.4150123e-06
136	0x36db2c32	6.5318536e-06
137	0xb6ba0e34	-5.5448854e-06
138	0xb57e300d	-9.4692297e-07
139	0x37a3fe89	1.9549641e-05
140	0x36e60989	6.855644e-06
141	0x37ae5812	2.0783427e-05
142	0x37b46a5d	2.1507201e-05
143	0x373bee17	1.1201503e-05
144	0xb5078082	-5.047842e-07
145	0xb811b1be	-3.473623e-05
146	0x3839fdc2	4.4343768e-05
147	0x358d2133	1.0514981e-06
148	0x3748c970	1.196783e-05
149	0x372f7154	1.0457199e-05
150	0xb84e7f33	-4.923269e-05
151	0xb7944c52	-1.7678514e-05
152	0xb5f064ee	-1.7910768e-06
153	0xb84cfe5f	-4.887429e-05
154	0x3828a805	4.02108e-05
155	0xb73c4cb4	-1.1223532e-05
156	0x380b25f2	3.3175522e-05
157	0x37ed61cd	2.8298144e-05
158	0xb6bf220f	-5.6962085e-06
159	0xb7a40190	-1.9551051e-05
160	0xb7915e5b	-1.7329285e-05
161	0xb78c772b	-1.6744792e-05
162	0xb83cc14c	-4.5002715e-05
163	0xb7be6ebc	-2.270133e-05
164	0x382c924f	4.1144256e-05
165	0xb784d729	-1.5835818e-05
166	0x37907a34	1.7223043e-05
167	0xb86d5980	-5.6588557e-05
168	0x375e8be0	1.3264798e-05
169	0x369d6b36	4.6914456e-06
170	0xb836fb12	-4.362601e-05
171	0xb8587515	-5.1607454e-05
172	0xb75ac202	-1.30389835e-05
173	0xb7ba8eac	-2.2239365e-05
174	0xb82402f5	-3.91034e-05
175	0x386e67c4	5.684026e-05
176	0xb745c0eb	-1.1787032e-05
177	0xb88119c3	-6.155998e-05
178	0xb883ff1a	-6.294083e-05
179	0x37750357	1.4603916e-05
180	0xb7cc8f10	-2.4385314e-05
181	0x382e171c	4.1506355e-05
182	0xb7ccb61f	-2.4403502e-05
183	0xb78fdcec	-1.7149803e-05
184	0x3715f1a1	8.937351e-06
185	0xb70f606b	-8.545913e-06
186	0x379036bf	1.719163e-05
187	0xb7d6b7f5	-2.559645e-05
188	0x373652f7	1.0867362e-05
189	0x37e4d5e5	2.727932e-05
190	0xb80e5b61	-3.394054e-05
191	0x385121ed	4.986108e-05
192	0x375328f6	1.2586117e-05
193	0xb7870719	-1.609656e-05
194	0x373b4c7f	1.1163879e-05
195	0xb854f12c	-5.0769348e-05
196	0x37912205	1.7301189e-05
197	0xb83a12bf	-4.4363314e-05
198	0xb82b521b	-4.0846044e-05
199	0x38590dfe	5.1749863e-05
200	0xb7d9c551	-2.5960298e-05
201	0xb7aff04e	-2.0973526e-05
202	0xb811ff8d	-3.4808694e-05
203	0x381a7fea	3.683559e-05
204	0xb78fb131	-1.712944e-05
205	0xb84a4775	-4.8227103e-05
206	0xb6a25bf6	-4.838682e-06
207	0xb7752e29	-1.46138855e-05
208	0x37783b74	1.4795794e-05
209	0xb84357b6	-4.657331e-05
210	0xb7638a96	-1.3562521e-05
211	0xb82620c7	-3.960801e-05
212	0xb7e950e5	-2.7813434e-05
213	0x3871ce43	5.7650974e-05
214	0xb6e628d1	-6.859286e-06
215	0xb8258532	-3.9463113e-05
216	0x368f0552	4.2623515e-06
217	0xb771b7d1	-1.44075175e-05
218	0xb7a8352a	-2.0051917e-05
219	0x3794a070	1.7717684e-05
220	0x38318af3	4.2329495e-05
221	0x36b72785	5.4584257e-06
222	0x37333df7	1.0683659e-05
223	0x385561e8	5.087434e-05
224	0x37930ded	1.753025e-05
225	0x36a05b7e	4.7790227e-06
226	0xb761a956	-1.3450472e-05
227	0x3798de08	1.8223203e-05
228	0x36a827b7	5.0114136e-06
229	0x37c5f181	2.3596689e-05
230	0xb7109e1f	-8.619884e-06
231	0x380d7775	3.3728273e-05
232	0xb823d18c	-3.9057384e-05
233	0xb78c8e34	-1.6755519e-05
234	0xb7df2d80	-2.660486e-05
235	0x37cbf57b	2.4313797e-05
236	0x3796f7b0	1.7996732e-05
237	0x35dd7489	1.6499699e-06
238	0xb71c747a	-9.325444e-06
239	0xb713a790	-8.8008965e-06
240	0xb78cf6ab	-1.6804164e-05
241	0x3796957e	1.7951006e-05
242	0xb85afdea	-5.2211726e-05
243	0x377969af	1.4866163e-05
244	0x385eaa36	5.3087446e-05
245	0xb791c669	-1.7377739e-05
246	0xb71e7a6a	-9.446036e-06
247	0x378964a3	1.6378535e-05
248	0xb78a9b14	-1.6523096e-05
249	0xb718cb8d	-9.107299e-06
250	0xb794173b	-1.7653792e-05
251	0xb6d42594	-6.322467e-06
252	0xb7695e31	-1.3909813e-05
253	0x381855dd	3.631959e-05
254	0x379bee31	1.8588356e-05
255	0x37e5a5dd	2.7376163e-05

module.b_classifier.q.2.bias f4 [128]
0	0xb784bd2d	-1.5823718e-05
1	0x37c0f27f	2.3001105e-05
2	0x374f065e	1.2339644e-05
3	0xb7cffc7f	-2.47939e-05
4	0x37c588b3	2.3547886e-05
5	0x379f0145	1.8954868e-05
6	0x3805c16d	3.1889813e-05
7	0xb770c223	-1.4350316e-05
8	0x386cd4ca	5.646496e-05
9	0x38007bf6	3.0633026e-05
10	0xb845af5f	-4.7131787e-05
11	0xb4a00730	-2.9807552e-07
12	0xb788afb9	-1.629429e-05
13	0xb79240a2	-1.7434653e-05
14	0xb7853d1a	-1.5883288e-05
15	0xb830c77b	-4.214745e-05
16	0x37929ac5	1.7476626e-05
17	0x388081c0	6.1276834e-05
18	0x381ed307	3.786667e-05
19	0xb7c9c78f	-2.4053994e-05
20	0x37922641	1.742237e-05
21	0xb7a52cfc	-1.969048e-05
22	0xb789f081	-1.6443666e-05
23	0x379a0bc4	1.836371e-05
24	0x38556cad	5.088437e-05
25	0x37ece4cd	2.8239936e-05
26	0xb73d3f73	-1.1280051e-05
27	0xb72682b2	-9.924801e-06
28	0x3791fb59	1.740239e-05
29	0x36f3c089	7.2643784e-06
30	0x35c57c39	1.4713797e-06
31	0x3732a379	1.0647688e-05
32	0x37f79098	2.9512026e-05
33	0xb849ec95	-4.814247e-05
34	0xb7b3f2c7	-2.1451515e-05
35	0xb77c410e	-1.5035517e-05
36	0xb75fcf04	-1.3340035e-05
37	0x37dcea94	2.6335278e-05
38	0x378f838c	1.7108185e-05
39	0xb7ad3b6b	-2.0650876e-05
40	0xb840cd94	-4.5967827e-05
41	0x380166ba	3.085167e-05
42	0x383a85f3	4.4470606e-05
43	0xb865441a	-5.466128e-05
44	0xb7350cc9	-1.07914175e-05
45	0xb845f9d6	-4.7201138e-05
46	0x3838ed6d	4.409014e-05
47	0x37bd8451	2.259217e-05
48	0x36032a01	1.954497e-06
49	0xb7941d9b	-1.7656761e-05
50	0x37341896	1.073456e-05
51	0x37982112	1.8135212e-05
52	0xb7d21f85	-2.5048628e-05
53	0xb82b866f	-4.0894778e-05
54	0xb8454be4	-4.703914e-05
55	0xb70b3cbc	-8.299186e-06
56	0x366fbd07	3.5723804e-06
57	0xb8458604	-4.7093272e-05
58	0x34c3043c	3.632466e-07
59	0xb86d2d74	-5.6547535e-05
60	0xb7aa48d0	-2.0299485e-05
61	0xb84f6453	-4.944608e-05
62	0xb4dd5965	-4.12295e-07
63	0xb7979af3	-1.8072757e-05
64	0xb7e89d15	-2.7729702e-05
65	0x35dc3571	1.6406831e-06
66	0x374c7c68	1.2188313e-05
67	0xb78f6a5d	-1.7096458e-05
68	0xb8052f5c	-3.1753778e-05
69	0x37352567	1.0797149e-05
70	0x384011d2	4.5792964e-05
71	0x37c150df	2.3045051e-05
72	0xb8652aaf	-5.4637607e-05
73	0xb792ea42	-1.7513641e-05
74	0xb8699fa0	-5.570019e-05
75	0x3793c37e	1.7614799e-05
76	0x37b07ee2	2.103992e-05
77	0x3784119a	1.5743823e-05
78	0x386de933	5.6722387e-05
79	0x385cef1f	5.2674786e-05
80	0x36f57c70	7.3160554e-06
81	0x37a8e78a	2.013498e-05
82	0xb6ba238e	-5.547371e-06
83	0xb7739b27	-1.4520053e-05
84	0x3716fb46	8.999201e-06
85	0x380db28f	3.3783315e-05
86	0xb7926471	-1.7451328e-05
87	0xb792d50a	-1.750376e-05
88	0xb7be7050	-2.2702065e-05
89	0xb724f781	-9.832788e-06
90	0xb71dce8c	-9.40602e-06
91	0x379b97cb	1.8548124e-05
92	0xb783d7a0	-1.5716825e-05
93	0xb6f4d34b	-7.2963644e-06
94	0xb72f379a	-1.0443759e-05
95	0xb7263360	-9.906333e-06
96	0x37aa3389	2.0289577e-05
97	0x37872d8d	1.6114465e-05
98	0xb730a20a	-1.0528145e-05
99	0x383d20e9	4.509176e-05
100	0xb829d824	-4.0494037e-05
101	0xb8276070	-3.9905717e-05
102	0x37831241	1.5624917e-05
103	0x376bfab7	1.4065466e-05
104	0xb87e06e9	-6.0564755e-05
105	0xb58b86fb	-1.0395592e-06
106	0xb75f0095	-1.3291971e-05
107	0xb7f75be0	-2.9487477e-05
108	0xb7cbd113	-2.4296844e-05
109	0xb723c9bc	-9.762527e-06
110	0xb7994524	-1.8271217e-05
111	0x379458df	1.7684359e-05
112	0x3872dc29	5.7902336e-05
113	0x3745c1db	1.17872505e-05
114	0xb8812d9a	-6.159693e-05
115	0x37f3f693	2.9082677e-05
116	0xb6297958	-2.5253594e-06
117	0x36bb2726	5.5775918e-06
118	0xb6a90be5	-5.037977e-06
119	0x378f7308	1.7100494e-05
120	0xb534aa13	-6.7302716e-07
121	0xb89e98b2	-7.562469e-05
122	0x3868fd64	5.55491e-05
123	0xb85a1cd8	-5.2002113e-05
124	0xb7704573	-1.4321285e-05
125	0xb75eb311	-1.3273923e-05
126	0x37a65d2c	1.9832129e-05
127	0xb7944790	-1.7676299e-05

module.b_classifier.fcc.weight f4 [2, 2, 512]
0	0x3c0abeac	0.008468311
1	0xbc08c8f9	-0.008348697
2	0x3bf81e5f	0.00757198
3	0x3c72460d	0.014787209
4	0xbc9e6229	-0.019333916
5	0x3d0e6b9f	0.034770604
6	0x3ca73967	0.020413114
7	0x3c98942f	0.018625347
8	0xbd1a8d16	-0.037732206
9	0xbd1d797e	-0.038445942
10	0x3cd838f1	0.02639434
11	0x3c71fca1	0.014769704
12	0x3ce6c5e4	0.028170533
13	0xbb664dd0	-0.0035141595
14	0x3c30afa2	0.010784062
15	0xbbd2bdfa	-0.0064313384
16	0x3d2ff812	0.042961188
17	0x3b93c58a	0.0045096325
18	0x3ca93b16	0.020658057
19	0x3c0b4122	0.008499416
20	0xbba6ca5c	-0.005090041
21	0xbd0ab523	-0.03386415
22	0x3cba75d5	0.022761265
23	0xbb32e05d	-0.0027294375
24	0xbc8049df	-0.015660224
25	0x3b205e99	0.0024470447
26	0xbd05b1b4	-0.032640174
27	0xbc554364	-0.013016555
28	0xbc78dc35	-0.01518922
29	0xbc25c94b	-0.010118793
30	0xbc1ea13f	-0.009681999
31	0xbc784e96	-0.015155455
32	0x3c41a1ac	0.011818331
33	0x3c527889	0.012846121
34	0x3ca7b81a	0.020473529
35	0x3cc435ba	0.0239514
36	0x3cde3532	0.027124975
37	0x3cdbcfa6	0.026832413
38	0xbc445793	-0.01198377
39	0xbc67fddf	-0.014159649
40	0x3ad7e529	0.0016471493
41	0xbc8fa6a9	-0.017535524
42	0x3c0af2eb	0.008480768
43	0x3c5b0be6	0.013369536
44	0x3c995edb	0.018721988
45	0x3bc94c65	0.00614314
46	0x3d10de9b	0.035368543
47	0x3b97efd4	0.004636744
48	0x392432bf	0.00015659163
49	0xbbd115dc	-0.0063807797
50	0xbc9d2912	-0.019184623
51	0xbbe37f7f	-0.006942689
52	0x38b898c8	8.8022614e-05
53	0x3cb15a2a	0.021649439
54	0x3c0572cf	0.008145048
55	0x3c495e20	0.012290508
56	0xbb8be68f	-0.004269428
57	0x3cc438cf	0.02395287
58	0xbd22dab4	-0.039759353
59	0x3ce6dec1	0.02818239
60	0xbb545028	-0.003239641
61	0x3ca743a2	0.020417992
62	0x3b61b3a0	0.003443934
63	0xbbd7b3dd	-0.0065827207
64	0xbcb71499	-0.022348689
65	0x3c73d2a1	0.014881761
66	0xbd38fcaa	-0.045162834
67	0xbcb4ec46	-0.02208532
68	0xbc8a7cc1	-0.01690519
69	0xbc1fa21e	-0.009743242
70	0xbbf6bae0	-0.0075296015
71	0xbca10cb0	-0.01965937
72	0x3a18c110	0.00058271084
73	0xbc87aadc	-0.016560964
74	0x3b64e65d	0.0034927346
75	0x3c5c1273	0.013432133
76	0x3ca0ed0c	0.019644283
77	0xbcd94d47	-0.026526107
78	0x3bdd9e17	0.0067632305
79	0xbc9d41f5	-0.01919649
80	0x3c80bb63	0.015714353
81	0xbcdbfa83	-0.026852852
82	0x3b429a75	0.0029694114
83	0xbc256f20	-0.010097295
84	0xbc08ae2d	-0.008342308
85	0x3c39f19e	0.01134911
86	0x36087fa4	2.0339876e-06
87	0xbced0125	-0.02893121
88	0x3caafe7b	0.020873299
89	0xbc84d925	-0.016216824
90	0xbc808300	-0.015687466
91	0xba0c67cc	-0.0005356043
92	0xbd1f8085	-0.038940925
93	0x3cf13d9b	0.029448321
94	0x3bbcb40e	0.005758769
95	0xbc65dde8	-0.014029957
96	0xbb53d167	-0.0032320858
97	0xbc79c68a	-0.015245089
98	0xbd133923	-0.03594316
99	0xbbe77f4b	-0.007064735
100	0x3c2f1831	0.01068692
101	0xbc945e37	-0.018111331
102	0xbcad6e2d	-0.0211707
103	0x3c812cc0	0.015768409
104	0xbc2a5036	-0.0103951
105	0xbc7653b0	-0.015034601
106	0xbc47f091	-0.012203352
107	0xbd2b2276	-0.04178091
108	0x3b5da635	0.003382099
109	0x3ccd531d	0.025064046
110	0x3c87bd48	0.016569749
111	0xbbdc3c2d	-0.0067210407
112	0x3c7b0288	0.015320428
113	0xbc46880e	-0.012117399
114	0x3c2beee4	0.010493968
115	0xbbb9795a	-0.005660218
116	0xbbf3c1fb	-0.0074388958
117	0xbd146044	-0.03622462
118	0xbcb11458	-0.021616146
119	0x3caf66b4	0.021411277
120	0xba612067	-0.0008587897
121	0xbba59b53	-0.0050539165
122	0xbb9a4fbf	-0.0047092135
123	0x3b1a592c	0.0023551686
124	0xbcd8791f	-0.026424943
125	0xbc4018b3	-0.011724639
126	0xbce9b9ee	-0.028531041
127	0x3c84edb8	0.016226634
128	0xbcb9fb67	-0.022702886
129	0xbcf27cf0	-0.02960059
130	0x3bb09442	0.0053887675
131	0xbb9f5197	-0.004862021
132	0xbc6e1753	-0.014531928
133	0x3bef837e	0.0073093763
134	0x3cc2d451	0.023782881
135	0xbc48f35a	-0.012265051
136	0x3cfddd69	0.030989366
137	0x3c3c7974	0.011503566
138	0xbbd75efb	-0.006572602
139	0x3caffab2	0.021481846
140	0x3ce7ebb6	0.028310638
141	0x3cc073a5	0.023492644
142	0xbc59e58b	-0.013299356
143	0xbd09cb86	-0.03364136
144	0x3bccdb29	0.006251712
145	0x3b878bb4	0.004136527
146	0xbc05c861	-0.00816545
147	0xbbb8b6ce	-0.0056370264
148	0x3ca08eee	0.019599404
149	0x3b264917	0.0025373155
150	0xbcd7ea49	-0.026356833
151	0x3b0e5941	0.002172068
152	0xbbc68fc5	-0.006059619
153	0x3c6097d8	0.013708077
154	0x3c81c9fd	0.015843386
155	0xbbb397cc	-0.005480742
156	0x3c868469	0.01642056
157	0x3cf5ad4a	0.029989857
158	0x3c9fc890	0.019504815
159	0xbccbf488	-0.024896875
160	0xbc3766c6	-0.011193937
161	0xbafa238a	-0.0019084078
162	0x3c968570	0.018374175
163	0xbb49b54d	-0.003077823
164	0x3caea457	0.021318598
165	0x3cff7fb0	0.031188816
166	0x3af745f6	0.0018865454
167	0xbb8cef01	-0.0043009524
168	0x3cce77b8	0.02520357
169	0xbc871367	-0.016488744
170	0x3cd8ca88	0.026463762
171	0x3c43d597	0.011952779
172	0x3d176490	0.03696114
173	0x3b3d76f2	0.0028910008
174	0x3b1852a5	0.002324262
175	0xbc917ddb	-0.017760208
176	0x3cafc317	0.02145533
177	0x3cca1275	0.024667004
178	0xbca383a3	-0.01996023
179	0x3c70b08d	0.0146905305
180	0x3c0352fe	0.008015392
181	0xba6648a7	-0.000878463
182	0xbcb7a306	-0.022416603
183	0x3cc98386	0.024598848
184	0xbce6f3bb	-0.028192392
185	0x3c7e845c	0.015534487
186	0xbbfabce1	-0.0076519107
187	0xbd093012	-0.03349311
188	0x3c55ac82	0.013041617
189	0x3aeb7a1e	0.0017965471
190	0xbca732c2	-0.020409945
191	0x3c6dfdb3	0.014525819
192	0xbba2fbc6	-0.0049738614
193	0x3d07fc14	0.033199385
194	0x3bdee29f	0.0068019177
195	0xbc656817	-0.014001868
196	0x3c8d8492	0.017275129
197	0x3bf7c4a6	0.007561284
198	0xbb0fc91f	-0.0021939946
199	0xbc8f43a4	-0.017488308
200	0x3c7b9616	0.0153556075
201	0xbbed4918	-0.0072413795
202	0xbc3bfefa	-0.011474365
203	0x3c1b55f4	0.009480942
204	0x3c11d25c	0.008900251
205	0xbc22e5bb	-0.009942467
206	0x3c881db6	0.01661573
207	0x3c03b88b	0.008039604
208	0x3c57cf58	0.013171993
209	0x3ac23716	0.0014817442
210	0x3b55494c	0.003254491
211	0xbb9e351a	-0.0048281075
212	0xbc855bfe	-0.016279217
213	0x3c9992bb	0.018746724
214	0x3d069e0c	0.03286557
215	0x3b4779f1	0.0030437673
216	0xbc3b3faf	-0.011428758
217	0x3cb4fda1	0.022093596
218	0xbc91cc11	-0.017797502
219	0xbbe23efd	-0.0069044814
220	0xbd099602	-0.033590324
221	0x3bcd0c19	0.0062575457
222	0x3caa51f4	0.020791031
223	0x3c611c92	0.013739722
224	0xbd07a5bf	-0.033117052
225	0x3cab62f5	0.02092121
226	0x3c2e9116	0.010654708
227	0xbbd47600	-0.0064837933
228	0xbc98bb0c	-0.018643878
229	0x3d3103a5	0.043216366
230	0xbc0c909e	-0.008579401
231	0x3c735451	0.014851646
232	0x3c81ebb7	0.015859468
233	0x3b54a6d2	0.0032448065
234	0xbce9ff56	-0.028564136
235	0xbba2b19f	-0.0049650217
236	0xbba9e78c	-0.0051850732
237	0x3c199a7b	0.00937521
238	0x3cb1e629	0.021716194
239	0x3c61c967	0.013780928
240	0xbc544f10	-0.012958303
241	0x3cd5e831	0.026111694
242	0x3b3d2770	0.0028862618
243	0x3cee73f0	0.029108018
244	0xbc960222	-0.018311564
245	0x3bb47839	0.0055074957
246	0xbc31ab85	-0.010844116
247	0x3c9eb36b	0.019372663
248	0xbacdaa74	-0.0015691058
249	0xbc22a0e7	-0.009926057
250	0x3c70db2a	0.01470069
251	0x3ad60dea	0.0016331051
252	0x3bf8824d	0.0075838924
253	0xbc87e8aa	-0.016590435
254	0x3c521e51	0.012824611
255	0x3c73429e	0.014847426

module.b_classifier.fcc.bias f4 [2]
0	0x3e2319d5	0.15927823
1	0xbe40c677	-0.18825708
