processing/mil classifier/weights/05142023/1best_auc.pth (torch, 343887 bytes, 8 tensors)

module.i_classifier.fc.0.weight f4 [2, 512]
000000 a6 2c 03 3e 21 81 15 be 93 95 a4 3d 6b 21 b9 bd
       0.12810001 -0.1460004 0.080363415 -0.09039577
000010 b3 5b 9a bd 8b 5c c7 3d f6 a5 23 3e 7c 74 24 3e
       -0.075370215 0.09734448 0.15981278 0.1606006
000020 55 4b e0 bd 34 6a 9e bd 75 9d cc 3d c6 96 90 bb
       -0.109518684 -0.077351004 0.0999097 -0.004412505
000030 59 27 fa 3d 73 63 c2 3d 73 c7 be bd af 53 12 3e
       0.12214536 0.09491625 -0.09315386 0.14289735
000040 f4 b4 b3 3d 5d 21 63 3d dd aa d7 bd a8 16 b9 bd
       0.087747484 0.05545174 -0.105306365 -0.090375245
000050 27 8e a1 bd 02 86 3d be 10 12 6e bd 8c 77 bf bb
       -0.078884415 -0.18508151 -0.058122694 -0.0058431085
000060 86 ea 5a 3c e9 17 a5 bd e2 2c ee bd b7 47 af bd
       0.013361579 -0.08061201 -0.116296545 -0.085586004
000070 7f 72 e4 bd 6c ff 2c bd 74 77 c8 bd 46 aa 6b 3d
       -0.11154651 -0.042235777 -0.09788409 0.057535432
000080 78 d6 c9 3d 14 80 da 3c 98 e2 0e 3e 04 87 98 3d
       0.0985536 0.0266724 0.13953626 0.07447627
000090 a3 4d 79 bd a1 87 40 bd 12 2b 04 be 60 5c 94 bd
       -0.060865056 -0.047004346 -0.12907055 -0.07244182
0000a0 da 9c 8c bd 6a a7 05 3d 47 b6 11 3d 45 57 b0 3d
       -0.068658546 0.03263036 0.035574224 0.08610395
0000b0 fd 41 a4 3d 43 30 8e 3d 3c ce df 3c c8 ac e3 bd
       0.08020399 0.06942799 0.02732002 -0.1111694
0000c0 10 ff d8 bc a6 86 77 3d 88 57 a5 3a da d5 e9 3d
       -0.02648881 0.060431145 0.0012614587 0.11417742
0000d0 58 c4 00 be 66 fa d8 3d 63 2c 2b 3d 78 d7 e4 3c
       -0.12574899 0.10594635 0.041790377 0.027934775
0000e0 d4 e4 ad bd 29 b5 41 3c 26 5a f7 bd 4f d1 b6 3d
       -0.08490911 0.011822977 -0.12077741 0.08926641
0000f0 55 71 47 bc 01 b4 85 3c a1 9b ea 3d 28 83 9a bc
       -0.012173017 0.016321184 0.11455465 -0.018861368
000100 90 f2 c5 bd dc 58 29 3e aa c8 3e bd 07 8e f5 bd
       -0.09665406 0.16537803 -0.046578087 -0.1198998
000110 7f 04 23 be d4 20 ae 3d 58 19 61 bd 72 43 5f 3d
       -0.15919684 0.08502355 -0.05495581 0.05450768
000120 cb 22 dc 3d ab 8e 0b be 6f 8d b1 3d 08 89 0e 3d
       0.10748824 -0.13628642 0.086695544 0.034798652
000130 9e f7 82 3d bf 34 03 be 8a f4 70 bd 8e eb 28 be
       0.063948855 -0.1281309 -0.05882696 -0.16496107
000140 85 8f 74 bd 46 bb e7 bd a5 39 c9 3d 00 d5 01 3e
       -0.059707183 -0.113150164 0.09825448 0.1267891
000150 ff e4 52 bb a1 72 40 3d df 74 6c bd 14 3b 81 3c
       -0.003217995 0.04698432 -0.057728644 0.015775241
000160 bd df 32 bd b7 6a 27 3d 4f 17 da bc f7 71 a5 bc
       -0.043670405 0.040873256 -0.026622443 -0.020195944
000170 c4 67 a4 bd 70 5c e7 3c 65 02 13 be 40 2d 53 bd
       -0.08027604 0.02824232 -0.14356382 -0.051556826
000180 ed 8e de 3c 34 c5 86 3d 9c 90 91 bc 78 ee f3 bd
       0.027167762 0.06580582 -0.01776915 -0.11910719
000190 06 2b 2a bd 79 94 18 3c 3c bd 38 3b 29 9f 5e 3d
       -0.041544937 0.009312742 0.0028188964 0.054351006
0001a0 cb fd d5 3d 5a 72 18 bd 0a f9 59 bd e2 1d 9c bd
       0.10448798 -0.03721843 -0.053216018 -0.07622887
0001b0 52 68 bd 3c 0e d9 2b bb 65 91 14 3e d3 d0 bf bc
       0.023121033 -0.0026221904 0.14508589 -0.023415005
0001c0 10 ea ad bd 96 4a e3 3d a6 87 2f bc 17 2b 2d be
       -0.084919095 0.110982105 -0.010713493 -0.16910969
0001d0 b2 08 12 3d 49 4f 97 bd 66 f3 15 3c 3d 25 7f 3d
       0.035652824 -0.07388169 0.009152269 0.062291373
0001e0 fb 3b 19 3d a3 91 1a 3c 37 75 4b 3d 5c 91 aa 3d
       0.037410717 0.009434137 0.04967233 0.08328506
0001f0 7c 02 3f bd 73 3b 00 be 00 78 29 be bd 0e f6 3d
       -0.04663323 -0.12522678 -0.16549683 0.1201453
000200 0a 13 03 bd 28 53 b6 3b 5d 8a 08 3c 25 46 99 3d
       -0.03200058 0.005564112 0.00833377 0.07484082
000210 7f 5c 56 3c 5e 01 58 bd 69 1b 9a 3d 81 a1 61 bd
       0.013083576 -0.05273568 0.07524759 -0.055085663
000220 3f b2 f3 3d 80 13 13 3e 6c 04 12 be e1 6b bc 3d
       0.11899232 0.14362907 -0.142595 0.09200264
000230 b8 11 9d bd cc 8a 90 3c 8f 25 dc bd 2d ef ab bc
       -0.07669395 0.017644309 -0.10749351 -0.020988071
000240 af 5e 34 3b d6 ee ad bd bc 64 2c 3e f5 a0 e5 bd
       0.0027522256 -0.0849282 0.16835302 -0.11212341
000250 ec 20 0f 3d 31 7b bf bd c9 14 13 be 31 d1 f9 3c
       0.034943506 -0.09349669 -0.14363398 0.030495258
000260 6b 9b 21 be 25 12 db 3a ca e2 83 3d 57 c2 99 bd
       -0.15781944 0.0016713782 0.06439741 -0.075077705
000270 3e 56 21 3e 61 f7 a8 3d 5a d7 e4 3d c6 0a 9a 3d
       0.15755555 0.08250309 0.111738876 0.07521586
000280 29 b0 ac bd 01 53 8d 3d b2 2f 29 3d 59 e3 53 bb
       -0.084320374 0.06900597 0.04130525 -0.0032331555
000290 16 65 8c bd 4c ed b7 bd 68 7c 3b 3d 78 46 b0 bc
       -0.06855218 -0.08980808 0.04577294 -0.021517977
0002a0 2e d0 6d 3d dc 43 17 3d 35 73 90 3c 82 91 2a 3e
       0.058059864 0.03692995 0.01763306 0.1665707
0002b0 b4 4a 93 3d 0e 5c 28 be ae 59 bc 3d 20 49 0c bd
       0.07191983 -0.16441366 0.091967925 -0.034249425
0002c0 7b f7 db 3c b6 79 dd 3d 61 06 0d be f5 f9 60 3d
       0.026851406 0.1081423 -0.13771965 0.054925878
0002d0 2a 98 53 bd f6 a4 ef bd 7f db 9e 3c 71 be fe 3d
       -0.051658787 -0.11701386 0.019391773 0.124386676
0002e0 8e 59 94 bd fb 41 a3 3b 37 18 b0 3b a9 f8 a9 bd
       -0.07243644 0.0049822307 0.0053739804 -0.08299381
0002f0 9e 78 c9 bc 3d 5c 82 bd 1f 14 71 3d 12 07 01 3e
       -0.024593648 -0.06365249 0.05885708 0.12600353
000300 3a 99 64 3d 5b ac f1 3d d7 6a 9b 3d 70 d2 8a bd
       0.05581019 0.11800452 0.075887375 -0.06778419
000310 9e ac 89 3d 68 81 da 3d 3a 77 3f 3d c9 4c 53 3d
       0.06722377 0.106692135 0.046744563 0.0515869
000320 ea 2b 4c 3d 9c a9 54 3d 09 32 00 3e 62 31 90 bc
       0.049846567 0.051919565 0.12519087 -0.017601673
000330 35 b0 35 3d f2 bd 4f bc 46 63 14 3e 3d 09 bf bc
       0.044357497 -0.012679564 0.14490995 -0.023319835
000340 d5 43 de bd 99 39 0d bd 41 dc b9 3c 76 94 3c 3d
       -0.10852782 -0.034478758 0.022688033 0.04604002
000350 55 9c f8 bd fd 4d 99 3d 46 25 01 3e 26 f2 1e bd
       -0.12139193 0.07485578 0.12611875 -0.03880515
000360 6f 51 01 bc 0d c5 ef 3d 2e bf 08 be b3 62 b0 3d
       -0.00789295 0.11707506 -0.1335418 0.086125754
000370 56 69 b7 bd cc 80 72 3d 05 03 05 3e e4 b0 2a 3d
       -0.08955638 0.05920486 0.12989433 0.041672602
000380 bd 9c 9c bd 6c e1 e9 3d 15 33 d8 bc e5 5c 41 bd
       -0.07647083 0.11419949 -0.026391545 -0.04720773
000390 90 6a 17 bd 52 8e 10 3e 77 06 16 be 79 4e be bc
       -0.03696686 0.14116791 -0.14650904 -0.023230778
0003a0 12 04 85 bd 99 3f 89 3d 73 d4 97 3d d9 05 c3 3d
       -0.06494917 0.067015834 0.07413568 0.095226
0003b0 86 b9 87 3b 50 b4 b4 bd 39 29 07 bd a6 7f 52 3d
       0.004141989 -0.088234544 -0.032998297 0.051391266
0003c0 36 2c ec bb 23 9f 9b bc 3a c7 b8 bd 2e d1 17 3e
       -0.007207419 -0.01899678 -0.090223745 0.1482589
0003d0 cf 46 c3 3d af 00 03 be 10 a1 8e 3d 84 25 d2 3d
       0.0953499 -0.1279323 0.06964314 0.10261062
0003e0 a6 4c d7 bd 5b d7 77 3d 7a 8d 29 bd a0 88 58 bd
       -0.105126664 0.060508113 -0.04139469 -0.05286467
0003f0 b0 d1 5a 3d c6 14 e1 bd 65 94 b6 bc 00 ea 35 3d
       0.05342263 -0.1099029 -0.022287557 0.044412613

module.i_classifier.fc.0.bias f4 [2]
000000 06 30 45 3e a0 9b 84 be
       0.192566 -0.25899982

module.b_classifier.q.0.weight f4 [128, 512]
000000 c6 48 c9 36 63 c1 57 b8 d4 b0 5d b7 70 a8 25 b7
       5.9987387e-06 -5.14401e-05 -1.32137975e-05 -9.873984e-06
000010 bb fa a1 36 2e 40 2b 38 57 06 87 37 b7 f8 46 37
       4.827363e-06 4.082935e-05 1.6096206e-05 1.1859628e-05
000020 55 5c 7c 37 3d 7d 89 37 c8 26 3c 35 60 b0 88 37
       1.5041868e-05 1.6389991e-05 7.009189e-07 1.6294594e-05
000030 e8 75 49 38 f0 da 91 b5 2e 25 92 37 22 55 55 b7
       4.8031943e-05 -1.0867061e-06 1.742187e-05 -1.2715611e-05
000040 86 79 a8 b7 64 e4 21 37 fc 38 e0 b7 2a b9 3f b7
       -2.008375e-05 9.649524e-06 -2.6729416e-05 -1.1427599e-05
000050 ce e5 70 b7 e6 87 3f 38 b2 ae 6e 37 00 9b 05 37
       -1.435862e-05 4.5664514e-05 1.422658e-05 7.9635065e-06
000060 ef 5a 0a 37 82 cd 4e b8 cc 17 5e b7 9a 35 90 b5
       8.246613e-06 -4.930562e-05 -1.3237772e-05 -1.0744436e-06
000070 d4 0e 0b 38 e2 d2 10 b8 37 ad 87 37 b6 19 fb b6
       3.3153992e-05 -3.4528675e-05 1.6173914e-05 -7.483376e-06
000080 4f b4 fb b7 73 ac 43 38 7d dc 87 b7 ec 85 76 38
       -3.0005494e-05 4.665223e-05 -1.6195927e-05 5.8775695e-05
000090 ea 8b 16 b7 7a 80 d1 36 d2 18 16 b7 5a b6 ef b6
       -8.973273e-06 6.243642e-06 -8.946476e-06 -7.1439836e-06
0000a0 02 a3 4e b8 b1 73 08 38 54 57 e0 b7 e8 fe 14 37
       -4.926604e-05 3.2532673e-05 -2.6743546e-05 8.880837e-06
0000b0 48 19 32 b8 6d 7d 8e b7 e3 da 60 b7 0b cd 4a b8
       -4.2462052e-05 -1.6986125e-05 -1.3402404e-05 -4.8351514e-05
0000c0 a7 3b 5d b8 ca b2 0b 37 41 29 d3 36 e6 c0 87 b7
       -5.274606e-05 8.326673e-06 6.2930926e-06 -1.618308e-05
0000d0 49 fe 69 37 72 28 09 b8 9f 0e 38 38 24 06 00 b7
       1.3947088e-05 -3.2701013e-05 4.3882636e-05 -7.630824e-06
0000e0 05 34 15 b7 de 32 b9 b7 46 2d 55 37 95 9f 70 37
       -8.893204e-06 -2.2077405e-05 1.270633e-05 1.434227e-05
0000f0 ab ae e5 b7 4b 9b 00 38 80 9e d8 b7 ad 18 a8 37
       -2.7380263e-05 3.0662206e-05 -2.5823014e-05 2.0038651e-05
000100 9f 11 fc 37 6e ae 59 37 b9 7f 49 b7 89 5d ca 36
       3.0048946e-05 1.29748205e-05 -1.2010271e-05 6.030958e-06
000110 3c d5 9e b7 e9 bb c0 37 bd d6 1e b6 6c 6c 9a 37
       -1.8934363e-05 2.2975686e-05 -2.3668829e-06 1.8408718e-05
000120 3a 78 06 b8 0d d4 5f b8 c2 a8 2e 37 5d cc 4d b7
       -3.206006e-05 -5.336483e-05 1.04105e-05 -1.2266534e-05
000130 b8 de 04 38 9d 1a 72 b7 46 f4 f6 36 00 ea a8 36
       3.1678675e-05 -1.443052e-05 7.3598085e-06 5.0340313e-06
000140 3e d3 9f 37 c0 32 9e 37 10 fd 52 38 0c d6 01 37
       1.9052644e-05 1.88587e-05 5.0303584e-05 7.738836e-06
000150 61 90 68 b7 76 b2 ce 37 f3 9a 6b 37 d3 e9 68 b8
       -1.3861893e-05 2.4640216e-05 1.4043168e-05 -5.5530876e-05
000160 ad 13 63 36 ba 39 3f b7 ea 63 32 38 7b 03 6e b7
       3.3837089e-06 -1.1397928e-05 4.253156e-05 -1.4186716e-05
000170 c6 f1 19 b8 ae 34 8c 37 51 77 b1 b7 a1 e9 27 37
       -3.670321e-05 1.6713831e-05 -2.1155605e-05 1.0008372e-05
000180 f7 83 94 b6 57 af 3c 38 09 13 16 b7 7f 5b 08 b8
       -4.4261064e-06 4.498599e-05 -8.945129e-06 -3.251014e-05
000190 3c 1d ba b5 f4 9d e7 36 67 fc 9f b7 ee 30 2e b7
       -1.3866588e-06 6.9027246e-06 -1.9071811e-05 -1.03826005e-05
0001a0 a0 a7 e6 37 eb 55 43 b7 54 b1 09 b8 91 47 05 b8
       2.7496193e-05 -1.164291e-05 -3.2828495e-05 -3.1776322e-05
0001b0 6d 3d 8e b7 5a f6 90 37 2f 22 35 37 9b 2b b7 36
       -1.6956323e-05 1.7280854e-05 1.07964e-05 5.4589013e-06
0001c0 f1 01 2f 36 3b ee 48 38 42 01 33 37 01 88 37 b8
       2.6078162e-06 4.7905585e-05 1.0669524e-05 -4.3757263e-05
0001d0 1c 2c 32 b7 ac 11 78 37 3b d1 0f 37 0f a3 c2 36
       -1.0619897e-05 1.47860665e-05 8.5721795e-06 5.800633e-06
0001e0 18 72 3b b7 2d 56 30 b8 8b 1e 88 b7 90 c1 5a 37
       -1.1172633e-05 -4.2041927e-05 -1.6226686e-05 1.303888e-05
0001f0 df f1 cd 36 01 47 65 38 9f e5 74 37 ee 32 f5 36
       6.1376336e-06 5.4663982e-05 1.4596996e-05 7.307498e-06
000200 67 c9 73 36 30 95 57 36 d9 3c 8e b7 81 f6 fa b6
       3.6327053e-06 3.2124335e-06 -1.6956054e-05 -7.4792774e-06
000210 85 6a 9d b7 a6 36 93 b7 6b a1 b7 b7 04 c0 19 38
       -1.876546e-05 -1.7549213e-05 -2.1890466e-05 3.665687e-05
000220 10 32 4b 38 9d 9f 0f 38 0e 57 61 b7 49 97 8f 37
       4.8445596e-05 3.424251e-05 -1.3431314e-05 1.7117376e-05
000230 c9 1a fb b6 e7 c2 17 38 9c 7c ec 36 7f d7 c3 37
       -7.483501e-06 3.6182722e-05 7.0478545e-06 2.334616e-05
000240 3f dc 05 b8 48 af b1 b6 75 2d 75 b7 1a 38 32 b8
       -3.191479e-05 -5.2954165e-06 -1.4613722e-05 -4.2490756e-05
000250 8e cb 82 35 c4 3e cf b6 da 2d 1a 37 45 e7 2a b8
       9.744997e-07 -6.1763876e-06 9.189791e-06 -4.0746545e-05
000260 05 3c 3f 36 76 df f1 b6 b4 b5 3f 37 c2 e0 cc 36
       2.8496154e-06 -7.208374e-06 1.1426793e-05 6.105839e-06
000270 a8 a0 4b b7 15 5c 14 b8 6e 3c dc b6 ee b8 bc b7
       -1.2137149e-05 -3.5371708e-05 -6.563546e-06 -2.2497461e-05
000280 64 9c 27 b8 c7 d3 ee 36 2c 87 f4 36 04 73 9b 34
       -3.9961553e-05 7.117607e-06 7.2875027e-06 2.8954685e-07
000290 dd 7e 19 b8 29 7a 9d b7 38 5e dd b6 b3 31 94 b6
       -3.6596193e-05 -1.8772744e-05 -6.5972818e-06 -4.4165295e-06
0002a0 df 6e 63 b7 6e 99 85 37 c9 8b d8 36 a8 e9 83 37
       -1.3556069e-05 1.5926282e-05 6.4535748e-06 1.5725222e-05
0002b0 39 29 84 37 2b e7 4a 38 97 f4 4f 38 ad 09 04 38
       1.5754822e-05 4.8375845e-05 4.9580438e-05 3.1480264e-05
0002c0 46 57 0c b6 31 ee 88 b7 f9 58 3c b7 b1 46 05 b7
       -2.0912425e-06 -1.632338e-05 -1.1226389e-05 -7.943877e-06
0002d0 a3 90 40 37 0f f8 20 37 61 74 3e 37 f0 04 46 b7
       1.1477768e-05 9.594499e-06 1.1351979e-05 -1.1802869e-05
0002e0 89 87 97 b7 af ac a3 b7 ed fb 8b b7 a6 bf 9c b6
       -1.8063716e-05 -1.9511526e-05 -1.6687403e-05 -4.671473e-06
0002f0 76 c3 a7 b7 dc 53 a8 b7 f7 f3 6d b7 3d 82 86 b7
       -1.999897e-05 -2.006621e-05 -1.4183103e-05 -1.6034692e-05
000300 b3 a8 2d 38 89 90 a6 36 0e 30 84 37 ee d1 63 b8
       4.1403528e-05 4.9640116e-06 1.5758003e-05 -5.431653e-05
000310 bb e6 48 37 2a f4 64 37 d4 5a a9 37 c0 11 d1 b5
       1.197465e-05 1.3646708e-05 2.0188665e-05 -1.5576879e-06
000320 45 11 80 37 64 5d 39 37 ae a2 36 37 10 65 37 38
       1.526683e-05 1.10486035e-05 1.0885922e-05 4.372472e-05
000330 e2 eb 11 38 22 5f a0 37 0b 56 6d b7 b8 7b 96 36
       3.4790377e-05 1.9117786e-05 -1.4146334e-05 4.484751e-06
000340 d0 25 20 b7 0e 99 89 38 b9 76 8a b6 63 bb 62 38
       -9.545547e-06 6.561178e-05 -4.1265416e-06 5.4057116e-05
000350 b6 e8 09 36 46 ae 4e b8 1f dc 0a 38 40 b5 a7 b7
       2.0550046e-06 -4.9276532e-05 3.3106768e-05 -1.9992352e-05
000360 62 43 28 37 c5 c1 39 38 59 82 0f b8 8f 08 6f 37
       1.0029269e-05 4.42879e-05 -3.4215253e-05 1.4247503e-05
000370 32 16 6f 37 5c d9 64 b7 33 42 29 b8 77 fe 30 b7
       1.4250678e-05 -1.3640467e-05 -4.0354393e-05 -1.0549665e-05
000380 6d 2f e4 b6 37 ff 58 b7 3c e3 84 37 e8 40 e5 37
       -6.8004506e-06 -1.2934025e-05 1.584144e-05 2.7329152e-05
000390 85 86 8f b7 b5 02 5d 37 7e 25 85 37 24 25 98 b7
       -1.7109569e-05 1.3173257e-05 1.5872294e-05 -1.8137107e-05
0003a0 9c ec 80 37 49 25 88 b7 7c 56 45 37 f8 71 b4 b7
       1.5368969e-05 -1.6229826e-05 1.1762251e-05 -2.1510743e-05
0003b0 6b d3 b9 b7 4e 2e a3 37 4c a9 49 38 1b 15 36 b7
       -2.2152168e-05 1.9452676e-05 4.8079804e-05 -1.0852959e-05
0003c0 9a 4b 1e b7 21 9b e3 b7 5e 6f 5b 37 f5 48 6e b7
       -9.435136e-06 -2.7132746e-05 1.3079347e-05 -1.4202892e-05
0003d0 e3 6d 0d 38 00 d6 85 b7 55 44 2e 38 cb d5 ca 36
       3.371936e-05 -1.5954487e-05 4.1548472e-05 6.044958e-06
0003e0 08 34 22 36 22 87 39 b7 16 c2 12 b8 98 77 43 38
       2.4170167e-06 -1.1058322e-05 -3.498987e-05 4.6603003e-05
0003f0 7d 37 b7 37 ee a8 87 37 9f ac 4b b8 43 0d 80 b6
       2.1841139e-05 1.6171918e-05 -4.8559737e-05 -3.816241e-06

module.b_classifier.q.0.bias f4 [128]
000000 29 65 64 b8 05 c7 12 37 d3 b9 5b 37 eb 96 b8 b6
       -5.445365e-05 8.748616e-06 1.3096683e-05 -5.5011965e-06
000010 e7 d5 e4 b7 15 f4 e6 b6 f7 d7 56 b6 6b eb 87 38
       -2.7279324e-05 -6.882949e-06 -3.2014193e-06 6.481152e-05
000020 04 fd 3f b8 5d 4e 94 34 92 09 45 b8 83 7a 2b b8
       -4.5773588e-05 2.7624165e-07 -4.6977373e-05 -4.0883675e-05
000030 09 cf 8a b7 7d e0 61 b6 33 c8 c9 37 d3 2f bb b7
       -1.654729e-05 -3.3658282e-06 2.4054292e-05 -2.2314407e-05
000040 1d e6 49 b8 94 ca 08 38 9a 1c 40 35 60 ab 29 b7
       -4.8136444e-05 3.2613592e-05 7.1567194e-07 -1.0113086e-05
000050 c9 b8 e8 b7 9d 85 98 b7 f8 d8 6e b7 1f ac f5 b7
       -2.7742602e-05 -1.818203e-05 -1.4236422e-05 -2.9286426e-05
000060 25 8f 4d b7 85 f9 b3 b7 6e 3d af b7 a0 28 9e b7
       -1.2252281e-05 -2.1454654e-05 -2.0890231e-05 -1.8853985e-05
000070 db f1 4b 38 a8 48 6c b7 4a 4f 84 37 1d 7c 3e 38
       4.8624217e-05 -1.4083613e-05 1.5772548e-05 4.541512e-05
000080 8c 06 ee b7 15 fe 65 b7 84 05 4f 38 82 bb 59 b8
       -2.837486e-05 -1.3708622e-05 4.9357783e-05 -5.1911462e-05
000090 29 4e 38 38 1f 64 6d b7 15 45 e0 b7 ac 35 c1 37
       4.394181e-05 -1.4149612e-05 -2.673505e-05 2.3032386e-05
0000a0 42 ca 59 b7 e8 41 0e 37 92 69 cf 37 24 75 2b 37
       -1.29813e-05 8.479205e-06 2.4725483e-05 1.0219668e-05
0000b0 f3 d4 74 37 6b 5d a6 37 ca 03 92 37 e9 0d 81 b7
       1.4593114e-05 1.9832243e-05 1.740632e-05 -1.5384476e-05
0000c0 1e 9c 19 38 2c 2f 1a 35 c5 b4 1a b7 76 07 2b b7
       3.6623438e-05 5.7438115e-07 -9.221204e-06 -1.0194131e-05
0000d0 53 3b 39 b8 72 6b 56 35 cd 0f 53 b8 bd f9 79 b7
       -4.4162687e-05 7.9877566e-07 -5.0321036e-05 -1.4899703e-05
0000e0 8b 0e 20 b7 6e 56 70 b6 c5 05 2a 37 f0 53 7a b7
       -9.540129e-06 -3.5813096e-06 1.0134133e-05 -1.4920704e-05
0000f0 a5 56 48 b8 8b 26 d0 b7 8d ee 2a b7 ab c9 38 37
       -4.776441e-05 -2.481348e-05 -1.01883315e-05 1.1014209e-05
000100 ea 72 1b 37 d7 f7 85 37 a1 7a 0c b8 d6 26 e2 36
       9.2654755e-06 1.5970245e-05 -3.3492808e-05 6.739846e-06
000110 cc 47 9a 37 f1 bc 3f 37 1a 43 29 38 89 f0 de 36
       1.8391664e-05 1.14284785e-05 4.0355233e-05 6.6441175e-06
000120 ef 8b 91 37 65 5a 83 37 a0 db 30 38 cb 3e 94 b7
       1.7350509e-05 1.565851e-05 4.216621e-05 -1.7672215e-05
000130 16 df de b6 03 f6 33 b8 98 a4 cb b6 c7 d0 ce b6
       -6.642086e-06 -4.2906042e-05 -6.0690327e-06 -6.1635833e-06
000140 eb b5 ba 37 af cd 62 36 5f 1c 0b b8 c4 40 3c b7
       2.225764e-05 3.3796348e-06 -3.3166605e-05 -1.1220753e-05
000150 2c 15 a2 b7 89 c2 0e 37 a9 b0 5f 37 48 ba f8 b7
       -1.9321764e-05 8.509153e-06 1.3332968e-05 -2.9650648e-05
000160 bd 2d aa b7 f2 db 02 38 4d 4e f5 b7 0a 58 8f 36
       -2.0286878e-05 3.1199255e-05 -2.9242738e-05 4.271981e-06
000170 a9 55 41 b8 22 b8 0e 37 3c f0 1b b8 ab 10 2d b7
       -4.6094563e-05 8.506731e-06 -3.7178615e-05 -1.0315484e-05
000180 8a 8c ad 36 96 aa d3 b6 e0 a3 22 b7 91 90 e8 b6
       5.1721627e-06 -6.308149e-06 -9.694108e-06 -6.9309685e-06
000190 a9 c6 83 b7 5f a1 f6 37 2c 85 ef 37 76 87 93 37
       -1.5708925e-05 2.940063e-05 2.8553033e-05 1.7586844e-05
0001a0 71 f6 64 36 40 00 89 b7 57 a3 8f 37 96 f5 61 38
       3.4118095e-06 -1.6331789e-05 1.712299e-05 5.38729e-05
0001b0 d0 41 5e b7 9a 2e 17 37 54 cc 79 37 ce 94 23 37
       -1.3247554e-05 9.011152e-06 1.488913e-05 9.750203e-06
0001c0 39 91 b7 b7 4f 33 75 36 26 a8 86 b7 21 6e 21 37
       -2.1882925e-05 3.653771e-06 -1.6052345e-05 9.621989e-06
0001d0 7e 2c 4a 38 38 6f 50 b8 0e 2a 2a b7 f6 d9 91 37
       4.820199e-05 -4.9694645e-05 -1.0142581e-05 1.7386843e-05
0001e0 05 ff 4c b8 36 ae 98 37 d0 c8 68 37 57 8f 89 37
       -4.8874896e-05 1.8200935e-05 1.3875033e-05 1.639842e-05
0001f0 9a 38 8e b7 68 2f 09 37 d7 fb 8f 38 0f f0 fd 37
       -1.6954076e-05 8.176874e-06 6.86568e-05 3.0271736e-05

module.b_classifier.q.2.weight f4 [128, 128]
000000 ec 5a a2 b7 de 0d 17 38 31 68 64 b8 b9 bc a3 b6
       -1.9354244e-05 3.601412e-05 -5.4456472e-05 -4.8797488e-06
000010 e4 e8 93 b7 cf da 88 37 6f 1e 39 37 9b c9 80 b7
       -1.7632214e-05 1.6314354e-05 1.1033945e-05 -1.5352669e-05
000020 77 ac 34 b8 08 a7 6b b7 2a a1 9e 37 14 e7 5c 38
       -4.3075965e-05 -1.40459815e-05 1.8910116e-05 5.2667296e-05
000030 a2 e4 79 b7 06 21 a7 37 33 1c 2b 38 f9 2c 58 b8
       -1.4894789e-05 1.992333e-05 4.079584e-05 -5.1540297e-05
000040 00 cb 83 b7 5d 56 2c 37 d3 66 0a 38 c0 2c 29 b7
       -1.5710946e-05 1.0272107e-05 3.2997526e-05 -1.0083604e-05
000050 37 b5 97 b6 18 3c 4c b8 17 6b 3f 38 81 8a c3 b7
       -4.521247e-06 -4.8693357e-05 4.5637684e-05 -2.3310307e-05
000060 54 ae 23 b7 83 c0 a8 b7 62 8d 25 38 86 53 4d 37
       -9.756146e-06 -2.0116806e-05 3.947074e-05 1.2238399e-05
000070 39 28 c3 37 36 1e 92 b3 aa 90 0c 37 2c 39 0a b8
       2.3264542e-05 -6.80415e-08 8.3783325e-06 -3.295501e-05
000080 2c b2 c2 b5 95 26 8c 37 d9 45 ce b7 3e 0f 43 b8
       -1.4505981e-06 1.6707267e-05 -2.4589639e-05 -4.650582e-05
000090 44 23 c7 b6 4a df 19 b7 8f 39 cc b7 38 31 93 b7
       -5.9347676e-06 -9.171499e-06 -2.4345498e-05 -1.7546685e-05
0000a0 7e 71 47 38 8b 1e 99 b6 c9 18 0e b8 da 4c 69 38
       4.7550995e-05 -4.563311e-06 -3.387852e-05 5.5623103e-05
0000b0 28 0a 4c 38 84 b2 e8 b7 1b 7c 01 37 e9 bd 03 38
       4.864685e-05 -2.7739683e-05 7.717895e-06 3.14097e-05
0000c0 ad 44 90 b6 ba 4f 4c b8 80 66 5a b8 0e e9 ac b7
       -4.2995293e-06 -4.871164e-05 -5.207071e-05 -2.0612522e-05
0000d0 21 65 35 b8 ce 69 13 b7 86 23 51 b8 14 9c d9 36
       -4.3247946e-05 -8.786517e-06 -4.9862567e-05 6.485274e-06
0000e0 0f da 6d b7 8f 0c aa 37 29 dc 87 b7 c4 f8 b3 37
       -1.41770715e-05 2.0271427e-05 -1.6195774e-05 2.1454303e-05
0000f0 af 77 16 38 87 bb 5c 38 c4 9e 62 b8 4c f8 30 38
       3.587425e-05 5.2626736e-05 -5.403046e-05 4.2192914e-05
000100 f6 0c e8 36 17 7a 2a 37 c5 fe 06 b8 2a b9 a6 b7
       6.9156476e-06 1.0161216e-05 -3.2185362e-05 -1.9874966e-05
000110 a1 b4 46 b8 b7 70 e3 b7 c0 a6 7c b7 26 fe 1f 37
       -4.7375102e-05 -2.7112996e-05 -1.5059195e-05 9.536312e-06
000120 e4 6e f0 36 e5 89 a5 b7 44 4a 0f b7 76 19 04 b7
       7.1654667e-06 -1.9733745e-05 -8.5407555e-06 -7.873741e-06
000130 2b 97 08 b8 74 b9 8a 38 30 65 01 38 09 e9 f0 b7
       -3.2565713e-05 6.614896e-05 3.0850235e-05 -2.8718745e-05
000140 93 a7 ce 36 42 fe ea b6 f7 50 5b b8 35 13 15 b8
       6.1587866e-06 -7.003343e-06 -5.2289073e-05 -3.5542256e-05
000150 21 80 fa 36 a5 28 38 b6 6f 7b 0b b7 1b 37 39 38
       7.4654968e-06 -2.7441795e-06 -8.313785e-06 4.4158758e-05
000160 e6 6d 80 b7 3d c1 1b 37 91 6d 53 b7 9c 63 a5 b7
       -1.5309965e-05 9.283712e-06 -1.26020905e-05 -1.9715917e-05
000170 24 d8 23 b8 85 6a b0 37 d5 3e 82 b7 88 94 1f 37
       -3.9063525e-05 2.1030437e-05 -1.5526466e-05 9.511721e-06
000180 a8 5d 68 b8 33 e2 26 b8 f0 80 08 b8 88 c3 bc b7
       -5.5400335e-05 -3.978815e-05 -3.254501e-05 -2.2502398e-05
000190 a3 10 a2 b7 65 79 4a 38 2a 11 85 37 0e 8a a2 37
       -1.9319652e-05 4.827361e-05 1.5862828e-05 1.9376192e-05
0001a0 91 82 80 36 5d 35 3d b8 09 e9 04 b7 55 89 82 37
       3.829897e-06 -4.511081e-05 -7.922071e-06 1.5561158e-05
0001b0 53 ee 77 37 bd 4b 43 b8 5d c3 c8 b7 d5 fb 4e b8
       1.4777836e-05 -4.656216e-05 -2.3932831e-05 -4.9348764e-05
0001c0 2f 06 88 b7 ba 5b f8 b6 9b 07 0f 36 ae 62 64 37
       -1.6215343e-05 -7.4016543e-06 2.1313087e-06 1.3612835e-05
0001d0 4f 58 8d 37 19 3c 45 38 e0 2f 35 b7 79 b6 f7 36
       1.6849632e-05 4.702443e-05 -1.07995875e-05 7.3824162e-06
0001e0 c5 75 72 b7 a3 0f d1 b7 48 54 48 38 92 2b ad 37
       -1.4451744e-05 -2.4922023e-05 4.776221e-05 2.0643496e-05
0001f0 2e df 2e 38 f2 1a 50 b7 c1 c2 0e 38 4b 3b 63 36
       4.1692685e-05 -1.240404e-05 3.4036817e-05 3.386015e-06
000200 eb df 61 38 c8 e0 a8 b6 ce 9b 4a b8 c2 d3 34 37
       5.385272e-05 -5.032958e-06 -4.8305657e-05 1.077814e-05
000210 92 3d 6f 38 59 9b 43 37 bf 94 a4 b7 2b 25 b2 b7
       5.7039382e-05 1.1659075e-05 -1.9619589e-05 -2.1236561e-05
000220 4c c4 81 36 eb 0b ae b6 31 d5 32 b7 4a 45 79 37
       3.8673516e-06 -5.1869915e-06 -1.0659264e-05 1.4857689e-05
000230 53 ec 49 37 8a ae 63 38 ea d0 57 b8 76 58 1d b8
       1.2035557e-05 5.428357e-05 -5.145456e-05 -3.7514103e-05
000240 67 58 a5 b7 b8 a0 d9 b4 41 9f 36 b8 d6 fe 0e b8
       -1.9710698e-05 -4.0536338e-07 -4.3540498e-05 -3.4092773e-05
000250 59 da a4 37 a3 46 eb b7 18 62 37 37 f6 f7 9a 37
       1.9652e-05 -2.8047076e-05 1.0930489e-05 1.8473696e-05
000260 d6 65 71 37 59 3d da 36 f4 3f db 35 16 58 76 37
       1.438843e-05 6.504048e-06 1.6335384e-06 1.4683252e-05
000270 8d ab 0c b8 87 1c 98 b7 c0 bd fc 37 43 47 db 36
       -3.353837e-05 -1.8133096e-05 3.01291e-05 6.5350046e-06
000280 69 10 d8 b7 d1 39 17 38 f0 41 2e 38 bc 59 06 b6
       -2.5756848e-05 3.605505e-05 4.1546242e-05 -2.0019788e-06
000290 e0 40 b1 37 c7 fe 35 b8 e6 be 29 b8 71 17 24 38
       2.1130254e-05 -4.3391043e-05 -4.0470528e-05 3.912248e-05
0002a0 41 e5 09 37 66 c1 9a b7 25 12 1f 37 1e f1 84 b7
       8.219214e-06 -1.8448289e-05 9.481363e-06 -1.5847905e-05
0002b0 db 02 64 37 ab 5f c0 37 b7 7b e6 37 14 99 d1 b7
       1.3590524e-05 2.2932732e-05 2.7475746e-05 -2.4986024e-05
0002c0 05 16 c0 b7 45 e0 0a b7 35 8a 1f b7 3d 62 56 37
       -2.2898437e-05 -8.277658e-06 -9.509317e-06 1.2778267e-05
0002d0 f8 eb 36 37 1b 4b be 36 1a c0 a0 37 e3 a6 bf 37
       1.0902986e-05 5.6711847e-06 1.916294e-05 2.2846687e-05
0002e0 b6 3b 7f b7 d7 0f d8 b7 d7 a0 8b 38 8c 99 b9 37
       -1.5213087e-05 -2.5756583e-05 6.657995e-05 2.212522e-05
0002f0 85 ec 83 b7 94 26 0f 37 2d 9e 85 b7 b0 3f f5 b6
       -1.5726555e-05 8.532446e-06 -1.5928492e-05 -7.308983e-06
000300 8d 5a fa b7 12 2c f2 37 24 81 5f 37 03 97 2e 37
       -2.9844488e-05 2.886917e-05 1.3321904e-05 1.0406368e-05
000310 85 76 79 36 11 04 36 38 28 8c 53 38 a7 23 00 b8
       3.7172879e-06 4.339597e-05 5.043685e-05 -3.0550782e-05
000320 f8 9f 2c 37 31 bb 1f b7 13 70 37 b7 f3 fa 93 b6
       1.02892445e-05 -9.520722e-06 -1.0933744e-05 -4.4101557e-06
000330 f2 30 4f 38 94 5f 8f 37 17 08 95 37 c3 fa 8e b6
       4.939823e-05 1.7091435e-05 1.7765951e-05 -4.2611223e-06
000340 c5 0a 93 b7 08 c8 57 b7 96 c3 bb 37 86 bd 58 38
       -1.752878e-05 -1.2861572e-05 2.2383214e-05 5.167492e-05
000350 80 cc be b6 23 0b 82 b7 a5 b2 73 37 26 b4 91 37
       -5.686248e-06 -1.5502394e-05 1.4525523e-05 1.7369235e-05
000360 79 65 9b 37 60 cd 30 38 a2 d1 89 37 a0 dc 97 b7
       1.8524692e-05 4.215294e-05 1.642929e-05 -1.810334e-05
000370 3d 85 a1 b6 b5 37 5f 36 e1 84 10 b8 14 7c 88 b7
       -4.813685e-06 3.3262015e-06 -3.445603e-05 -1.6270242e-05
000380 79 ac e9 36 ba 89 0e 38 66 e2 e8 b6 76 31 0e b8
       6.9640196e-06 3.3983706e-05 -6.940495e-06 -3.3901502e-05
000390 48 49 49 37 0d 59 10 b8 c9 f5 3d b8 43 01 9a 36
       1.1997596e-05 -3.441521e-05 -4.5290017e-05 4.5897045e-06
0003a0 1a 25 46 38 36 82 0a 38 4a bd 40 b7 a5 7c 8a b7
       4.7241432e-05 3.3023032e-05 -1.1488164e-05 -1.6508924e-05
0003b0 b8 2d 54 37 29 59 6d 37 bb e1 0b 38 21 ca b6 37
       1.2646829e-05 1.414706e-05 3.335041e-05 2.1790214e-05
0003c0 1c 6f 94 37 a1 a4 29 37 e6 8b 3f b7 93 79 6c b8
       1.7694714e-05 1.0111516e-05 -1.141706e-05 -5.638001e-05
0003d0 97 83 aa b6 69 53 77 38 76 6c 6b 37 23 0d 6a 38
       -5.081714e-06 5.896707e-05 1.4032345e-05 5.5802182e-05
0003e0 43 a6 98 37 24 21 99 37 39 e5 63 37 66 9d a2 37
       1.8197234e-05 1.8254454e-05 1.3583624e-05 1.93852e-05
0003f0 42 86 68 b8 15 59 3b 37 16 d4 1a b8 51 06 57 b8
       -5.5438148e-05 1.116681e-05 -3.691398e-05 -5.1265877e-05

module.b_classifier.q.2.bias f4 [128]
000000 56 9b 3c b7 61 b9 04 37 71 85 3a b8 12 65 5a 37
       -1.124184e-05 7.910975e-06 -4.4470133e-05 1.3017345e-05
000010 03 6e 0c 38 69 be 5f b7 6c 7e 41 37 e7 b6 4c 38
       3.3481057e-05 -1.3336169e-05 1.1533131e-05 4.880773e-05
000020 0c ac 30 b8 5b 3f 45 b8 c3 75 08 b7 9d 1a a7 37
       -4.21219e-05 -4.7027464e-05 -8.13365e-06 1.9920344e-05
000030 6d 31 2e b8 8a cd 12 b8 44 60 2e b8 ad 88 07 b7
       -4.1530864e-05 -3.5000536e-05 -4.1574487e-05 -8.078449e-06
000040 4e aa 78 b7 00 07 67 b7 18 bf 78 b7 63 e6 3e b7
       -1.4821604e-05 -1.3770303e-05 -1.4826444e-05 -1.1378524e-05
000050 2e 5b a5 b7 42 94 1e b7 9a 6c 4c 38 7c e3 6d 38
       -1.9711992e-05 -9.452053e-06 4.8738533e-05 5.6717065e-05
000060 4f 59 7f 36 c4 7d 40 b8 f3 e1 8c 37 35 8c b1 37
       3.8049945e-06 -4.5893496e-05 1.6794516e-05 2.1165333e-05
000070 90 6d 8a b7 25 d5 a2 b7 b2 14 2c 37 25 cf 01 b8
       -1.6501901e-05 -1.9411158e-05 1.0256817e-05 -3.0948915e-05
000080 84 38 c4 36 2f 32 9e b7 9c 01 bf 36 9d dd 18 38
       5.8478345e-06 -1.8858436e-05 5.692431e-06 3.6446017e-05
000090 13 4e 0f 38 a1 7b b8 38 83 35 32 b8 5d 0b 57 38
       3.416657e-05 8.7968314e-05 -4.2488344e-05 5.1270577e-05
0000a0 5b 74 77 b7 ec 9f a3 37 f3 b3 66 b7 d6 ed 03 b7
       -1.4749438e-05 1.9505584e-05 -1.3750966e-05 -7.863584e-06
0000b0 51 c9 02 b8 b5 b3 ee 35 10 2e b1 b7 a5 d1 b9 b7
       -3.1181906e-05 1.7784683e-06 -2.1121494e-05 -2.2151342e-05
0000c0 5f 78 5f b7 18 56 0a 38 c3 e0 a4 b7 c7 27 ff 37
       -1.3319862e-05 3.2981945e-05 -1.9654986e-05 3.0416892e-05
0000d0 73 97 1c 36 e1 22 85 36 be 6f c8 37 42 71 d7 36
       2.3333967e-06 3.9677693e-06 2.3893892e-05 6.4206843e-06
0000e0 10 6b a0 37 b8 a1 90 38 dd 98 51 b7 d5 00 4b b7
       1.9123341e-05 6.8965775e-05 -1.2492962e-05 -1.2099937e-05
0000f0 a6 95 4b 38 0b d3 69 b7 f4 b0 9c b5 ff 18 9a 37
       4.8538343e-05 -1.39370195e-05 -1.1674406e-06 1.836987e-05
000100 bc 68 88 37 72 82 62 37 3d 02 92 b7 d4 a0 49 38
       1.6261234e-05 1.3501021e-05 -1.7405599e-05 4.8071917e-05
000110 7b d4 5d 37 09 b6 e5 b7 38 ef 5c b8 90 d4 16 37
       1.32220985e-05 -2.7383694e-05 -5.2674877e-05 8.990188e-06
000120 b2 56 03 38 9e 35 ec 37 33 b8 25 38 ff fb ef b7
       3.1313575e-05 2.815836e-05 3.9510614e-05 -2.8608365e-05
000130 78 d4 ba 36 a1 04 ae 36 5c f4 d4 36 7b e3 27 37
       5.5679666e-06 5.186143e-06 6.3465395e-06 1.000694e-05
000140 6c 6f 73 b7 9a dd 0d 38 0d 9a 27 37 ea 18 77 37
       -1.4509871e-05 3.3823402e-05 9.989843e-06 1.4728148e-05
000150 32 a3 8d b7 b2 bb 91 37 5c d8 38 37 c3 c2 9d 37
       -1.6884504e-05 1.737275e-05 1.101763e-05 1.8806551e-05
000160 07 c4 01 b7 07 e9 8c 37 9d 01 14 38 58 e3 18 b8
       -7.73464e-06 1.6797812e-05 3.5287452e-05 -3.6451354e-05
000170 4c 2f 80 b7 43 0e 86 36 1d a4 87 b7 c1 77 a6 b7
       -1.5280813e-05 3.9951715e-06 -1.6169675e-05 -1.9844507e-05
000180 1c c1 ee b6 29 2e b8 b7 60 e0 73 37 c9 23 16 b8
       -7.1154336e-06 -2.1956004e-05 1.453617e-05 -3.5796114e-05
000190 45 b7 1b 38 7c c2 a7 37 59 85 0d b8 27 40 d5 b7
       3.7125563e-05 1.9998515e-05 -3.374121e-05 -2.5421452e-05
0001a0 8c a9 0f 38 6a 43 26 38 87 c2 9f 37 8d 30 92 b7
       3.425176e-05 3.964027e-05 1.904486e-05 -1.7427164e-05
0001b0 0d d0 2d 38 55 34 81 37 65 fb 6f 37 dc ba 06 b8
       4.1440177e-05 1.5402367e-05 1.4304042e-05 -3.2122116e-05
0001c0 b0 19 51 b8 7e 4e 77 b7 5a 93 e4 b6 2a dc a8 37
       -4.9853406e-05 -1.4740623e-05 -6.8120835e-06 2.0129683e-05
0001d0 98 c3 9b b6 f1 24 48 38 e4 a4 4f b8 ae 2a 44 b8
       -4.64213e-06 4.771812e-05 -4.9506212e-05 -4.676979e-05
0001e0 4a ab 2a b7 52 75 f0 36 e5 fc 47 b6 d2 2d d7 b5
       -1.0172671e-05 7.1662153e-06 -2.9800515e-06 -1.6032084e-06
0001f0 db 77 a8 b7 66 48 cd b7 15 b9 36 b8 5f 1e 0c 38
       -2.0082973e-05 -2.4471618e-05 -4.3564552e-05 3.3406886e-05

module.b_classifier.fcc.weight f4 [2, 2, 512]
000000 51 aa 16 3c 65 de 10 bc 72 e0 11 3c a7 89 5b 3c
       0.00919588 -0.0088420855 0.00890361 0.013399518
000010 c7 f2 a6 bc d3 12 0d 3d 5d eb b5 3c 13 3a 90 3c
       -0.020379437 0.03444178 0.022206957 0.017605817
000020 50 e5 1e bd 6a bc 1c bd c6 69 d6 3c 6b 02 5b 3c
       -0.03879291 -0.038265623 0.026173484 0.013367276
000030 d9 11 e7 3c 51 36 37 bb 9f 08 29 3c 53 24 b5 bb
       0.028206753 -0.002795596 0.010316997 -0.005528012
000040 b3 36 3b 3d d3 d1 54 3b 76 9f a1 3c 1b 2b a5 3b
       0.045706462 0.0032473698 0.019729357 0.005040539
000050 be 68 d2 bb 5a ec 06 bd fe 46 b7 3c 75 93 e3 ba
       -0.0064211776 -0.032940246 0.022372719 -0.0017362671
000060 bd 4a 4f bc 1b 7e 08 3a e9 b7 17 bd 55 b2 32 bc
       -0.012652096 0.00052067795 -0.037040625 -0.0109067755
000070 35 c9 67 bc f8 60 3f bc d3 ae 4d bc f8 4a 72 bc
       -0.014147093 -0.011680834 -0.012553888 -0.014788382
000080 64 51 54 3c 8b 23 6d 3c 99 89 a4 3c 64 9e b4 3c
       0.012958858 0.014473806 0.020085143 0.022048183
000090 c1 38 fb 3c 51 02 cf 3c ab bc 33 bc b3 59 62 bc
       0.03066671 0.02526966 -0.010970275 -0.013815331
0000a0 4d c1 2d 3b 25 a5 8d bc 4b bd 21 3c b4 f0 57 3c
       0.0026512921 -0.017290661 0.009871791 0.013179947
0000b0 19 79 b6 3c 6b f7 e3 3b a4 8d 0f 3d 02 4b 57 3b
       0.02227454 0.0069569848 0.03504719 0.0032851105
0000c0 83 95 94 39 88 e0 f8 bb 30 58 87 bc 55 ba fa bb
       0.00028340155 -0.0075951256 -0.016521543 -0.007651607
0000d0 ca 3a b0 ba 30 99 a4 3c 32 40 08 3c 60 3f 3d 3c
       -0.0013445255 0.020092577 0.008316087 0.011550754
0000e0 0a 35 91 bb e9 ec c1 3c 91 93 31 bd 73 b5 ed 3c
       -0.0044313716 0.023672538 -0.04335362 0.029017186
0000f0 d8 ea 2a bb cd b4 a4 3c 22 14 9f 3b 48 db 24 bc
       -0.002607992 0.020105744 0.004854695 -0.010062046
000100 24 23 bf bc 77 cb 74 3c 03 27 31 bd 5a c9 ae bc
       -0.023332186 0.014941088 -0.043250095 -0.021336246
000110 c3 d1 91 bc 65 dc 1d bc ac d4 dc bb 4e ac 8a bc
       -0.017800217 -0.009635066 -0.0067392197 -0.016927864
000120 47 42 d8 3a 91 81 a7 bc 19 99 8d 3b ed a9 50 3c
       0.0016499244 -0.020447524 0.004321229 0.012735826
000130 9c 74 a6 3c 00 7e e6 bc 8e b9 0e 3c 50 c0 99 bc
       0.020319276 -0.028136253 0.008711232 -0.01876846
000140 81 3f 72 3c 80 12 c8 bc 92 1f 8c 3b 78 f1 1d bc
       0.014785648 -0.024422884 0.0042762244 -0.00964009
000150 b9 81 f5 bb e3 67 17 3c e0 9e 1b 39 54 c3 e0 bc
       -0.007492271 0.009241077 0.00014841137 -0.02743689
000160 a1 04 ba 3c 3f 93 7c bc c2 dc 7a bc b9 d0 90 39
       0.022707285 -0.015415966 -0.015311422 0.0002762133
000170 94 19 22 bd fb 2d f2 3c c9 5b d0 3b af 1d 51 bc
       -0.039575174 0.02956294 0.006358598 -0.012763425
000180 d2 47 b4 ba 68 45 53 bc ae 9a 16 bd 65 56 ed bb
       -0.0013754314 -0.012894966 -0.036768608 -0.007242965
000190 fd 2e 3d 3c b2 d7 97 bc c6 d7 a6 bc 00 0d 83 3c
       0.011546847 -0.018535469 -0.02036656 0.01599741
0001a0 cc 59 21 bc f7 1b 69 bc 89 d6 27 bc a5 35 3b bd
       -0.009848069 -0.014227859 -0.01024402 -0.045705456
0001b0 6b 93 29 3b 58 2e c9 3c 85 e9 8b 3c 84 f9 b0 bb
       0.0025875221 0.024558231 0.017079124 -0.0054008383
0001c0 fc 4e 94 3c 2e 05 4c bc e4 ee 1f 3c 46 e1 cf bb
       0.018104069 -0.012452407 0.009761546 -0.0063439934
0001d0 1f 47 ee bb a1 92 12 bd 3d d8 a8 bc 4e dc ac 3c
       -0.007271662 -0.035784367 -0.020610923 0.021101143
0001e0 05 22 b9 3a f9 c5 b3 bb 02 fa 8e bb cf af 73 3b
       0.0014124518 -0.0054862467 -0.0043632993 0.0037183648
0001f0 68 f0 bf bc 37 9f 39 bc f3 33 f3 bc fa 24 61 3c
       -0.023430064 -0.011329464 -0.029687857 0.013741726
000200 2f 45 a8 bc 0c a9 d6 bc a7 73 c7 3b bf e9 71 bb
       -0.020540802 -0.026203655 0.006086785 -0.0036913005
000210 88 76 66 bc f4 99 bb 3b 36 b6 cd 3c fc 0c 31 bc
       -0.014066346 0.0057251398 0.025111299 -0.010806318
000220 56 59 f9 3c 0c d9 3c 3c 85 89 e4 bb 73 b2 9b 3c
       0.030438107 0.011526357 -0.0069744014 0.01900599
000230 33 b1 da 3c 2a 1c ac 3c 4f 6d 51 bc 47 c0 09 bd
       0.026695823 0.021009523 -0.012782409 -0.033630636
000240 02 f8 c1 3b 77 6f 47 3b c4 1e e6 bb 7d c2 7e bb
       0.0059194574 0.0030431428 -0.0070227105 -0.0038873248
000250 f2 26 9c 3c b0 04 8d 3b 40 8b de bc 4d 1d 8d 3b
       0.01906154 0.0043035373 -0.027166009 0.0043064714
000260 b4 d9 d2 bb 45 a3 53 3c 0c f7 70 3c 25 c1 9f bb
       -0.0064346436 0.012917344 0.014707338 -0.0048753195
000270 e4 9e 86 3c 58 c0 ee 3c 8a b8 93 3c f1 d3 c1 bc
       0.016433187 0.029144451 0.018032331 -0.023660632
000280 f2 a6 36 bc e1 ff e8 ba 92 4f 96 3c a9 1e de ba
       -0.011148201 -0.0017776453 0.018348489 -0.0016946393
000290 d9 a6 b2 3c 0b 2a f5 3c db 6a f3 3a 82 09 bf bb
       0.021808075 0.029927274 0.0018571274 -0.005829991
0002a0 2a 82 cd 3c e5 73 7f bc ea 05 e2 3c 66 d6 3b 3c
       0.025086481 -0.015591596 0.02759071 0.011464691
0002b0 18 00 20 3d de bc eb 39 7a 99 a1 3a a1 f4 8f bc
       0.03906259 0.0004496341 0.0012329065 -0.017572703
0002c0 68 25 95 3c 92 63 e4 3c 6d 9a b9 bc 75 5a 83 3c
       0.018206313 0.02787951 -0.022656644 0.016034344
0002d0 2f fc f7 3b 84 11 14 bb 1c c5 a6 bc bf 4b bd 3c
       0.0075679044 -0.0022593448 -0.020357661 0.023107408
0002e0 20 68 e1 bc 11 42 88 3c 09 5f d9 bb ee 61 f9 bc
       -0.027515471 0.016633065 -0.0066336435 -0.030442204
0002f0 c2 bc 4c 3c e7 5d e6 3a 9b 6c 95 bc 25 eb 72 3c
       0.012496175 0.0017575593 -0.018240264 0.014826571
000300 63 87 86 bb 22 e4 0c 3d 75 9f 9d 3b e6 7f 7f bc
       -0.004105495 0.034397252 0.0048102685 -0.015594458
000310 68 8a 92 3c 0d da c0 3b 8f c2 03 ba 38 5f 8e bc
       0.017888263 0.0058853687 -0.0005026245 -0.017379388
000320 0a 95 81 3c 83 b3 b8 bb 94 76 06 bc 30 3e 09 3c
       0.015818138 -0.005636634 -0.008206982 0.008376643
000330 bb 5d 8a 3b ba 95 13 bc bd 4b 83 3c a9 7f e8 3b
       0.0042225993 -0.009007866 0.016027326 0.0070952964
000340 96 e1 52 3c 19 dd 47 3b 07 5b 65 3b 40 59 b7 bb
       0.012871167 0.0030496775 0.0034996883 -0.005595356
000350 27 e7 82 bc 39 47 85 3c 4f f5 02 3d fd 5f 30 3b
       -0.015979363 0.016269313 0.031972226 0.0026912682
000360 3b b6 20 bc 3d f5 b1 3c 9b 73 8a bc fd 7a a0 bb
       -0.009809072 0.021723384 -0.016900828 -0.004897474
000370 52 82 14 bd 38 4e c1 3b 81 6f 9e 3c 2f bf 4a 3c
       -0.036257096 0.005899217 0.019340279 0.012374683
000380 31 63 ff bc 28 78 a2 3c 35 28 26 3c 07 3e bc bb
       -0.031175228 0.019832686 0.010141422 -0.005744699
000390 d2 47 91 bc b4 5b 2e 3d a4 1f 1c bc d3 70 53 3c
       -0.017734442 0.042567924 -0.009529028 0.012905317
0003a0 85 76 75 3c 14 87 48 3b 01 a9 d9 bc 19 1c 91 bb
       0.014981871 0.003059809 -0.026569845 -0.0044283983
0003b0 37 15 da bb 6d 5b 07 3c 63 38 ac 3c 62 f9 8d 3c
       -0.006655361 0.008261544 0.021022981 0.017330829
0003c0 21 ef 3a bc ce 3a ca 3c 54 ee 2b 3a 88 87 03 3d
       -0.011409552 0.024686243 0.0006558646 0.032111675
0003d0 df db 93 bc f8 24 a9 3b 60 58 10 bc 45 95 ae 3c
       -0.018049179 0.0051618777 -0.008810133 0.021311412
0003e0 82 ca 87 b9 17 83 11 bc af 1b 60 3c cf 56 33 3a
       -0.00025900087 -0.008881352 0.013678475 0.00068412436
0003f0 c7 e8 f5 3b 79 56 92 bc 69 3f 36 3c 0c 01 71 3c
       0.007504556 -0.017863499 0.011123517 0.014709722

module.b_classifier.fcc.bias f4 [2]
000000 dd 50 91 3e 88 15 9f be
       0.28382006 -0.31071115
