processing/mil classifier/hyperparam_select_batch_6/weights/lrwdT_0.0002_0.005_50/1.pth (torch, 343887 bytes, 8 tensors)

module.i_classifier.fc.0.weight f4 [2, 512]
000000 29 9e ac bb 84 3d d4 3b 1f 1f 4e 39 f8 12 2a 3c
       -0.0052678776 0.00647706 0.00019657284 0.010380499
000010 27 94 08 bd 70 b9 75 bc 12 52 08 3d a1 37 75 3d
       -0.033344414 -0.014997825 0.033281393 0.059867505
000020 ec 9e fa 3b cf a2 c9 bc b1 dd fe ba 5a 4c 0e bc
       0.0076483395 -0.024613766 -0.0019444731 -0.008685196
000030 59 16 32 3d c2 2a c6 bb 72 71 be 3c 59 d1 70 3d
       0.043478344 -0.0060475776 0.023247454 0.0587934
000040 b9 b9 68 3c 57 02 f5 3a 04 34 c8 3c 5f 79 1c bb
       0.014204436 0.0018692714 0.024438865 -0.0023876054
000050 be dd 69 bb 73 d3 19 bd 50 6a a0 bc 73 c4 3d bd
       -0.0035685147 -0.03755517 -0.019581944 -0.046329927
000060 75 4e 13 bd 12 d8 39 bd d1 1a 13 bd a0 e4 67 bd
       -0.035963494 -0.045372076 -0.035914246 -0.05661452
000070 64 d7 2d bd 78 b1 16 3d c5 a7 30 3d 3c eb 06 3d
       -0.04244174 0.03679034 0.043128747 0.03293918
000080 f1 21 c1 3c 1d 3e 1c 3d a8 83 01 3d 0f 07 fd bc
       0.023575755 0.038145173 0.031619698 -0.030887155
000090 64 76 8e 3d 13 01 a7 bb ca 92 94 3d ab 4c 33 3d
       0.06956175 -0.0050965636 0.0725456 0.04377429
0000a0 eb 83 0d 3d 6f bf 13 3d ba fd a0 bc 7d 66 bf bc
       0.034549635 0.036071237 -0.019652236 -0.0233643
0000b0 68 aa c3 3c 89 23 95 3c 44 2f 79 3c 2f d3 f3 3c
       0.023884967 0.018205421 0.015209023 0.029763786
0000c0 55 cd 11 bd f3 17 d5 3c 80 a4 e2 bc 96 5a 27 3d
       -0.03559621 0.026012396 -0.02766633 0.040857874
0000d0 4b b0 b4 bc f4 da 34 3c d4 46 fb bb 20 ca b8 3c
       -0.02205672 0.011038531 -0.0076683555 0.022557318
0000e0 58 c7 ac bb 98 5b 3f bc 88 14 ef 3c 9a 5a 72 3d
       -0.005272787 -0.0116795525 0.029184595 0.059168436
0000f0 2c 3e b6 3c c7 77 bc bc fc 1c 61 3c ff db 8f 3c
       0.022246443 -0.023006333 0.013739821 0.017560957
000100 30 b0 5a 3c 1c e8 56 3d b6 00 81 3d 5c 50 37 3c
       0.01334767 0.05246745 0.06298964 0.011188593
000110 3a 77 ac bc 2c 00 6e 3d 5c ab 52 3d 04 54 85 bc
       -0.021052945 0.058105633 0.051432952 -0.016275413
000120 54 00 66 bc f4 e5 d8 3c 29 3a d7 bc e3 29 9e 3c
       -0.014038164 0.026476838 -0.02627285 0.019307083
000130 0b 25 ca bc 2d 0b 98 3c 72 0b 8d bc 71 6a 2f bd
       -0.024675867 0.018560017 -0.017217372 -0.04282612
000140 1a 1e f9 bc 07 65 6e bc 2c 88 00 3d f6 75 71 bc
       -0.030409861 -0.014550454 0.031379864 -0.014737597
000150 b2 61 45 3d f7 24 a5 bc 72 a7 7d 3a 41 fc 49 3d
       0.048188873 -0.020159228 0.00096761354 0.049312834
000160 ef 64 f6 bc 41 c2 38 bc 3f 7e cd bc 55 64 85 3d
       -0.030077426 -0.0112767825 -0.025084613 0.065132774
000170 20 ec f5 3c b2 ca d8 bc 47 4d 89 bc 46 fd d3 3c
       0.03001982 -0.02646384 -0.016760482 0.025877606
000180 83 2d 84 3b 1b 92 f9 3c 60 61 31 bc 79 48 c9 bc
       0.0040337457 0.030465176 -0.010826439 -0.02457069
000190 c9 40 8d 3c 11 a0 13 3d 4b e7 6d 3d c3 0d b5 bb
       0.017242806 0.036041323 0.058081906 -0.005525322
0001a0 c5 d4 3b bc 5b bc fd 3c 8c 22 ce 3c cc 4e d3 3c
       -0.011464302 0.030973604 0.025162958 0.02579441
0001b0 e2 6e 82 3c 24 cf ff 3c 42 05 97 3c 83 8a 05 3d
       0.015922014 0.031226702 0.018435124 0.0326028
0001c0 02 64 e8 3c e9 3e 9b 3c 13 06 56 3d 8c 6b 86 3c
       0.028368 0.018950896 0.052251887 0.016408704
0001d0 63 80 3a 3c eb 77 90 bc 9f 49 c5 3a a8 c3 e2 3c
       0.011383149 -0.017635306 0.0015051848 0.027681187
0001e0 e1 94 0f 3d 88 32 ea 3c 93 1a f0 bc 4a 0e b9 bc
       0.03505409 0.028588548 -0.029309547 -0.022589821
0001f0 ef e7 f7 3c 96 da 7f 39 1a 3e b5 bc 8b 3a ca 3c
       0.030261962 0.00024400125 -0.022124339 0.024686119
000200 0d 6b 22 bd 18 54 27 3c d8 59 c1 3c 8e f6 6c 3c
       -0.039652873 0.010212921 0.023602411 0.01446308
000210 3f fe 9b bb a6 c7 16 3d 3e 3d 0c bd f2 ae c4 bc
       -0.004760533 0.036811493 -0.034238093 -0.024009202
000220 ba b6 0e 3d 7b 7d 28 3d 8b dd e3 bc 17 d6 1a bd
       0.03484223 0.041135293 -0.0278156 -0.03780183
000230 91 e2 2c 3c d7 66 5f 3d 5b 66 2a 3d 20 a3 0e bd
       0.0105520645 0.054541435 0.04160152 -0.034823537
000240 96 27 36 3c d3 2a ba 3c 5f fd 31 3d 5f 28 02 bc
       0.011117836 0.022725498 0.043454524 -0.0079441955
000250 08 c6 c6 3c 93 03 65 bc 5c 66 22 bd 03 49 4b bb
       0.02426435 -0.013977903 -0.0396484 -0.003101886
000260 4c ec 40 bc 92 28 3f bc ea 9b 3a bc df 54 0b bd
       -0.011775088 -0.011667388 -0.011389712 -0.034016486
000270 5f b9 40 3d af 55 cb 3c 7d 0b c2 3c 43 c0 c6 3c
       0.047051784 0.02482113 0.023687119 0.0242616
000280 04 35 24 bd 86 16 80 bc 35 f0 c2 3a 06 b3 08 3d
       -0.040089622 -0.01563574 0.0014872613 0.033373855
000290 01 d9 6a bc 53 23 30 3d 64 95 0a bd d6 e6 c1 3b
       -0.014333964 0.043002438 -0.033833876 0.0059174104
0002a0 c5 98 51 bd 44 9a 32 3c 5b de 1d 3c 4c 18 c1 3c
       -0.051171083 0.010901038 0.009635533 0.023571156
0002b0 da 7f cf 3a 30 6d 00 bd c2 41 51 3d e3 28 33 bd
       0.0015830949 -0.03135413 0.051088102 -0.043740164
0002c0 1f d0 9b 3c 9f bf 58 bc 4e 9b bb 3c cc e8 38 3c
       0.019020138 -0.01322928 0.022901203 0.011285972
0002d0 e3 45 97 3c 26 e3 7a bc 72 0f 1c 3d 9b d1 5b 3d
       0.018465942 -0.0153129455 0.038100667 0.053666692
0002e0 be 98 28 3c 09 ce 1d bc 8c a4 45 3c ff d2 ee 3c
       0.010290323 -0.009631642 0.012063157 0.029153345
0002f0 4f df 2d 3d 95 46 66 3d 30 a7 78 3c 5c 15 64 3c
       0.04244929 0.056219656 0.015176579 0.013921108
000300 cb b6 9b bc 3d b4 51 bb a5 36 ef 3c 2a 08 1a bd
       -0.01900806 -0.00319983 0.029200861 -0.037605442
000310 21 8e 20 3c 18 d2 3f 3d 96 a2 3b bd 92 75 7a bc
       0.009799511 0.04683122 -0.04580935 -0.01528682
000320 72 98 2b bd 14 c6 56 3c 8e be 00 3d a7 b9 00 3d
       -0.04189343 0.013108749 0.031431727 0.031427052
000330 da 6e 3b 3b 0f f4 e2 bc 39 d5 8e 3d e1 db 04 bd
       0.0028600008 -0.027704267 0.06974263 -0.032436255
000340 dc 32 87 bb 4a 12 c9 3c 3b 76 48 3d 10 80 83 bb
       -0.004125936 0.024544854 0.04894088 -0.004013069
000350 0f 32 5a bd bd 0e f7 3a d4 b2 56 3c 02 3d 09 3c
       -0.053270396 0.0018848997 0.013104159 0.008376362
000360 c0 22 01 3d ce ed 99 3c 95 77 b3 bc 9d 59 e8 bb
       0.03152728 0.018790152 -0.021907607 -0.007090761
000370 15 4e f5 3c 08 95 20 3d c6 2d 1f bd 9f 97 f1 bb
       0.029944459 0.039204627 -0.038862012 -0.007372811
000380 f3 f7 90 3c 1b 20 b7 3c 1a 80 ca 3c 38 5a 35 3d
       0.017696356 0.022354176 0.024719287 0.044275492
000390 0a 49 45 3d a0 7e 48 3d f1 61 be 3b d7 09 04 bd
       0.04816536 0.048948884 0.0058100154 -0.032235947
0003a0 0e 39 b2 3c 08 16 92 3c 64 4d 03 3d 51 d6 15 3d
       0.021755721 0.017832771 0.032056227 0.03658134
0003b0 43 5d 9b 3c 44 38 a8 3b db 0e 81 bb 26 b5 06 3d
       0.01896537 0.0051336605 -0.0039385385 0.0328876
0003c0 8c b2 94 bc f1 f0 cd 3c 78 a1 84 3d da 4a 6b 3c
       -0.018151544 0.025139304 0.0647611 0.014361108
0003d0 46 db bd bb 34 ce dc 3c 70 c1 20 3d 3d 44 20 bd
       -0.0057939617 0.026953794 0.039246976 -0.039127577
0003e0 19 1b 40 bc 2e a4 c0 3c dd c3 ce bc b1 76 65 ba
       -0.011725211 0.023515787 -0.02523988 -0.0008753343
0003f0 78 05 09 3d 4b fe 87 3c a6 78 e8 bc 96 9f fa 3c
       0.03345248 0.016600749 -0.028377842 0.030593675

module.i_classifier.fc.0.bias f4 [2]
000000 d7 1e f0 bc e8 2f 2d 3d
       -0.02931158 0.042282015

module.b_classifier.q.0.weight f4 [128, 512]
000000 d4 a7 0c b8 20 f0 58 37 cd f8 ac b7 47 d6 21 b7
       -3.3534903e-05 1.2930512e-05 -2.0619855e-05 -9.646238e-06
000010 18 af af b6 f8 86 f8 b5 8a 88 9b b7 dd e2 3a 38
       -5.23579e-06 -1.8516721e-06 -1.854102e-05 4.455714e-05
000020 b2 3a 75 37 7a 2e a4 37 0f 5f 3f b8 25 02 5f 38
       1.4616804e-05 1.9571966e-05 -4.562648e-05 5.316934e-05
000030 d9 7b 11 37 43 b1 96 37 e4 43 6c b7 b2 48 88 b7
       8.671509e-06 1.7963937e-05 -1.4082503e-05 -1.6246315e-05
000040 07 85 6c b7 d2 e9 18 37 5c b8 a5 b7 44 cc db b6
       -1.4097669e-05 9.1143465e-06 -1.9755382e-05 -6.5504883e-06
000050 a6 8a f3 b7 30 f4 34 38 b8 e6 0d b7 90 c1 0d 38
       -2.903242e-05 4.314276e-05 -8.457973e-06 3.379729e-05
000060 29 3a b2 37 ca 22 f2 37 0e 84 20 37 9a f1 e5 37
       2.1246336e-05 2.8864848e-05 9.5674895e-06 2.7411432e-05
000070 23 4a bb b6 df de 82 b7 82 7e 41 b8 63 22 84 37
       -5.581665e-06 -1.560099e-05 -4.6132605e-05 1.5751639e-05
000080 56 ff 06 b8 6d 2f b7 37 36 e1 80 b7 56 e0 a3 37
       -3.218589e-05 2.1837384e-05 -1.5363661e-05 1.9535579e-05
000090 56 3b 22 b7 2c 8f 3e 38 fa 7f d1 b5 24 6b a7 37
       -9.669768e-06 4.543287e-05 -1.560896e-06 1.9957843e-05
0000a0 d8 98 15 b6 ad 02 5e 38 9f 2b 2c b7 8c a7 94 b7
       -2.2291697e-06 5.2931417e-05 -1.0262155e-05 -1.7720995e-05
0000b0 80 ba 1d 37 18 73 01 38 73 9b 67 37 8d e7 46 38
       9.401352e-06 3.0863186e-05 1.3804866e-05 4.7422527e-05
0000c0 7f 9a 4b b7 af 35 b3 36 a5 80 8d 37 e9 47 b5 34
       -1.2135714e-05 5.3408653e-06 1.6868415e-05 3.37662e-07
0000d0 b3 7b f7 b7 fd f4 35 37 c6 ed 33 38 7b 64 75 37
       -2.9502296e-05 1.08454815e-05 4.289837e-05 1.4626533e-05
0000e0 fa 48 1f b7 d9 4e 2b b8 cd 7e 78 37 27 b9 48 b7
       -9.49413e-06 -4.084301e-05 1.4811475e-05 -1.1964038e-05
0000f0 53 4a ca b7 cc 36 6d b6 af 95 27 38 b0 7b c0 36
       -2.4114886e-05 -3.5347648e-06 3.9955306e-05 5.736445e-06
000100 45 b1 38 37 4d f0 17 b8 2c ec 74 b7 88 d4 f8 b6
       1.1008528e-05 -3.6225003e-05 -1.4598521e-05 -7.415718e-06
000110 f0 60 12 38 fa 12 4e 37 8e e8 af 37 32 43 f7 35
       3.4899393e-05 1.2282975e-05 2.0969917e-05 1.842249e-06
000120 5e 8b ae b7 ec de a7 b6 b1 4b 2a b8 6f f2 2d b7
       -2.0807314e-05 -5.0029394e-06 -4.060165e-05 -1.03680495e-05
000130 6c dd b6 37 e5 3a 14 b7 83 00 3d b8 29 a6 b9 36
       2.1799198e-05 -8.8352e-06 -4.5061588e-05 5.5327732e-06
000140 15 1a a6 37 7f 06 46 37 29 ba 65 b8 01 2d 5c b7
       1.9800887e-05 1.1803232e-05 -5.477123e-05 -1.31235e-05
000150 71 42 a0 36 ad 4d 16 37 c9 40 bb b6 fb 13 14 b7
       4.7761064e-06 8.958782e-06 -5.5805763e-06 -8.8261395e-06
000160 79 3e 28 b3 58 07 a3 36 fa f1 48 b8 d3 73 5c 37
       -3.9172367e-08 4.8586335e-06 -4.7909074e-05 1.3139989e-05
000170 63 ac 93 b6 d7 37 72 38 6e 06 79 36 9c e0 ae 37
       -4.40101e-06 5.77493e-05 3.7107634e-06 2.0847008e-05
000180 a5 0e 86 b7 29 95 2f 38 e0 05 53 38 03 5a b7 b7
       -1.5980864e-05 4.1862168e-05 5.031179e-05 -2.1857215e-05
000190 b5 ce 1f b8 89 1f 75 37 6d 1d 2d 38 79 f4 47 38
       -3.8101065e-05 1.461048e-05 4.127382e-05 4.767298e-05
0001a0 00 a5 5d b7 ec fd 23 b8 83 83 39 38 a3 64 1f 37
       -1.3211044e-05 -3.909871e-05 4.4229917e-05 9.50057e-06
0001b0 fe b5 1f 38 ae ee d0 b6 b6 80 a7 37 90 d8 23 b8
       3.8078048e-05 -6.226669e-06 1.9967887e-05 -3.9063918e-05
0001c0 2d f9 87 b7 ac 38 1d 37 70 47 ae b7 1d 33 87 37
       -1.6209286e-05 9.371124e-06 -2.0775682e-05 1.6117056e-05
0001d0 4c ad 4f b8 aa 8b 32 b7 e1 d2 a0 36 6e 5f 1a 38
       -4.951404e-05 -1.0642145e-05 4.792921e-06 3.6805337e-05
0001e0 de 91 0b b8 0d a5 3c 37 20 40 6e 37 89 a5 2a b8
       -3.3276032e-05 1.1244102e-05 1.4200836e-05 -4.0685325e-05
0001f0 7a da 21 37 14 bc a6 b7 a4 f2 c8 b7 bc f1 7b 37
       9.647216e-06 -1.9876323e-05 -2.3954846e-05 1.5017049e-05
000200 cd 2a ab b7 8c b9 cb 36 65 50 ea 37 46 c9 16 b6
       -2.040472e-05 6.071472e-06 2.793241e-05 -2.2468898e-06
000210 9f 31 84 37 c1 ea 80 37 58 4d ac 36 62 5d 47 38
       1.5758733e-05 1.5368105e-05 5.1350034e-06 4.7532267e-05
000220 1c f4 5c b7 e7 e1 81 37 ad 92 7b 37 e9 34 6b 37
       -1.3169858e-05 1.5483192e-05 1.49949165e-05 1.4019411e-05
000230 00 c0 11 b7 77 fa 63 b7 96 97 29 37 e5 f9 af b7
       -8.687377e-06 -1.358857e-05 1.0108479e-05 -2.0977992e-05
000240 46 a6 b5 b7 19 e0 12 37 62 31 1e b8 9b c6 03 b7
       -2.1654309e-05 8.754455e-06 -3.7716127e-05 -7.85445e-06
000250 ef 3e 60 b7 00 07 7c b6 b3 db 92 37 4f 1f 41 b8
       -1.3366093e-05 -3.7555e-06 1.7506862e-05 -4.6043944e-05
000260 ea 61 3c b8 a7 5f 3d b5 2e 65 94 b7 af d5 2f b8
       -4.4913882e-05 -7.054718e-07 -1.769009e-05 -4.192226e-05
000270 9a 75 f1 37 e7 a3 24 37 08 7d 43 b8 a0 b1 80 b7
       2.8784201e-05 9.813323e-06 -4.6608067e-05 -1.5341502e-05
000280 c9 d5 24 38 d1 5e ba 37 77 8b c2 b7 42 82 ae 35
       3.929975e-05 2.221708e-05 -2.3191546e-05 1.300192e-06
000290 b4 5d 05 b7 08 1b d7 b7 13 e3 2e 37 ec 8f 72 b7
       -7.949235e-06 -2.5642585e-05 1.0424078e-05 -1.44578335e-05
0002a0 32 c8 dd b7 05 f6 56 b7 cd 5d 3d 37 81 10 3e 38
       -2.6438476e-05 -1.2812675e-05 1.1287118e-05 4.53149e-05
0002b0 69 bb 89 37 c6 fe 46 38 c1 28 62 b8 97 8a 33 37
       1.6418942e-05 4.7444155e-05 -5.3920554e-05 1.0701499e-05
0002c0 f3 c0 04 b8 f5 91 9a b7 05 09 ac 35 55 e5 5c 38
       -3.165095e-05 -1.8426197e-05 1.2817624e-06 5.266567e-05
0002d0 25 81 21 b8 bf b8 de b7 0a 98 41 b7 88 df ac 37
       -3.8505666e-05 -2.6550491e-05 -1.1539096e-05 2.0608088e-05
0002e0 e2 a4 c6 b7 8b 38 03 b7 c6 f8 fa b7 91 e7 94 37
       -2.3680219e-05 -7.821373e-06 -2.9918167e-05 1.7750806e-05
0002f0 65 63 2c 37 6c cf ec 37 30 ea 3b b7 b9 29 fc 36
       1.0275141e-05 2.822998e-05 -1.1200595e-05 7.5150424e-06
000300 d2 2b 32 38 57 f5 83 37 43 8b 6c 37 28 88 a7 b7
       4.2479318e-05 1.5730662e-05 1.4099121e-05 -1.9971354e-05
000310 3b 50 66 37 9d 28 26 38 bb 48 2e 37 89 33 00 38
       1.3727748e-05 3.961531e-05 1.0388142e-05 3.0565574e-05
000320 3c 76 9c 37 d0 25 42 37 09 4b 1e 38 a5 b6 71 b5
       1.8651706e-05 1.1572105e-05 3.7740017e-05 -9.004528e-07
000330 18 17 52 37 b7 99 ba b6 aa 77 56 38 05 eb 6f 37
       1.2522352e-05 -5.5611267e-06 5.113302e-05 1.430023e-05
000340 ca 72 4e 37 71 6f 06 b7 31 73 74 37 38 1f d4 36
       1.2305283e-05 -8.012969e-06 1.4570353e-05 6.3217267e-06
000350 79 64 54 38 ba 32 ba 36 56 49 85 b6 61 66 dc b6
       5.063831e-05 5.5491373e-06 -3.9722463e-06 -6.5684294e-06
000360 8a 04 bd 37 06 37 2a b8 5f a0 5d b8 87 d0 81 36
       2.253267e-05 -4.0582403e-05 -5.2839863e-05 3.8687754e-06
000370 1e 7a 32 b7 20 2e a5 37 4c 74 07 38 ae 56 31 b8
       -1.0638059e-05 1.9691011e-05 3.2294818e-05 -4.2280815e-05
000380 25 bc 17 38 5e 61 43 38 b3 ea 85 37 c8 b2 5e 37
       3.617643e-05 4.6582303e-05 1.5964126e-05 1.3273857e-05
000390 55 42 be 36 b2 4a 60 38 b1 16 5f 38 d8 8f 87 37
       5.6701633e-06 5.3475327e-05 5.3188476e-05 1.6160237e-05
0003a0 b4 45 7f 37 f4 ad b1 37 02 8e 82 37 e1 d2 81 b7
       1.5215413e-05 2.1181047e-05 1.5563335e-05 -1.5476196e-05
0003b0 0f c1 a5 b6 2b d6 cd b7 1c d5 29 b8 5f a7 18 b8
       -4.939858e-06 -2.4537634e-05 -4.0491213e-05 -3.63955e-05
0003c0 02 ea 5c 38 fb 8d 10 38 ab ae 15 b7 53 a7 a2 b6
       5.2670024e-05 3.4464505e-05 -8.92176e-06 -4.8474553e-06
0003d0 45 4e 3d b7 7e 58 3d 37 dd b2 d8 36 c3 e2 00 37
       -1.1283501e-05 1.1285882e-05 6.458124e-06 7.682192e-06
0003e0 f7 2e 8f b7 aa ca 0a 38 df bb a6 b7 ce 07 fc b6
       -1.7068798e-05 3.309051e-05 -1.9876226e-05 -7.511094e-06
0003f0 1a 60 fb b5 b1 45 64 37 33 c2 45 38 0f 23 e8 b7
       -1.8728927e-06 1.3606085e-05 4.7149322e-05 -2.767288e-05

module.b_classifier.q.0.bias f4 [128]
000000 6b 30 8d b7 bc 9b a8 37 a8 7f 98 b7 56 bc 58 38
       -1.6831056e-05 2.009968e-05 -1.8179257e-05 5.1673815e-05
000010 16 f0 10 37 66 0a 2b b8 f3 d6 88 b7 3c ea c4 b7
       8.638968e-06 -4.077926e-05 -1.6312557e-05 -2.3474095e-05
000020 23 ce 0d b8 82 a5 0f b8 fb 2a 49 b7 0a 8e 1d b6
       -3.3809e-05 -3.4247998e-05 -1.1990541e-05 -2.34775e-06
000030 b6 fc ff b6 81 6f 97 b6 24 23 2d 38 56 f4 74 b7
       -7.6290116e-06 -4.5131314e-06 4.127914e-05 -1.4600422e-05
000040 f5 3d 11 b8 35 4d 06 37 93 2f 2a b8 71 75 46 b5
       -3.4628396e-05 8.004999e-06 -4.0575465e-05 -7.393165e-07
000050 5b 02 87 b7 83 cd 1e b7 1a 0c 43 b8 fb 63 9a 36
       -1.6094351e-05 -9.465383e-06 -4.6502893e-05 4.601197e-06
000060 7f 33 d6 b6 07 23 08 b7 ab f6 36 35 77 79 47 38
       -6.383692e-06 -8.114387e-06 6.815923e-07 4.755842e-05
000070 a6 8b 98 33 f8 9f da b7 58 5c 15 37 31 20 21 b8
       7.1034535e-08 -2.6062116e-05 8.9025925e-06 -3.841537e-05
000080 e5 eb 3d 38 43 fa 4e b7 9f b9 12 b7 d7 38 71 b7
       4.5280805e-05 -1.2336825e-05 -8.745496e-06 -1.4377953e-05
000090 96 45 5b b8 e6 ac 19 b7 43 b5 4d 38 00 53 d1 37
       -5.2278476e-05 -9.159767e-06 4.9044622e-05 2.4953391e-05
0000a0 f4 8c 45 b8 a5 fa 4f b8 8a a5 da 37 5b e5 55 37
       -4.7099733e-05 -4.9586077e-05 2.606471e-05 1.274919e-05
0000b0 13 d9 04 38 80 6c 39 b7 05 07 88 b7 fc 82 ff b7
       3.167342e-05 -1.1052121e-05 -1.6215732e-05 -3.0459363e-05
0000c0 7b f7 27 36 f9 c9 55 b7 03 ed 14 b8 15 f8 c4 b7
       2.5028992e-06 -1.2742815e-05 -3.5506684e-05 -2.3480543e-05
0000d0 50 3f 1a b7 7a 56 17 b7 91 20 30 b7 5b 61 ff b7
       -9.193856e-06 -9.020436e-06 -1.0498e-05 -3.0443704e-05
0000e0 72 04 5d b8 0c 30 85 37 38 a8 85 b7 75 ad a0 37
       -5.2694646e-05 1.5877209e-05 -1.5933168e-05 1.9154259e-05
0000f0 ba 6f c4 37 fe 86 5d b7 bf 3c 11 37 1b b7 84 37
       2.3417047e-05 -1.3204057e-05 8.656817e-06 1.5820891e-05
000100 73 c9 0e b8 a2 db c2 36 0f 4c 11 b7 39 8c 08 37
       -3.4043052e-05 5.807219e-06 -8.660382e-06 8.13888e-06
000110 59 fc 3f 38 65 cd 26 b7 09 c3 26 b8 52 e3 d3 b7
       4.5772966e-05 -9.942193e-06 -3.9759125e-05 -2.5259014e-05
000120 16 e1 00 38 0a 8f 1c b8 6f a6 3b b8 9c 54 43 b8
       3.0727206e-05 -3.7326514e-05 -4.4739278e-05 -4.657042e-05
000130 f0 95 21 b8 ce 40 c0 b7 af 7c 5d 37 2d b9 a9 37
       -3.852503e-05 -2.291836e-05 1.3201657e-05 2.02326e-05
000140 10 fb 86 b7 11 3e 82 b7 15 2c e3 b6 38 c4 e7 37
       -1.6090955e-05 -1.552611e-05 -6.770259e-06 2.7628717e-05
000150 ef 44 45 38 4a 35 2c b7 a2 df 2c b8 a7 b6 9c b7
       4.703266e-05 -1.0264406e-05 -4.121627e-05 -1.8681703e-05
000160 8f fa 8d b7 2b ad 73 37 a2 db 89 b7 b2 9c 5d 38
       -1.6925185e-05 1.45242475e-05 -1.6433947e-05 5.283644e-05
000170 35 57 60 38 dd f5 ff b7 df 32 26 b7 a7 e1 60 38
       5.348698e-05 -3.0512858e-05 -9.906215e-06 5.3615917e-05
000180 44 90 4d b8 00 93 04 37 8e 72 53 37 87 7b 9a b7
       -4.9010167e-05 7.902039e-06 1.2603252e-05 -1.8415752e-05
000190 c1 84 5d b7 1b 48 2f 37 30 02 38 b7 13 b4 b9 b7
       -1.3203536e-05 1.0447601e-05 -1.0967764e-05 -2.2137572e-05
0001a0 26 21 c0 b7 9a fa e9 37 51 2f 0c 38 8a d1 b4 b7
       -2.290362e-05 2.789246e-05 3.3422668e-05 -2.1555246e-05
0001b0 df 1e 03 38 f0 42 d1 b7 67 75 c6 36 46 06 13 b7
       3.1261585e-05 -2.4945912e-05 5.9145273e-06 -8.763343e-06
0001c0 b9 3f 5e 37 4a 7b e4 36 50 3f 2e b7 3a 21 d1 37
       1.3247068e-05 6.8092822e-06 -1.0385949e-05 2.4930214e-05
0001d0 4a 38 4c 37 3f f5 3a b8 e0 ae 32 37 97 0f 88 b7
       1.2172453e-05 -4.457426e-05 1.0650343e-05 -1.6219723e-05
0001e0 e0 1e 5b b7 b4 37 92 b7 9e 67 59 b8 a8 b6 2d 38
       -1.3060606e-05 -1.7430495e-05 -5.1833333e-05 4.1416526e-05
0001f0 1b 2a 62 b6 a7 95 4a 38 d1 99 81 37 5a a3 4f b6
       -3.3701133e-06 4.8299928e-05 1.5449625e-05 -3.0940487e-06

module.b_classifier.q.2.weight f4 [128, 128]
000000 13 4c 2d b8 d3 ca 34 37 a3 d1 99 b7 d5 68 80 37
       -4.1317264e-05 1.077606e-05 -1.8336641e-05 1.5307605e-05
000010 08 15 3a b7 b4 0f 05 b7 2b 0e 39 b8 11 46 e4 37
       -1.1091361e-05 -7.931074e-06 -4.4120632e-05 2.7212345e-05
000020 ed be 8e b6 e4 8a 36 b8 18 7c 45 b8 74 a2 56 37
       -4.2541565e-06 -4.3521533e-05 -4.708403e-05 1.2793218e-05
000030 2e d1 0e b7 89 e1 00 38 91 7d 2c b7 bd c7 0a b8
       -8.512563e-06 3.0727624e-05 -1.0281235e-05 -3.3087785e-05
000040 09 f4 07 b8 37 e6 58 b7 3e 81 0d 38 32 e1 67 b7
       -3.2413784e-05 -1.2928204e-05 3.3737386e-05 -1.3821105e-05
000050 b1 43 8e 37 c0 3d 70 36 7e b6 11 b8 b7 c5 42 38
       1.695924e-05 3.579873e-06 -3.4740653e-05 4.643734e-05
000060 27 13 ed 37 23 c2 fa b7 c3 fb 89 37 17 d4 0a b7
       2.826152e-05 -2.9892724e-05 1.6448908e-05 -8.274822e-06
000070 a2 6e 9b b7 1a 31 19 b8 b6 a9 8a b7 1e a9 7a 37
       -1.8528957e-05 -3.6523772e-05 -1.652991e-05 1.4940537e-05
000080 f8 b7 62 37 25 2e 05 b7 e9 b8 2d b8 59 69 30 37
       1.3513483e-05 -7.938162e-06 -4.1418625e-05 1.0514946e-05
000090 13 b5 7c 35 9c 88 67 37 f4 20 36 38 a1 a4 74 b7
       9.4140813e-07 1.380048e-05 4.342287e-05 -1.4581864e-05
0000a0 20 eb 10 b8 33 53 ee b7 02 c9 60 b8 c4 8e f6 b7
       -3.4551253e-05 -2.8410554e-05 -5.3592965e-05 -2.9391966e-05
0000b0 a9 02 a2 36 63 f2 b1 b7 67 7c 10 38 15 e2 18 b7
       4.828286e-06 -2.1212914e-05 3.4448134e-05 -9.112545e-06
0000c0 57 27 28 b7 27 2d 66 38 85 eb 20 36 7d e0 e5 b6
       -1.002274e-05 5.4878325e-05 2.3978948e-06 -6.8508657e-06
0000d0 59 6c 76 b7 14 7f fe 37 65 ed a2 b7 cc 06 64 b7
       -1.4687969e-05 3.0338335e-05 -1.942245e-05 -1.35914415e-05
0000e0 07 f9 a0 b7 9a 92 18 38 e1 d2 36 b7 02 c6 f9 b6
       -1.9189449e-05 3.6376157e-05 -1.0897144e-05 -7.4438294e-06
0000f0 e1 f8 29 b7 49 85 ca 37 18 7f 03 b8 97 a3 64 37
       -1.0131132e-05 2.4142342e-05 -3.13512e-05 1.3627948e-05
000100 81 af 9c b7 da 85 81 37 ba 0b 87 b6 b4 8e 2d b8
       -1.8678375e-05 1.5440328e-05 -4.0246787e-06 -4.1379317e-05
000110 94 cb af b7 d0 f4 33 37 5a 55 33 b4 ed a4 28 b7
       -2.0956424e-05 1.0726231e-05 -1.6701725e-07 -1.005198e-05
000120 52 dc 7f b7 83 c3 2e b8 cf 00 3c 38 b2 8e 0c 37
       -1.5250482e-05 -4.1666917e-05 4.4823446e-05 8.377874e-06
000130 a3 e7 47 36 c0 7a ce 37 6e 06 39 b7 36 1a 84 37
       2.978814e-06 2.4614274e-05 -1.1028356e-05 1.5747832e-05
000140 90 dd 95 37 e8 2d 8b b6 41 44 69 b7 8e cd 4f 37
       1.7865357e-05 -4.147867e-06 -1.3903774e-05 1.2386021e-05
000150 e2 5a 08 37 d4 92 53 37 d9 f8 fb 36 9a c4 0b b8
       8.127392e-06 1.2610766e-05 7.5093526e-06 -3.3323282e-05
000160 ae ff c6 b7 12 e8 c8 b7 70 89 9e b7 d5 4f 95 b7
       -2.37225e-05 -2.3949924e-05 -1.8899067e-05 -1.7799359e-05
000170 77 d4 dc 37 ca cb ac 37 0a 22 06 b8 50 ca 24 b8
       2.632498e-05 2.0598894e-05 -3.197979e-05 -3.9289065e-05
000180 9f 74 31 b8 41 b8 08 37 a5 a6 36 b7 21 1f db b7
       -4.23087e-05 8.149132e-06 -1.0886845e-05 -2.612133e-05
000190 ea 92 49 b7 b1 e7 3f 37 9d cd 27 37 f7 88 3c b8
       -1.201474e-05 1.1438432e-05 1.0001849e-05 -4.495025e-05
0001a0 e3 82 b7 b7 ef 26 10 b7 c8 1f 6c 37 50 51 03 b8
       -2.1876249e-05 -8.592134e-06 1.4074096e-05 -3.1308562e-05
0001b0 5c f4 4d 37 06 01 82 37 24 9e 3c 37 87 c5 41 38
       1.22758465e-05 1.5497684e-05 1.1242493e-05 4.6198747e-05
0001c0 de 66 0d 37 29 bd 62 b7 e6 5c 6d b7 8e 10 31 36
       8.428206e-06 -1.3514692e-05 -1.414793e-05 2.6384691e-06
0001d0 88 56 02 37 ef c1 d7 36 ca e9 0f b7 33 c7 45 37
       7.768751e-06 6.430076e-06 -8.5778975e-06 1.1788495e-05
0001e0 47 cc 54 38 a5 02 39 38 92 65 6b b7 e7 05 3b 38
       5.0734987e-05 4.41099e-05 -1.403074e-05 4.458977e-05
0001f0 f7 7e 34 38 30 bd 44 b8 ec 10 e0 b7 16 6b 52 38
       4.303359e-05 -4.6906236e-05 -2.671076e-05 5.0167633e-05
000200 42 d6 84 36 e0 ba 01 b8 72 07 34 b8 d9 02 3f 37
       3.9588494e-06 -3.0930038e-05 -4.292228e-05 1.138515e-05
000210 1f 96 7e b7 2a e4 d0 b6 92 52 23 38 b4 9d 53 b7
       -1.5174533e-05 -6.225445e-06 3.8939128e-05 -1.2613298e-05
000220 b3 5b ef 37 fe cf eb b7 70 10 00 37 8e e1 a1 b7
       2.8533721e-05 -2.8111037e-05 7.633222e-06 -1.9297728e-05
000230 a0 af ec 36 23 cb 55 b8 1d 59 ad b7 a1 05 8d 37
       7.0537935e-06 -5.0972343e-05 -2.0664704e-05 1.6811131e-05
000240 1d f0 fc 36 70 43 17 38 6a cc 27 b7 41 63 bd b7
       7.538138e-06 3.606401e-05 -1.00015695e-05 -2.2576774e-05
000250 b8 a7 36 b8 8e 8f db b6 ef aa 30 38 d2 b4 0a b8
       -4.354838e-05 -6.5434206e-06 4.2120864e-05 -3.3070166e-05
000260 6d e6 5c b7 fd 33 46 b8 f1 e2 0f b8 3c a7 3f b8
       -1.3166672e-05 -4.7255297e-05 -3.4305212e-05 -4.5693698e-05
000270 25 bf 52 37 43 f7 89 b7 dd 61 d5 36 79 ea 0d b8
       1.256148e-05 -1.6446813e-05 6.3592875e-06 -3.383539e-05
000280 5f df 9b b6 51 4b e5 37 9e 11 00 b8 0d 19 c0 37
       -4.645364e-06 2.7334e-05 -3.0533985e-05 2.2899849e-05
000290 7f 21 34 37 f1 0e 25 37 e2 27 b9 37 08 1b 14 37
       1.0736635e-05 9.838245e-06 2.207229e-05 8.827781e-06
0002a0 1d d1 36 b8 13 18 d0 b6 2b 06 93 36 fd 36 65 b6
       -4.3586933e-05 -6.2016857e-06 4.3816594e-06 -3.4155667e-06
0002b0 4f 50 50 b7 c2 e4 58 37 a4 82 23 b7 8a 5f f0 36
       -1.2416464e-05 1.2927865e-05 -9.745974e-06 7.1636796e-06
0002c0 2e 48 00 b7 df a0 e8 b6 ce 99 39 b6 c0 9f 3c 37
       -7.6462e-06 -6.9328667e-06 -2.7656674e-06 1.1242868e-05
0002d0 bc 71 df 36 00 63 55 b8 cc ab a4 37 88 75 d5 35
       6.6591583e-06 -5.087536e-05 1.9630323e-05 1.5903943e-06
0002e0 18 64 a6 37 d5 6b 46 38 c7 3c 04 b7 76 f1 bd b7
       1.9835352e-05 4.7307305e-05 -7.881964e-06 -2.2642995e-05
0002f0 ea 4a e6 36 50 02 2c b7 1a 70 53 37 b1 7a 3e 38
       6.8632553e-06 -1.0252537e-05 1.2602681e-05 4.5413795e-05
000300 2c fc 18 37 0f 7f 95 37 4a 0d 48 b8 ed 45 6a 37
       9.118619e-06 1.782135e-05 -4.7696092e-05 1.3963768e-05
000310 d9 4d 95 b7 13 9b 75 37 87 b5 7b 36 8d a8 8e b7
       -1.7798435e-05 1.4639244e-05 3.7507577e-06 -1.7006207e-05
000320 5e a5 71 b7 60 85 3c 37 07 d9 ad b6 82 1b c2 32
       -1.4403222e-05 1.1236727e-05 -5.181067e-06 2.2597082e-08
000330 0b b3 66 37 57 df 2f b8 01 ca 1c b8 a5 91 61 b7
       1.3750755e-05 -4.1931253e-05 -3.738143e-05 -1.3444956e-05
000340 f4 ff 9c 37 4a 31 37 38 0f 69 1e b4 62 22 65 b7
       1.8715837e-05 4.3676504e-05 -1.4753117e-07 -1.3657469e-05
000350 36 f3 b3 36 d9 fe cb b5 3c b6 b4 37 1b 3a 1e 37
       5.362929e-06 -1.5198849e-06 2.1542532e-05 9.431063e-06
000360 32 36 70 b7 84 ec 5a 38 05 31 e2 36 b8 b4 87 b7
       -1.4317733e-05 5.2195523e-05 6.7410315e-06 -1.6177408e-05
000370 d6 6a 65 b7 40 e7 c0 37 1c 9c 3b b7 8b 3f 8f 37
       -1.3674338e-05 2.2995868e-05 -1.1182416e-05 1.7076518e-05
000380 f8 30 64 37 7d 1c 2b 37 84 e0 c8 37 c0 51 89 36
       1.360126e-05 1.0199027e-05 2.3946406e-05 4.092435e-06
000390 c9 12 f8 b6 98 96 8e 37 53 27 74 b7 00 d2 46 38
       -7.393163e-06 1.6997845e-05 -1.4552689e-05 4.7402456e-05
0003a0 f5 2b 83 b7 f2 77 2f 38 80 56 a8 37 f9 c8 9a b7
       -1.5636886e-05 4.183496e-05 2.006744e-05 -1.8451816e-05
0003b0 24 2a e4 b7 3e 8a 80 37 b8 65 96 b7 a1 2b 1b 37
       -2.7199341e-05 1.5323163e-05 -1.792876e-05 9.248878e-06
0003c0 a4 a0 1c b8 f0 6b 58 36 e9 a9 dc b7 10 40 ba b6
       -3.7342907e-05 3.2249336e-06 -2.6305164e-05 -5.55069e-06
0003d0 3a 81 da b6 13 a9 0a 37 07 c3 38 b8 df 5b 2c b5
       -6.5119502e-06 8.264807e-06 -4.4050652e-05 -6.4208683e-07
0003e0 d5 d9 84 37 93 d2 44 37 b4 8a 91 36 9c 1c 38 b8
       1.5837062e-05 1.17315385e-05 4.337484e-06 -4.3895663e-05
0003f0 2a 2c 91 37 50 a2 8c 37 28 d2 3f 37 24 2a 4e 37
       1.7305912e-05 1.6764883e-05 1.1433418e-05 1.2288368e-05

module.b_classifier.q.2.bias f4 [128]
000000 e2 d6 51 38 80 d9 39 36 1b 67 93 b7 59 d1 2b b7
       5.002961e-05 2.769375e-06 -1.7571778e-05 -1.0241137e-05
000010 9a a7 6d 37 3b 1e 48 38 01 02 45 b8 07 e5 69 b7
       1.4165324e-05 4.771187e-05 -4.6970326e-05 -1.3941207e-05
000020 a5 6c 05 b7 3e 91 2e b8 61 34 0e b7 36 14 7f 37
       -7.9527135e-06 -4.16201e-05 -8.476055e-06 1.520389e-05
000030 f3 4b a5 37 bb 9c 3a b7 38 a3 e8 b7 89 ea 80 b7
       1.97049e-05 -1.1122956e-05 -2.773256e-05 -1.5368003e-05
000040 12 9a a0 37 4d d7 41 36 04 4b 1b b8 1f be cf 35
       1.914523e-05 2.8884563e-06 -3.7024744e-05 1.5478034e-06
000050 1a 30 6e b8 c7 c7 1a b7 7a b9 43 b8 93 e0 68 b7
       -5.678842e-05 -9.22563e-06 -4.666436e-05 -1.3880565e-05
000060 0c c6 b8 37 00 08 ed b6 af 5e 11 b7 4a 07 bb b6
       2.2026732e-05 -7.0640817e-06 -8.664719e-06 -5.573883e-06
000070 91 4a 12 b8 02 b6 d5 36 0d 94 83 37 c7 48 20 b7
       -3.4878558e-05 6.369083e-06 1.5685358e-05 -9.553688e-06
000080 ed c1 7e 37 78 41 92 b7 65 2c 96 37 fc 7d e2 36
       1.5184732e-05 -1.7435043e-05 1.7902066e-05 6.7499914e-06
000090 13 c0 97 b8 c8 38 44 38 59 5d 5e b7 36 31 7d b7
       -7.236018e-05 4.6782923e-05 -1.3253965e-05 -1.5091433e-05
0000a0 42 a5 29 38 2e c9 4f b7 9d 2e 08 b6 7f 91 1a 36
       4.044665e-05 -1.2385002e-05 -2.0292712e-06 2.3032478e-06
0000b0 2c cb 10 38 73 fe 40 38 79 ab 74 b7 b3 a1 31 b8
       3.4521494e-05 4.601334e-05 -1.4583457e-05 -4.2350683e-05
0000c0 6c 30 51 38 bb 56 c2 37 6c f0 35 38 ae 8a 89 37
       4.987458e-05 2.316699e-05 4.3377673e-05 1.639625e-05
0000d0 87 33 3e 36 02 25 7d b7 54 40 17 b7 79 03 1a 38
       2.83422e-06 -1.5088592e-05 -9.015279e-06 3.6719695e-05
0000e0 c8 30 7d 37 8f c1 4a b8 34 e6 41 b7 e6 f0 5d 38
       1.5091333e-05 -4.834082e-05 -1.1557295e-05 5.291486e-05
0000f0 95 84 14 37 27 c1 4e 38 a3 14 5e b8 67 29 26 37
       8.852357e-06 4.9294114e-05 -5.2948144e-05 9.904011e-06
000100 de b8 2b 37 02 08 d7 b6 1e 33 ce 37 6b d3 b0 37
       1.0235437e-05 -6.4084315e-06 2.4580917e-05 2.1079284e-05
000110 d4 eb c0 37 f6 8b b1 b6 47 27 6a 37 a5 cf a0 b7
       2.2998e-05 -5.2913047e-06 1.3956632e-05 -1.9170178e-05
000120 e8 be a7 36 d5 39 c0 35 5f 42 77 b8 3f 87 5b 37
       4.9992123e-06 1.4321946e-06 -5.8951202e-05 1.3084907e-05
000130 f8 3e 03 b8 45 89 f2 b6 ae a5 8d 37 41 70 0f b6
       -3.1291478e-05 -7.2281423e-06 1.688566e-05 -2.1374e-06
000140 4b 22 ec b7 39 50 86 37 c6 44 cb 37 35 df 9d b7
       -2.8149361e-05 1.6011401e-05 2.423151e-05 -1.8819797e-05
000150 81 94 13 38 ca 5b 8a 37 12 5e 88 b7 a9 08 8c 37
       3.5185836e-05 1.6493625e-05 -1.6256268e-05 1.6693333e-05
000160 cf 70 c1 38 34 e3 9d b7 50 20 bd b7 01 f8 81 b7
       9.2239694e-05 -1.8821658e-05 -2.2545602e-05 -1.5493484e-05
000170 f3 ad 55 b8 b8 f7 7f 37 70 eb 17 37 87 50 4a 37
       -5.094516e-05 1.5256861e-05 9.055118e-06 1.20588875e-05
000180 0f 99 1e 37 93 95 25 b8 d0 84 89 b7 bc 37 79 37
       9.453171e-06 -3.9478367e-05 -1.6393518e-05 1.4854533e-05
000190 d2 d7 85 b7 3a c1 99 b7 40 63 fd 37 ca 39 84 b7
       -1.5955335e-05 -1.8329e-05 3.0206167e-05 -1.5762536e-05
0001a0 26 b4 e5 37 9e c2 93 b7 ee b2 d9 37 e2 20 22 b7
       2.7382815e-05 -1.7614391e-05 2.5951736e-05 -9.663609e-06
0001b0 0a 62 f4 b6 ce 22 13 38 ce 0a 8f 35 23 dc 19 b8
       -7.28318e-06 3.5079946e-05 1.0657475e-06 -3.668306e-05
0001c0 2a a8 56 b6 00 e8 32 b6 ba df 37 38 e4 6c 3b b8
       -3.198637e-06 -2.6659109e-06 4.383896e-05 -4.4685687e-05
0001d0 a9 9d 8b b8 76 10 1e b8 2b db c0 b6 89 6c e5 b6
       -6.657403e-05 -3.7685466e-05 -5.7475604e-06 -6.837367e-06
0001e0 01 22 46 b8 8f ec 68 b7 bb 7d 0f 38 f0 04 55 37
       -4.7238547e-05 -1.3883356e-05 3.4210952e-05 1.2696939e-05
0001f0 38 67 f5 36 b7 bc e4 37 c3 75 89 37 b9 55 63 36
       7.3135852e-06 2.7267595e-05 1.638651e-05 3.3875533e-06

module.b_classifier.fcc.weight f4 [2, 2, 512]
000000 a1 0f f2 3c e9 a6 eb 3c 1a cb 87 39 42 80 01 3c
       0.029548468 0.028766112 0.0002590053 0.007904114
000010 dd 77 54 3c 24 74 e1 bc 81 64 30 3c 2b 76 bf bb
       0.012968031 -0.0275212 0.0107661495 -0.005842944
000020 f4 18 75 3c 92 df c9 3b 63 0e a3 3c 16 b1 13 3d
       0.014959563 0.006160685 0.019904321 0.036057554
000030 26 34 01 bc 85 64 d1 bb ff be ac bc 28 5a 54 3c
       -0.007885968 -0.0063901567 -0.021087168 0.012960948
000040 94 6e 25 bc ed 4d b6 3c 36 a8 d6 3c e0 db 0d 3d
       -0.010097165 0.022253955 0.026203256 0.034633517
000050 99 a6 f3 3c 76 0c 7b bc 99 cc 80 3a e1 2a 08 3c
       0.029742526 -0.015322795 0.00098266 0.008311004
000060 60 7e 8a bc 03 c7 c7 3c e6 b7 b2 3c 10 ac d2 bc
       -0.016905963 0.024386888 0.021816205 -0.025716811
000070 a5 aa d8 3b f3 c8 d0 3c 23 b5 20 3d 45 b8 c2 3c
       0.0066121393 0.025486445 0.039235245 0.023769507
000080 5d 1a be bb a2 cb 54 bc 36 bf 41 3c e3 14 ed 3c
       -0.0058014826 -0.012988003 0.011825373 0.028940624
000090 51 1b a9 bb c0 e1 9b 3c 3d ba cb bb 14 98 da 3c
       -0.005160727 0.019028544 -0.0062172697 0.026683845
0000a0 14 e9 52 bb e1 a6 fa bb bd 33 ed bb fd 1d c3 bc
       -0.0032182382 -0.007649288 -0.0072388337 -0.02381801
0000b0 85 34 05 bd 45 ec b1 3a 4d 50 08 bc 1d 0d 1f 3d
       -0.03252079 0.0013574442 -0.008319926 0.038830865
0000c0 e3 e4 ea 3c ac 70 b0 3c b2 9d 4f bc 15 32 b5 3c
       0.028673595 0.021538101 -0.012671875 0.022118608
0000d0 6a d8 c7 3c cf c9 82 3c ee 7d e0 3b 01 51 ab 3c
       0.024395186 0.01596537 0.0068509495 0.02091265
0000e0 79 79 7f bc dc 48 09 3c 0d 45 0d 3d 8c 2a 10 3c
       -0.015592926 0.008379187 0.03448968 0.008799206
0000f0 e5 2c 92 3c 2c f3 18 3c d5 e5 66 bc 41 b5 00 3d
       0.017843673 0.00933532 -0.014092882 0.031422857
000100 68 f1 22 3d 86 e8 2f 3a f1 27 e2 bc 81 19 81 3b
       0.039781004 0.0006710369 -0.027606936 0.003939808
000110 98 25 3e bc 2d de 39 3c 8b 8c 9a bb 4b 5e ad bc
       -0.011605643 0.011344475 -0.004716461 -0.021163126
000120 f9 8f a2 ba 7f ef fc 3c c2 d0 9f bc bb 1e 24 bc
       -0.0012402526 0.03087592 -0.019508723 -0.010017092
000130 8f e8 9c 3b 47 73 d2 3c 35 bc ae 3b b8 3f c0 bc
       0.0047884653 0.025689734 0.0053324946 -0.023467883
000140 9a eb 10 3d c9 f0 01 bd b5 99 98 ba 59 51 9e bc
       0.035380937 -0.03172377 -0.0011642488 -0.019325899
000150 61 a7 d6 3b 05 42 c3 3c d7 d3 1b 3b 6c 62 45 bc
       0.006550715 0.023835192 0.002377739 -0.012047391
000160 b7 40 d8 bc 7a 06 cf 3c 20 6a b7 bc 78 67 b6 3a
       -0.026398046 0.025271643 -0.022389472 0.0013916334
000170 fc fe 1e bc b5 4d 93 3c 20 fc 2e bc ea f6 6d 3c
       -0.009704348 0.01798139 -0.0106802285 0.014524201
000180 9b 30 b2 bc 33 d3 63 bc a4 7e 9c 3c f4 74 69 bc
       -0.021751693 -0.013905334 0.019103356 -0.014249075
000190 7b fb b5 bc a5 89 da 3b 98 9a 8b 3c 40 62 7a bc
       -0.022214642 0.0066692405 0.01704149 -0.015282214
0001a0 84 d0 72 3a 77 4f 4c 3c 05 61 20 3c b6 f6 18 3d
       0.00092626386 0.012470118 0.009788756 0.037344657
0001b0 fd 50 24 3d b5 91 e8 3c a7 23 a2 bc e6 5a 77 bc
       0.0401163 0.028389791 -0.019792391 -0.0150973555
0001c0 02 4d 83 bc f3 1c c6 3c b0 20 6e 3c 75 cf 31 3d
       -0.016027931 0.024183726 0.0145341605 0.043410737
0001d0 84 0e 23 3c 21 80 88 3c bd a0 8d 3c b7 8e 02 bc
       0.009952191 0.01666266 0.01728856 -0.007968596
0001e0 be c3 47 bc 11 8c 9d 3c 9b e6 3e 3c 35 61 d8 bc
       -0.012192665 0.019231828 0.01165166 -0.02641354
0001f0 18 f8 05 bc 39 44 e7 3c 97 eb ba 3c 9a f3 24 3d
       -0.008176826 0.028230773 0.022817416 0.04027138
000200 e2 6e 99 bb ef 5b 7f bc 63 f5 dd 3b 10 0d 9d 3b
       -0.0046824077 -0.0155858835 0.006773637 0.004792817
000210 13 90 02 ba d9 8c 03 3d 98 f9 72 bb a6 4d a9 bc
       -0.0004980575 0.032116745 -0.003707504 -0.020666908
000220 d9 08 5e 3c df e3 77 39 69 dc cb 3c eb c8 ca 3c
       0.013551914 0.00023640644 0.024885373 0.024754008
000230 27 98 10 3d e0 ea 37 3b 86 6f 2d bc fa 63 fd 3c
       0.035301354 0.002806358 -0.010585671 0.030931462
000240 1b 5d a1 3c cc f3 ba bc 0e 92 d2 3b ee 83 66 bc
       0.019697716 -0.02282133 0.0064261025 -0.01406954
000250 09 eb 25 3c e2 06 4d bc 62 8e 2c 3d 8c ef 55 bc
       0.0101268375 -0.012513848 0.042127974 -0.013057601
000260 35 be cb bb 36 79 90 bb be de b2 3b e5 71 56 bc
       -0.006217743 -0.0044089807 0.005458682 -0.013088678
000270 ff 07 e0 3c 01 c7 bc bc 75 2d c4 3b ab f3 fd bb
       0.027347563 -0.023044111 0.005986864 -0.0077499948
000280 49 27 7f bb 81 98 a6 3c e3 6f 6d bc 61 cb e9 bb
       -0.0038933328 0.020336391 -0.014492008 -0.0071348404
000290 f2 33 80 3a b5 70 c0 3c de ce 83 3b e7 1d e1 3c
       0.0009781106 0.023491243 0.004022463 0.027480079
0002a0 9b 33 ea bc 7a 57 a2 3c 83 0f a4 3c cf 93 bd 3c
       -0.02858906 0.019817103 0.020026928 0.02314177
0002b0 bc 16 fa 3b 54 49 94 3c 80 37 b5 3c 89 ae c9 bc
       0.0076321047 0.018101372 0.022121191 -0.024619358
0002c0 7d cd 17 3c ec ad f2 bb f1 ab 89 3c 9d 59 f8 bc
       0.009265301 -0.007405987 0.01680562 -0.030316168
0002d0 bb dd 8d ba 98 91 e2 3c e7 36 da 3c 3e 45 e0 3c
       -0.0010823527 0.027657315 0.026637508 0.027376767
0002e0 a5 9d 1e 3c e1 66 c2 bc 5e a8 1d bc ec 42 05 bd
       0.00968114 -0.023730697 -0.009622661 -0.032534525
0002f0 40 4f 98 bc d3 86 89 3b aa a7 a7 bc cf b0 24 bc
       -0.018592477 0.0041969805 -0.02046569 -0.01005192
000300 13 dc 1b bc 20 7e 9f 3c 19 a9 88 3c 8b 44 c7 3c
       -0.009512919 0.01946932 0.016682195 0.024324676
000310 89 6c a6 bc 37 bf 0a 3d 5f d3 a8 bc cf f7 ce 3c
       -0.020315425 0.033873763 -0.020608602 0.025264649
000320 a7 00 a9 bc 9f 77 e7 3c b2 ba 98 bc ee 03 84 3b
       -0.020630194 0.028255282 -0.01864371 0.004028789
000330 18 b5 af 3c e2 c1 91 bb 94 53 a3 3c b9 6d b3 ba
       0.021448657 -0.0044481615 0.019937314 -0.0013689316
000340 df 41 bc bc b5 74 9a 3b 5f 5a 8f bc 76 c7 8d 3c
       -0.022980629 0.0047136196 -0.017499147 0.017307024
000350 c6 92 0e bc f1 af 61 bb b4 3c bb bc b9 46 b1 3b
       -0.008701986 -0.0034437145 -0.022856094 0.005410042
000360 bc 5f 81 bb 12 6c 13 bb 8c 57 77 3c c8 f7 80 3c
       -0.00394818 -0.0022494835 0.015096556 0.015743151
000370 84 74 72 3b 09 17 9a 3c f8 17 46 3c 57 29 a1 3c
       0.0036995718 0.018809812 0.0120906755 0.019673033
000380 72 8d 52 bc de 66 f1 3c 56 5b ff 3c 54 75 17 bb
       -0.012851106 0.029467996 0.031171482 -0.0023110704
000390 45 7f 8a 3c 6c 9f 9c 3c 1b 29 47 3c 25 92 c2 3b
       0.01690639 0.019118987 0.012155796 0.005937832
0003a0 13 80 db bc dc 26 33 ba 18 d5 c1 bc c2 80 8d 3c
       -0.026794469 -0.00068340986 -0.023661181 0.01727331
0003b0 11 3f 26 3c b4 28 c2 bb 7f 2e 4d bc 54 48 fc bc
       0.010146872 -0.0059252623 -0.012523293 -0.030796207
0003c0 2b 2e 9d bc e1 e2 d0 bc 6f 80 5b 3d 5e 12 fb bb
       -0.019187054 -0.02549881 0.05358928 -0.0076621016
0003d0 68 43 a5 bc 24 ee 81 3c 73 0a b8 bc 46 00 27 bb
       -0.020173743 0.015860625 -0.02246592 -0.002548234
0003e0 e9 bb 5c 3a 3f da df bb 17 2b 62 3c 4c 73 86 3b
       0.0008420335 -0.006831437 0.013804219 0.0041031
0003f0 2a d7 39 3c 78 0e 0f 3c 00 b9 9c 3c fa 64 84 bb
       0.011342803 0.008731477 0.019131184 -0.0040403577

module.b_classifier.fcc.bias f4 [2]
000000 d5 64 5c bc 57 61 83 bc
       -0.013451775 -0.016037626
