processing/mil classifier/hyperparam_select_batch_6/weights/lrwdT_0.0002_0.005_50/1best_auc.pth (torch, 343887 bytes, 8 tensors)

module.i_classifier.fc.0.weight f4 [2, 512]
0.0042407284 0.01316564 0.041279245 0.007828439 -0.03836526 -0.01625175 0.058841858 0.07139006
-0.0014740723 -0.041389365 0.004263158 -0.020377332 0.07133496 -0.038276475 0.04248033 0.07060525
0.039220657 -0.011387623 0.030621061 0.0062962263 0.008019242 -0.036071744 -0.0302095 -0.049367778
-0.042524166 -0.057027128 -0.038282953 -0.089319006 -0.048375174 0.028578606 0.045809373 0.02831258
0.02144526 0.045771774 0.040928386 -0.038299743 0.090589866 -0.001792138 0.11460307 0.06881189
0.02717484 0.042242374 -0.028522588 -0.041624673 0.03327184 0.033139843 0.047979116 0.0408864
-0.046803497 0.05146302 -0.045085788 0.0263488 -0.034209963 -0.0050447695 -0.0016056743 0.019647008
-0.011924662 -0.021829745 0.021054026 0.07340252 0.080644555 -0.02193444 0.0024334958 0.010951989
0.002034471 0.042356394 0.08130314 0.049731534 -0.017108934 0.08456145 0.05592532 -0.018790295
-0.005820873 0.040995877 -0.037836056 0.006274344 -0.002067856 0.032287437 -0.01840501 -0.053566787
-0.03337216 -0.02612279 0.05500343 -0.03709318 0.06623063 -0.012478025 0.00039496523 0.03699183
-0.021239808 0.00035525337 -0.029804572 0.098775946 0.030593663 -0.05136762 -0.02618051 0.027039945
0.030048044 0.052286234 -0.0074495706 -0.027596887 0.040091086 0.03953637 0.08472886 -0.01048377
0.0019342401 0.021081775 0.012034354 0.03265057 0.07376505 0.07791963 0.013416048 0.04110956
0.03284651 0.058697168 0.09151139 0.08559861 0.020738604 -0.023790915 0.010487006 0.02657393
0.01234627 0.02011723 -0.037967462 -0.040199045 0.022301095 0.034485154 -0.00029534264 0.034166574
-0.0645151 0.021820042 0.056040086 0.03307052 -0.00040593278 0.062180348 -0.04657633 -0.023071073
0.057527497 0.040893726 -0.026849171 -0.031783607 0.044739332 0.07422594 0.04197061 -0.027499102
0.0039452887 0.03410355 0.031964734 -0.017143715 0.027469115 -0.0096648345 -0.0329912 -0.016211992
0.0063871443 -0.025138568 -0.016566727 -0.054351173 0.05612328 0.00061325956 0.0031708786 0.039792396
-0.03203449 -0.007610119 0.018224701 0.04696137 0.024807762 0.073258325 -0.056844894 0.033892233
-0.072138876 0.010471201 0.03305306 0.02373711 0.007452408 -0.024449978 0.06400906 -0.061487645
-0.014345597 -0.0034701827 0.010930241 -0.0011335546 0.033952672 -0.026234461 0.025867324 0.05102047
0.038916886 -0.033125453 0.044421613 0.026560707 0.06667784 0.07561693 0.021463336 0.0074875127
-0.005493916 0.044249523 0.035084706 -0.047136508 0.015610867 0.05966702 -0.06647102 -0.01806018
-0.055440605 -0.014497125 0.04681217 0.036559902 0.036395837 -0.048961468 0.10374036 -0.03986106
-0.0019515952 0.008920894 0.047284234 0.02023029 -0.052619517 -0.0021230914 0.044136442 -0.0057730847
0.059120152 0.041509066 -0.027038204 -0.01509261 0.036881283 0.087077074 -0.030589657 -0.014773166
0.040319886 0.082365684 0.046316307 0.081492074 0.06777716 0.06779741 0.011854113 -0.013444096
0.03795633 0.009621008 0.033479154 0.052611034 0.008384226 -0.019640366 -0.019107187 0.03806686
0.0025723064 0.019420445 0.12520534 0.021746406 -0.013002593 0.046829462 0.07878621 -0.025530001
-0.010586251 0.029747928 -0.0534276 0.015786067 0.04360941 0.01579844 -0.0485554 0.03906875
00000000: cff5 8a3b b2b4 573c 6d14 293d da42 003c
00000010: e424 1dbd 6422 85bc 2904 713d f434 923d
00000020: a935 c1ba e587 29bd f6b1 8b3b 5dee a6bc
00000030: 1018 923d cbc7 1cbd dbff 2d3d 7c99 903d
00000040: d7a5 203d 2793 3abc 05d9 fa3c 9350 ce3b
00000050: 2463 033c f7bf 13bd ea79 f7bc de35 4abd
00000060: d22d 2ebd 4795 69bd 96ce 1cbd e2ec b6bd
00000070: 0c25 46bd ae1d ea3c 9ca2 3b3d c9ef e73c
00000080: f8ad af3c 2f7b 3b3d 86a4 273d 31e0 1cbd
00000090: 2e87 b93d 2ce6 eaba 04b5 ea3d 40ed 8c3d
000000a0: c59d de3c 5706 2d3d 34a8 e9bc a27e 2abd
000000b0: 0e48 083d a5bd 073d c085 443d 7f78 273d
000000c0: 06b5 3fbd e3ca 523d e0ab 38bd 70d9 d73c
000000d0: bf1f 0cbd 984e a5bb 7d75 d2ba c3f2 a03c
000000e0: a85f 43bc 4bd4 b2bc 7e79 ac3c 0f54 963d
000000f0: f928 a53d dbaf b3bc 497b 1f3b f96f 333c
00000100: c254 053b e67d 2d3d 4382 a63d 4bb3 4b3d
00000110: 0928 8cbc 8e2e ad3d f311 653d 1bee 99bc
00000120: 06bd bebb 4beb 273d fbf9 1abd 0399 cd3b
00000130: de84 07bb d53f 043d 1bc6 96bc d968 5bbd
00000140: 3fb1 08bd 76ff d5bc 474b 613d 05ef 17bd
00000150: eda3 873d a170 4cbc 5613 cf39 bf84 173d
00000160: 1bff adbc 4d41 ba39 b828 f4bc 0b4b ca3d
00000170: 909f fa3c da66 52bd 8278 d6bc e082 dd3c
00000180: 5127 f63c 172a 563d 871b f4bb de12 e2bc
00000190: 8d36 243d e4f0 213d 5386 ad3d 1ec4 2bbc
000001a0: 5486 fd3a b0b3 ac3c bd2b 453c 9bbc 053d
000001b0: 2112 973d 5494 9f3d fcce 5b3c 7f62 283d
000001c0: 108a 063d 716c 703d 536a bb3d 534e af3d
000001d0: 01e4 a93c 2ae5 c2bc b1d1 2b3c 92b1 d93c
000001e0: 0248 4a3c e4cc a43c c583 1bbd c1a7 24bd
000001f0: c9b0 b63c 4e40 0d3d 38d8 9ab9 40f2 0b3d
00000200: 7e20 84bd f2bf b23c 4a8a 653d f474 073d
00000210: 60d3 d4b9 d2b0 7e3d d2c6 3ebd 8cff bcbc
00000220: f4a1 6b3d 2e80 273d cbf2 dbbc 872f 02bd
00000230: 9740 373d c503 983d 60e9 2b3d cc45 e1bc
00000240: 7b47 813b 2ab0 0b3d 74ed 023d fa70 8cbc
00000250: e906 e13c 4159 1ebc c821 07bd 03cf 84bc
00000260: 404b d13b 66ef cdbc f2b6 87bc 569f 5ebd
00000270: 86e1 653d 27c3 203a 84ce 4f3b 5afd 223d
00000280: 9936 03bd 4e5e f9bb f84b 953c 915a 403d
00000290: a639 cb3c 7608 963d 31d6 68bd 95d2 0a3d
000002a0: 8cbd 93bd 668f 2b3c a562 073d 5474 c23c
000002b0: 5433 f43b 524b c8bc 2f17 833d 78da 7bbd
000002c0: cb09 6bbc 016c 63bb c114 333c c893 94ba
000002d0: f511 0b3d a7e9 d6bc b6e7 d33c d7fa 503d
000002e0: 5067 1f3d 8eae 07bd 70f3 353d d795 d93c
000002f0: 648e 883d 0ddd 9a3d e1d3 af3c cf59 f53b
00000300: 4f06 b4bb fd3e 353d fbb4 0f3d 3612 41bd
00000310: b9c4 7f3c 6865 743d f521 88bd f1f2 93bc
00000320: b015 63bd 5985 6dbc 1ebe 3f3d d6bf 153d
00000330: cd13 153d d28b 48bd d375 d43d 5a45 23bd
00000340: abcc ffba f128 123c 1dad 413d feb9 a53c
00000350: 9087 57bd 9023 0bbb 6ac8 343d 252c bdbb
00000360: f927 723d 6905 2a3d 397f ddbc ff46 77bc
00000370: d410 173d 7755 b23d 2997 fabc 260b 72bc
00000380: 7726 253d 57af a83d 2bb6 3d3d 51e5 a63d
00000390: c0ce 8a3d 5ed9 8a3d c137 423c a044 5cbc
000003a0: 1978 1b3d 6fa1 1d3c 7021 093d ab7e 573d
000003b0: fe5d 093c d5e4 a0bc ad86 9cbc ffeb 1b3d
000003c0: 2494 283b a017 9f3c d435 003e 8525 b23c
000003d0: d408 55bc 40d0 3f3d aa5a a13d 4b24 d1bc
000003e0: f471 2dbc edb1 f33c e6d6 5abd c851 813c
000003f0: c89f 323d bb6b 813c 07e2 46bd 8e06 203d

module.i_classifier.fc.0.bias f4 [2]
-0.062028058 0.065060444
00000000: 2211 7ebd 693e 853d

module.b_classifier.q.0.weight f4 [128, 512]
-1.23e-43 -1.4e-43 -3.4e-43 2.51e-43 -2.65e-43 3.35e-43 3.5e-43 -2.58e-43
-2.31e-43 2.42e-43 -8.4e-44 3.15e-43 -3.36e-43 3.84e-43 3.64e-43 -3.32e-43
-1.28e-43 2.4e-43 2.07e-43 2.3e-43 -1.23e-43 2.58e-43 -2.77e-43 3.63e-43
3.74e-43 -4e-43 3.28e-43 -6.4e-44 5.2e-44 1.32e-43 2e-43 2.77e-43
4.06e-43 1.35e-43 3.24e-43 -1.23e-43 6.3e-44 3e-43 -1.25e-43 3.46e-43
3.78e-43 -4.08e-43 3.8e-43 2.26e-43 -3.95e-43 4.5e-44 -2.84e-43 4.02e-43
3.4e-43 -2.26e-43 -1.26e-43 -2.9e-43 -5.2e-44 3.38e-43 1.39e-43 -3.28e-43
-3.52e-43 8.7e-44 3.53e-43 -2.13e-43 1.71e-43 -2.75e-43 -9.8e-44 8.8e-44
5.3e-44 -3.77e-43 1.4e-43 -3.22e-43 -1.67e-43 4.3e-44 -1.71e-43 1.32e-43
2.48e-43 -1.14e-43 -3.3e-43 -3.63e-43 -1.1e-43 3.83e-43 -3.74e-43 3.24e-43
-2.09e-43 -3.55e-43 -2.7e-43 -3.22e-43 1.19e-43 -3.03e-43 4.18e-43 -3.67e-43
3.43e-43 3.08e-43 2.28e-43 3.45e-43 -1.46e-43 -4e-43 -3.31e-43 2.17e-43
3.32e-43 1.54e-43 3.71e-43 -1.98e-43 3.32e-43 4.8e-44 1.14e-43 4.04e-43
1.56e-43 3.92e-43 3.15e-43 -1.19e-43 2.17e-43 1.53e-43 -2.9e-43 3.05e-43
2.13e-43 1.95e-43 1.63e-43 -3.01e-43 -1.2e-43 -4.3e-44 -5.6e-44 -3.9e-44
-1.16e-43 4.5e-44 1.86e-43 1.29e-43 2.33e-43 -2.06e-43 -1.35e-43 2.4e-43
3.78e-43 -2.59e-43 3.11e-43 -2.28e-43 3e-43 -1.81e-43 -1.49e-43 -2.05e-43
2.26e-43 1.6e-43 9e-44 1.08e-43 3.38e-43 -8.7e-44 -3.8e-43 7.8e-44
3.78e-43 3.35e-43 2.35e-43 -5.3e-44 -1.61e-43 -7.1e-44 -1.54e-43 -1.57e-43
2.02e-43 3.21e-43 -1.39e-43 -3.46e-43 -1.26e-43 1.7e-43 -1.35e-43 -2.31e-43
3.43e-43 -2.09e-43 -1.39e-43 -1.23e-43 -2.28e-43 2.45e-43 2.3e-43 -1.2e-43
-1.16e-43 -2.76e-43 1.47e-43 -1.43e-43 2.86e-43 -1.89e-43 -1.42e-43 3e-43
2.19e-43 1.64e-43 4.15e-43 -2.7e-43 -2.17e-43 3.36e-43 -2.66e-43 1.8e-43
1.85e-43 1.1e-43 -2.21e-43 -8e-44 1.71e-43 -1.15e-43 -1.6e-43 6e-44
1.26e-43 -3.87e-43 1.44e-43 -2.72e-43 -2.63e-43 1.42e-43 -1.39e-43 -3.35e-43
3.27e-43 1.12e-43 6.4e-44 5.5e-44 -2.21e-43 -2.35e-43 -4.15e-43 1.56e-43
-7.4e-44 -2.09e-43 -5.6e-44 3.73e-43 -3.52e-43 -2.54e-43 2.23e-43 4.9e-44
-1.25e-43 2.09e-43 -2.07e-43 1.57e-43 -3.3e-43 2.42e-43 -1.14e-43 -1e-43
1.43e-43 -1.57e-43 -3e-43 -2.34e-43 -2.98e-43 3.39e-43 -3.97e-43 -3.07e-43
-3.01e-43 -3.39e-43 -3.77e-43 -3.71e-43 -3.3e-43 -1.86e-43 3.2e-43 1.68e-43
-3.15e-43 -2.12e-43 3.59e-43 1.81e-43 3.63e-43 -1.18e-43 3.7e-43 2.58e-43
-3.71e-43 1.3e-43 2.77e-43 2.69e-43 -3.87e-43 -3.71e-43 -2.58e-43 -4.01e-43
00000000: 5800 0080 6400 0080 f300 0080 b300 0000
00000010: bd00 0080 ef00 0000 fa00 0000 b800 0080
00000020: a500 0080 ad00 0000 3c00 0080 e100 0000
00000030: f000 0080 1201 0000 0401 0000 ed00 0080
00000040: 5b00 0080 ab00 0000 9400 0000 a400 0000
00000050: 5800 0080 b800 0000 c600 0080 0301 0000
00000060: 0b01 0000 1d01 0080 ea00 0000 2e00 0080
00000070: 2500 0000 5e00 0000 8f00 0000 c600 0000
00000080: 2201 0000 6000 0000 e700 0000 5800 0080
00000090: 2d00 0000 d600 0000 5900 0080 f700 0000
000000a0: 0e01 0000 2301 0080 0f01 0000 a100 0000
000000b0: 1a01 0080 2000 0000 cb00 0080 1f01 0000
000000c0: f300 0000 a100 0080 5a00 0080 cf00 0080
000000d0: 2500 0080 f100 0000 6300 0000 ea00 0080
000000e0: fb00 0080 3e00 0000 fc00 0000 9800 0080
000000f0: 7a00 0000 c400 0080 4600 0080 3f00 0000
00000100: 2600 0000 0d01 0080 6400 0000 e600 0080
00000110: 7700 0080 1f00 0000 7a00 0080 5e00 0000
00000120: b100 0000 5100 0080 eb00 0080 0301 0080
00000130: 4e00 0080 1101 0000 0b01 0080 e700 0000
00000140: 9500 0080 fd00 0080 c100 0080 e600 0080
00000150: 5500 0000 d800 0080 2a01 0000 0601 0080
00000160: f500 0000 dc00 0000 a300 0000 f600 0000
00000170: 6800 0080 1d01 0080 ec00 0080 9b00 0000
00000180: ed00 0000 6e00 0000 0901 0000 8d00 0080
00000190: ed00 0000 2200 0000 5100 0000 2001 0000
000001a0: 6f00 0000 1801 0000 e100 0000 5500 0080
000001b0: 9b00 0000 6d00 0000 cf00 0080 da00 0000
000001c0: 9800 0000 8b00 0000 7400 0000 d700 0080
000001d0: 5600 0080 1f00 0080 2800 0080 1c00 0080
000001e0: 5300 0080 2000 0000 8500 0000 5c00 0000
000001f0: a600 0000 9300 0080 6000 0080 ab00 0000
00000200: 0e01 0000 b900 0080 de00 0000 a300 0080
00000210: d600 0000 8100 0080 6a00 0080 9200 0080
00000220: a100 0000 7200 0000 4000 0000 4d00 0000
00000230: f100 0000 3e00 0080 0f01 0080 3800 0000
00000240: 0e01 0000 ef00 0000 a800 0000 2600 0080
00000250: 7300 0080 3300 0080 6e00 0080 7000 0080
00000260: 9000 0000 e500 0000 6300 0080 f700 0080
00000270: 5a00 0080 7900 0000 6000 0080 a500 0080
00000280: f500 0000 9500 0080 6300 0080 5800 0080
00000290: a300 0080 af00 0000 a400 0000 5600 0080
000002a0: 5300 0080 c500 0080 6900 0000 6600 0080
000002b0: cc00 0000 8700 0080 6500 0080 d600 0000
000002c0: 9c00 0000 7500 0000 2801 0000 c100 0080
000002d0: 9b00 0080 f000 0000 be00 0080 8000 0000
000002e0: 8400 0000 4e00 0000 9e00 0080 3900 0080
000002f0: 7a00 0000 5200 0080 7200 0080 2b00 0000
00000300: 5a00 0000 1401 0080 6700 0000 c200 0080
00000310: bc00 0080 6500 0000 6300 0080 ef00 0080
00000320: e900 0000 5000 0000 2e00 0000 2700 0000
00000330: 9e00 0080 a800 0080 2801 0080 6f00 0000
00000340: 3500 0080 9500 0080 2800 0080 0a01 0000
00000350: fb00 0080 b500 0080 9f00 0000 2300 0000
00000360: 5900 0080 9500 0000 9400 0080 7000 0000
00000370: eb00 0080 ad00 0000 5100 0080 4700 0080
00000380: 6600 0000 7000 0080 d600 0080 a700 0080
00000390: d500 0080 f200 0000 1b01 0080 db00 0080
000003a0: d700 0080 f200 0080 0d01 0080 0901 0080
000003b0: eb00 0080 8500 0080 e400 0000 7800 0000
000003c0: e100 0080 9700 0080 0001 0000 8100 0000
000003d0: 0301 0000 5400 0080 0801 0000 b800 0000
000003e0: 0901 0080 5d00 0000 c600 0000 c000 0000
000003f0: 1401 0080 0901 0080 b800 0080 1e01 0080

module.b_classifier.q.0.bias f4 [128]
2.19e-43 -1.89e-43 1.14e-43 1.65e-43 -2.83e-43 1.99e-43 2.45e-43 3.63e-43
-3.7e-43 4.08e-43 -3.39e-43 -2.07e-43 1.82e-43 -1.68e-43 -3.83e-43 -1.8e-43
1.57e-43 -3.78e-43 -6.2e-44 1.8e-43 3.18e-43 1.47e-43 -1.42e-43 -3.62e-43
3.92e-43 1.12e-43 -1.56e-43 2.34e-43 2.52e-43 3.62e-43 -3.95e-43 3.92e-43
-3.94e-43 -3.05e-43 -1.82e-43 -4.02e-43 -1.96e-43 1.68e-43 -2.75e-43 1.22e-43
9.5e-44 3.87e-43 3.55e-43 1.15e-43 3.12e-43 -2.19e-43 1.72e-43 -1.92e-43
-1.65e-43 -3.32e-43 -2.41e-43 5.2e-44 2.31e-43 1.54e-43 3.67e-43 -2.34e-43
-4.02e-43 2.69e-43 -4.9e-44 -2.45e-43 -3.59e-43 3.81e-43 -1.06e-43 3.77e-43
-1e-43 -3.34e-43 1.16e-43 1.51e-43 3.97e-43 3.7e-43 -2.5e-43 1.61e-43
3.14e-43 -2.59e-43 -4.15e-43 2.41e-43 -1.46e-43 -1.86e-43 1.2e-43 1.18e-43
3.52e-43 -3.66e-43 2.91e-43 3.53e-43 3.14e-43 -3.07e-43 -2.65e-43 -3.77e-43
-3.62e-43 -2.93e-43 1.51e-43 1.77e-43 3.4e-43 2.63e-43 -5.7e-44 -3.66e-43
-1.8e-43 -2.19e-43 3.32e-43 1.84e-43 -1.05e-43 -3.64e-43 -3.73e-43 1.44e-43
-3.81e-43 2.93e-43 3.73e-43 -2.72e-43 9.8e-44 2.9e-43 3.66e-43 -2.3e-43
1.5e-43 -2.58e-43 1.25e-43 1.78e-43 4.02e-43 1.51e-43 1.42e-43 1.04e-43
2.56e-43 2.72e-43 -2.21e-43 -1.8e-43 3.74e-43 1.81e-43 3.66e-43 -1.26e-43
00000000: 9c00 0000 8700 0080 5100 0000 7600 0000
00000010: ca00 0080 8e00 0000 af00 0000 0301 0000
00000020: 0801 0080 2301 0000 f200 0080 9400 0080
00000030: 8200 0000 7800 0080 1101 0080 8000 0080
00000040: 7000 0000 0e01 0080 2c00 0080 8000 0000
00000050: e300 0000 6900 0000 6500 0080 0201 0080
00000060: 1801 0000 5000 0000 6f00 0080 a700 0000
00000070: b400 0000 0201 0000 1a01 0080 1801 0000
00000080: 1901 0080 da00 0080 8200 0080 1f01 0080
00000090: 8c00 0080 7800 0000 c400 0080 5700 0000
000000a0: 4400 0000 1401 0000 fd00 0000 5200 0000
000000b0: df00 0000 9c00 0080 7b00 0000 8900 0080
000000c0: 7600 0080 ed00 0080 ac00 0080 2500 0000
000000d0: a500 0000 6e00 0000 0601 0000 a700 0080
000000e0: 1f01 0080 c000 0000 2300 0080 af00 0080
000000f0: 0001 0080 1001 0000 4c00 0080 0d01 0000
00000100: 4700 0080 ee00 0080 5300 0000 6c00 0000
00000110: 1b01 0000 0801 0000 b200 0080 7300 0000
00000120: e000 0000 b900 0080 2801 0080 ac00 0000
00000130: 6800 0080 8500 0080 5600 0000 5400 0000
00000140: fb00 0000 0501 0080 d000 0000 fc00 0000
00000150: e000 0000 db00 0080 bd00 0080 0d01 0080
00000160: 0201 0080 d100 0080 6c00 0000 7e00 0000
00000170: f300 0000 bc00 0000 2900 0080 0501 0080
00000180: 8000 0080 9c00 0080 ed00 0000 8300 0000
00000190: 4b00 0080 0401 0080 0a01 0080 6700 0000
000001a0: 1001 0080 d100 0000 0a01 0000 c200 0080
000001b0: 4600 0000 cf00 0000 0501 0000 a400 0080
000001c0: 6b00 0000 b800 0080 5900 0000 7f00 0000
000001d0: 1f01 0000 6c00 0000 6500 0000 4a00 0000
000001e0: b700 0000 c200 0000 9e00 0080 8000 0080
000001f0: 0b01 0000 8100 0000 0501 0000 5a00 0080

module.b_classifier.q.2.weight f4 [128, 128]
9e-44 1.15e-43 -3.31e-43 1.4e-43 -3.78e-43 -3.5e-43 3.53e-43 -1.2e-43
3.74e-43 -4.12e-43 -1.42e-43 -2.98e-43 1.18e-43 2.89e-43 2.16e-43 -2.05e-43
1.88e-43 2.35e-43 -3.48e-43 -2.68e-43 3.5e-43 -2.13e-43 -2.33e-43 3.05e-43
-9e-44 1.01e-43 1.7e-43 3.48e-43 -1.2e-43 2.83e-43 -2.31e-43 3.94e-43
1.53e-43 -1.4e-43 2.03e-43 4.8e-44 3.31e-43 -2.44e-43 -1.6e-43 2.47e-43
1.6e-43 3.77e-43 4e-43 7.6e-44 -1.54e-43 -2.34e-43 1.32e-43 2.87e-43
-3.01e-43 -3.7e-43 -1.39e-43 -3.01e-43 2.83e-43 3.4e-43 -1.42e-43 -3.17e-43
-6.4e-44 3.76e-43 -3.59e-43 3.08e-43 3.3e-43 -3.59e-43 -1.3e-43 2.27e-43
1.85e-43 4.2e-43 -2.45e-43 2.03e-43 1.19e-43 1.54e-43 2.79e-43 -9.4e-44
1.81e-43 3.76e-43 -4.2e-43 2.1e-43 -3.24e-43 -3.69e-43 -2.44e-43 -5.5e-44
-1.86e-43 -7.1e-44 1.28e-43 2.28e-43 2.19e-43 2.97e-43 -2.13e-43 5e-44
3.38e-43 -1.7e-43 -2.16e-43 -4.08e-43 -3.63e-43 -2.13e-43 -1.82e-43 1.81e-43
2.62e-43 1.44e-43 -4.04e-43 2.12e-43 -3.4e-43 3.59e-43 4e-43 2.02e-43
6.9e-44 -3.9e-43 1.49e-43 1.8e-43 -2.8e-43 1.61e-43 -2.41e-43 2.62e-43
1.47e-43 3.04e-43 -3.83e-43 3.97e-43 2.09e-43 2.06e-43 -2.12e-43 -8e-44
-2.51e-43 3.63e-43 -2.23e-43 1.92e-43 3.05e-43 4.5e-44 -4.2e-44 3.48e-43
-1.15e-43 1.39e-43 2.63e-43 4.06e-43 3.81e-43 -2.09e-43 3.52e-43 -2.66e-43
1.16e-43 -1.36e-43 -1.67e-43 -3.91e-43 -3.66e-43 2.33e-43 -1.06e-43 6.4e-44
-2.37e-43 -1.28e-43 -2.75e-43 3.76e-43 2.7e-43 -1e-43 1.64e-43 3.27e-43
6.6e-44 -2.19e-43 -3.76e-43 -2.93e-43 -1.15e-43 1.58e-43 8.5e-44 -1.47e-43
1.15e-43 -3.8e-43 1.6e-43 3.73e-43 1.2e-43 1.89e-43 3.73e-43 -1.33e-43
-2e-43 -3.92e-43 -1.22e-43 -2.31e-43 -2.02e-43 -4.09e-43 -3e-43 -1.88e-43
1.74e-43 -2.31e-43 1.4e-43 -2e-43 -3.24e-43 -3.35e-43 3.3e-43 -3.12e-43
3.01e-43 -1.81e-43 -2.63e-43 -1.11e-43 2.9e-43 -2.17e-43 -1.65e-43 2.87e-43
1.39e-43 1.71e-43 2.79e-43 -3.1e-43 2.51e-43 2.21e-43 4.18e-43 2.38e-43
-1.44e-43 -6.4e-44 3.52e-43 2.77e-43 -2.63e-43 2.75e-43 3.52e-43 1.84e-43
1.32e-43 1.64e-43 1.99e-43 -2.73e-43 -1.14e-43 -4e-43 -3.48e-43 -1.81e-43
-1.47e-43 2.17e-43 -3.2e-43 2.96e-43 2.59e-43 3.12e-43 -1.84e-43 1.39e-43
1.11e-43 1.84e-43 -1.42e-43 -1.18e-43 3.8e-43 -2.48e-43 -2.82e-43 -3.69e-43
-4.18e-43 -2.14e-43 2.87e-43 -5.5e-44 -3.42e-43 -3.34e-43 2.4e-43 3.9e-43
-2.35e-43 1.04e-43 1.1e-43 2.63e-43 1.2e-43 3.87e-43 3.78e-43 -2.26e-43
3.07e-43 1.44e-43 2.8e-43 -1.39e-43 3.7e-43 -2.87e-43 1.54e-43 -3.36e-43
00000000: 4000 0000 5200 0000 ec00 0080 6400 0000
00000010: 0e01 0080 fa00 0080 fc00 0000 5600 0080
00000020: 0b01 0000 2601 0080 6500 0080 d500 0080
00000030: 5400 0000 ce00 0000 9a00 0000 9200 0080
00000040: 8600 0000 a800 0000 f800 0080 bf00 0080
00000050: fa00 0000 9800 0080 a600 0080 da00 0000
00000060: 4000 0080 4800 0000 7900 0000 f800 0000
00000070: 5600 0080 ca00 0000 a500 0080 1901 0000
00000080: 6d00 0000 6400 0080 9100 0000 2200 0000
00000090: ec00 0000 ae00 0080 7200 0080 b000 0000
000000a0: 7200 0000 0d01 0000 1d01 0000 3600 0000
000000b0: 6e00 0080 a700 0080 5e00 0000 cd00 0000
000000c0: d700 0080 0801 0080 6300 0080 d700 0080
000000d0: ca00 0000 f300 0000 6500 0080 e200 0080
000000e0: 2e00 0080 0c01 0000 0001 0080 dc00 0000
000000f0: eb00 0000 0001 0080 5d00 0080 a200 0000
00000100: 8400 0000 2c01 0000 af00 0080 9100 0000
00000110: 5500 0000 6e00 0000 c700 0000 4300 0080
00000120: 8100 0000 0c01 0000 2c01 0080 9600 0000
00000130: e700 0080 0701 0080 ae00 0080 2700 0080
00000140: 8500 0080 3300 0080 5b00 0000 a300 0000
00000150: 9c00 0000 d400 0000 9800 0080 2400 0000
00000160: f100 0000 7900 0080 9a00 0080 2301 0080
00000170: 0301 0080 9800 0080 8200 0080 8100 0000
00000180: bb00 0000 6700 0000 2001 0080 9700 0000
00000190: f300 0080 0001 0000 1d01 0000 9000 0000
000001a0: 3100 0000 1601 0080 6a00 0000 8000 0000
000001b0: c800 0080 7300 0000 ac00 0080 bb00 0000
000001c0: 6900 0000 d900 0000 1101 0080 1b01 0000
000001d0: 9500 0000 9300 0000 9700 0080 3900 0080
000001e0: b300 0080 0301 0000 9f00 0080 8900 0000
000001f0: da00 0000 2000 0000 1e00 0080 f800 0000
00000200: 5200 0080 6300 0000 bc00 0000 2201 0000
00000210: 1001 0000 9500 0080 fb00 0000 be00 0080
00000220: 5300 0000 6100 0080 7700 0080 1701 0080
00000230: 0501 0080 a600 0000 4c00 0080 2e00 0000
00000240: a900 0080 5b00 0080 c400 0080 0c01 0000
00000250: c100 0000 4700 0080 7500 0000 e900 0000
00000260: 2f00 0000 9c00 0080 0c01 0080 d100 0080
00000270: 5200 0080 7100 0000 3d00 0000 6900 0080
00000280: 5200 0000 0f01 0080 7200 0000 0a01 0000
00000290: 5600 0000 8700 0000 0a01 0000 5f00 0080
000002a0: 8f00 0080 1801 0080 5700 0080 a500 0080
000002b0: 9000 0080 2401 0080 d600 0080 8600 0080
000002c0: 7c00 0000 a500 0080 6400 0000 8f00 0080
000002d0: e700 0080 ef00 0080 eb00 0000 df00 0080
000002e0: d700 0000 8100 0080 bc00 0080 4f00 0080
000002f0: cf00 0000 9b00 0080 7600 0080 cd00 0000
00000300: 6300 0000 7a00 0000 c700 0000 dd00 0080
00000310: b300 0000 9e00 0000 2a01 0000 aa00 0000
00000320: 6700 0080 2e00 0080 fb00 0000 c600 0000
00000330: bc00 0080 c400 0000 fb00 0000 8300 0000
00000340: 5e00 0000 7500 0000 8e00 0000 c300 0080
00000350: 5100 0080 1d01 0080 f800 0080 8100 0080
00000360: 6900 0080 9b00 0000 e400 0080 d300 0000
00000370: b900 0000 df00 0000 8300 0080 6300 0000
00000380: 4f00 0000 8300 0000 6500 0080 5400 0080
00000390: 0f01 0000 b100 0080 c900 0080 0701 0080
000003a0: 2a01 0080 9900 0080 cd00 0000 2700 0080
000003b0: f400 0080 ee00 0080 ab00 0000 1601 0000
000003c0: a800 0080 4a00 0000 4e00 0000 bc00 0000
000003d0: 5600 0000 1401 0000 0e01 0000 a100 0080
000003e0: db00 0000 6700 0000 c800 0000 6300 0080
000003f0: 0801 0000 cd00 0080 6e00 0000 f000 0080

module.b_classifier.q.2.bias f4 [128]
5.6765284e-06 2.169019e-05 -2.5848718e-05 -1.35e-43 -2.94e-43 -2.448538e-05 1.3e-43 -1.2717312e-06
1.0411983e-05 7.1e-44 2.448538e-05 2.5848718e-05 -1.37e-43 -1.43e-43 -2.72e-43 2.169019e-05
-8.687807e-06 5.6765284e-06 -2.169019e-05 2.5848718e-05 -2.5848718e-05 1.35e-43 3.1591521e-06 2.5848718e-05
-1.53e-43 -1.0411983e-05 -2.448538e-05 -1.0411983e-05 2.448538e-05 -5.6765284e-06 2.448538e-05 8.223303e-06
-2.9e-43 -5.6765284e-06 2.448538e-05 3.293816e-05 -3.1591521e-06 4.9122555e-06 -2.448538e-05 2.5848718e-05
1.36e-43 -2.446445e-05 1.36e-43 2.448538e-05 -9.989847e-07 -2.5848718e-05 -2.3771661e-05 8.223303e-06
-3.293816e-05 -5.6765284e-06 1.5039078e-05 2.448538e-05 2.169019e-05 -2.5848718e-05 2.448538e-05 -1.12e-43
5.6765284e-06 2.448538e-05 -8.223303e-06 -3.1591521e-06 2.89e-43 2.5848718e-05 -2.82e-43 -2.3771661e-05
-2.448538e-05 -1.39e-43 -8.687807e-06 -6e-44 -4.9122555e-06 -2.448538e-05 1.25e-43 1.39e-43
-2.448538e-05 -5.6765284e-06 2.5848718e-05 -4.6539835e-06 1.56e-43 -1.49e-43 1.18e-43 -2.5848718e-05
-2.5848718e-05 -2.5848718e-05 -2.3771661e-05 2.3771661e-05 -2.3771661e-05 1.28e-43 1.0411983e-05 1.36e-43
2.448538e-05 -2.448538e-05 -2.5848718e-05 -1.57e-43 -2.448538e-05 2.5848718e-05 2.448538e-05 -1.25e-43
-1.49e-43 -3.1591521e-06 5.6765284e-06 2.0680805e-05 5.6765284e-06 5.6765284e-06 5.6765284e-06 2.5848718e-05
-2.5848718e-05 1.49e-43 2.448538e-05 -3.9e-44 -2.448538e-05 2.5848718e-05 -5.6765284e-06 -1.39e-43
5.2e-44 2.79e-43 9.989847e-07 9.989847e-07 -1.29e-43 3.1591521e-06 3.1591521e-06 1.5039078e-05
3.1591521e-06 2.448538e-05 1.36e-43 2.448538e-05 2.448538e-05 -8.687807e-06 -4.9e-44 -2.448538e-05
00000000: 0279 be36 54f3 b537 b3d5 d8b7 6000 0080
00000010: d200 0080 f465 cdb7 5d00 0000 5ab0 aab5
00000020: 20af 2e37 3300 0000 f465 cd37 b3d5 d837
00000030: 6200 0080 6600 0080 c200 0080 54f3 b537
00000040: d9c1 11b7 0279 be36 54f3 b5b7 b3d5 d837
00000050: b3d5 d8b7 6000 0000 d201 5436 b3d5 d837
00000060: 6d00 0080 20af 2eb7 f465 cdb7 20af 2eb7
00000070: f465 cd37 0279 beb6 f465 cd37 d1f6 0937
00000080: cf00 0080 0279 beb6 f465 cd37 1427 0a38
00000090: d201 54b6 f4d3 a436 f465 cdb7 b3d5 d837
000000a0: 6100 0000 0239 cdb7 6100 0000 f465 cd37
000000b0: da14 86b5 b3d5 d8b7 4169 c7b7 d1f6 0937
000000c0: 1427 0ab8 0279 beb6 5950 7c37 f465 cd37
000000d0: 54f3 b537 b3d5 d8b7 f465 cd37 5000 0080
000000e0: 0279 be36 f465 cd37 d1f6 09b7 d201 54b6
000000f0: ce00 0000 b3d5 d837 c900 0080 4169 c7b7
00000100: f465 cdb7 6300 0080 d9c1 11b7 2b00 0080
00000110: f4d3 a4b6 f465 cdb7 5900 0000 6300 0000
00000120: f465 cdb7 0279 beb6 b3d5 d837 6a29 9cb6
00000130: 6f00 0000 6a00 0080 5400 0000 b3d5 d8b7
00000140: b3d5 d8b7 b3d5 d8b7 4169 c7b7 4169 c737
00000150: 4169 c7b7 5b00 0000 20af 2e37 6100 0000
00000160: f465 cd37 f465 cdb7 b3d5 d8b7 7000 0080
00000170: f465 cdb7 b3d5 d837 f465 cd37 5900 0080
00000180: 6a00 0080 d201 54b6 0279 be36 b17b ad37
00000190: 0279 be36 0279 be36 0279 be36 b3d5 d837
000001a0: b3d5 d8b7 6a00 0000 f465 cd37 1c00 0080
000001b0: f465 cdb7 b3d5 d837 0279 beb6 6300 0080
000001c0: 2500 0000 c700 0000 da14 8635 da14 8635
000001d0: 5c00 0080 d201 5436 d201 5436 5950 7c37
000001e0: d201 5436 f465 cd37 6100 0000 f465 cd37
000001f0: f465 cd37 d9c1 11b7 2300 0080 f465 cdb7

module.b_classifier.fcc.weight f4 [2, 2, 512]
0.028585866 0.018795691 0.0037301586 0.0012386272 0.018816717 -0.025134422 0.016654367 0.0035625345
0.016365767 -0.01734632 0.02081723 0.037385304 -0.0033019385 -0.01425154 -0.019385686 0.026467038
-0.008358307 0.022845509 0.037923325 0.031976033 0.024642695 -0.009142526 0.010846103 0.0053824186
-0.02852894 0.011745577 0.014003411 -0.03222888 -0.0129834125 0.019021269 0.046438433 0.02065982
-0.009518402 -0.008767681 0.0042463373 0.032863583 -0.0052331267 0.014863136 0.010834608 0.05635247
-0.0043868744 -0.009389239 -0.018286228 -0.031875487 -0.04441552 0.008263356 -0.0042642453 0.057219192
0.018512273 0.03809975 -0.007951199 0.029998682 0.025937619 0.012997259 0.020394042 0.0150275035
-0.011903539 0.018834317 0.038807455 0.025839387 0.025691008 0.027058873 -0.010397239 0.038052447
0.052181315 -0.010144959 -0.029041244 -0.0036815244 -0.020689718 0.03100526 -0.006977305 -0.022209683
0.015604978 0.028329814 -0.015266604 0.0029414531 0.02622851 0.030619163 0.0077132154 -0.0328993
0.039958414 -0.039398953 -0.005995309 -0.014198443 0.0047479705 0.025613243 0.009618697 -0.021258695
-0.029472409 0.023406444 -0.025158385 0.027169552 -0.013787621 0.011712766 -0.013797658 0.017360516
-0.012613021 -0.007055475 0.019519733 -0.015962915 -0.02436598 0.009914058 0.023866262 -0.011870562
0.0123385005 0.0030713293 0.004531029 0.04426382 0.053667154 0.042116202 -0.014569759 -0.009159495
-0.0073270085 0.016887266 0.014825961 0.06315288 0.024831638 0.030375287 0.02994955 -0.015279936
-0.021381974 0.03636952 0.021594446 -0.03285819 -0.009305804 0.032389663 0.008417737 0.047321342
-0.014366118 -0.010538582 0.015187115 0.020650592 -0.0020029347 0.046325643 -0.007408754 -0.015077831
0.008601193 -0.007798435 0.008777199 0.023752067 0.076052316 0.0283711 -0.016164545 0.023731174
0.017075142 -0.017819071 0.0007822136 -0.01895185 0.008704208 -0.0044502425 0.06175215 -0.014066844
-0.0052873245 -0.004435845 -0.0059144283 -0.023130167 0.019882396 -0.024300767 -9.177574e-05 -0.00053821487
0.0059538838 0.009376671 -0.0077401916 0.005868493 0.028330397 0.017837375 -0.0014978957 0.025329618
-0.043451656 0.013199714 0.02430856 0.02392908 0.0061958595 0.012918034 0.027514888 -0.027289389
-0.00083345326 -0.0013424018 0.012404464 -0.038376007 -0.009153145 0.022171212 0.03276757 0.03521258
0.030092575 -0.023208097 -0.013266167 -0.045333788 -0.015786627 0.0026058347 -0.013386209 -0.015820116
-0.014230752 0.031981237 0.014056102 0.01642412 -0.021860162 0.030634744 -0.021731475 0.018991608
-0.030401142 0.0241186 -0.008233862 -0.0041738003 0.0070018796 -0.012352307 0.026725272 0.01414986
-0.008776946 0.006316278 -0.016884735 0.018517056 -0.0063770735 -0.0014064135 -0.029169988 0.0035791644
0.002087275 0.025498895 0.040618252 0.00797099 0.008467541 0.006952877 0.0035421192 0.0102491705
0.004557737 0.027394978 0.022565033 -0.0007128661 0.027884666 0.011930678 0.019885827 0.020359369
-0.03377374 -0.0038459338 -0.024205064 0.017971639 0.004400637 -0.0028249247 -0.015919691 -0.038334012
-0.007465587 -0.029107274 0.08010135 -0.013888072 -0.014178097 0.027013367 -0.0147933755 0.0059738695
-0.0024478452 -0.013186502 0.011138857 0.013796273 0.019674532 0.016142748 0.020209655 -0.0056073894
00000000: e82c ea3c 6cf9 993c ad75 743b 6f59 a23a
00000010: 8425 9a3c b4e6 cdbc bd6e 883c 6979 693b
00000020: 8011 863c df19 8ebc e588 aa3c 5521 193d
00000030: 5665 58bb 4b7f 69bc bbce 9ebc 67d1 d83c
00000040: 48f1 08bc 8126 bb3c 7d55 1b3d 4df9 023d
00000050: 7adf c93c 89ca 15bc dab3 313c 005f b03b
00000060: 86b5 e9bc 8570 403c 906e 653c 6e02 04bd
00000070: 61b8 54bc 7ed2 9b3c 3a36 3e3d c83e a93c
00000080: 12f3 1bbc 52a6 0fbc dc24 8b3b f79b 063d
00000090: a67a abbb 8384 733c a483 313c d9d1 663d
000000a0: c5bf 8fbb 53d5 19bc 00cd 95bc df8f 02bd
000000b0: 0ced 35bd 0763 073c 15bb 8bbb ac5e 6a3d
000000c0: 0da7 973c 7c0e 1c3d bf45 02bc ccbf f53c
000000d0: 217b d43c 75f2 543c 6811 a73c eb35 763c
000000e0: 1007 43bc 6d4a 9a3c 91f4 1e3d 1fad d33c
000000f0: f375 d23c 92aa dd3c 2e59 2abc e2dc 1b3d
00000100: 13bc 553d 0b37 26bc e7e7 edbc bb45 71bb
00000110: 7c7d a9bc befe fd3c e0a1 e4bb 15f1 b5bc
00000120: 06ac 7f3c ed13 e83c c720 7abc 65c5 403b
00000130: 2cdd d63c 0ad5 fa3c 24bf fc3b 6bc1 06bd
00000140: 6fab 233d cc60 21bd 4c74 c4bb 96a0 68bc
00000150: dd94 9b3b ddd2 d13c bd97 1d3c b726 aebc
00000160: 1f70 f1bc dfbe bf3c f518 cebc ae92 de3c
00000170: 79e5 61bc e7e6 3f3c 920f 62bc a437 8e3c
00000180: d8a6 4ebc 9d31 e7bb d9e7 9f3c a9c4 82bc
00000190: 2a9b c7bc 936e 223c 2e83 c33c bf7c 42bc
000001a0: 6c27 4a3c 5b48 493b 0779 943b fb4d 353d
000001b0: 17d2 5b3d 0a82 2c3d 00b6 6ebc b511 16bc
000001c0: 6717 f0bb 2a57 8a3c 96e8 723c 4c56 813d
000001d0: b86b cb3c 98d5 f83c c258 f53c b258 7abc
000001e0: 4029 afbc 35f8 143d d6e6 b03c 4f96 06bd
000001f0: 5f77 18bc 06ab 043d 8cea 093c 06d4 413d
00000200: de5f 6bbc 04aa 2cbc 61d3 783c 6e2b a93c
00000210: ab43 03bb f5bf 3d3d 22c5 f2bb 0209 77bc
00000220: 05ec 0c3c 048a ffbb 3ece 0f3c b293 c23c
00000230: 51c1 9b3d 826a e83c 826b 84bc e167 c23c
00000240: 2be1 8b3c 4df9 91bc 770d 4d3a e940 9bbc
00000250: 189c 0e3c 57d3 91bb d3ef 7c3d 9f78 66bc
00000260: 4b41 adbb 915a 91bb d2cd c1bb 7a7b bdbc
00000270: 68e0 a23c 6712 c7bc ba77 c0b8 fd16 0dba
00000280: cc18 c33b 9ca0 193c 6fa1 fdbb 7d4c c03b
00000290: 2615 e83c b01f 923c 0a55 c4ba 0f80 cf3c
000002a0: 5dfa 31bd 9d43 583c bf22 c73c eb06 c43c
000002b0: a306 cb3b 29a6 533c e766 e13c ff8d dfbc
000002c0: 1a7c 5aba 88f3 afba 183c 4b3c 2930 1dbd
000002d0: 13f7 15bc 67a0 b53c 4a37 063d 113b 103d
000002e0: b484 f63c e81e bebc 565a 59bc ecaf 39bd
000002f0: f552 81bc a7c6 2a3b d451 5bbc 3099 81bc
00000300: 1a28 69bc c2fe 023d 914b 663c e08b 863c
00000310: 1514 b3bc b7f5 fa3c 3506 b2bc 4a94 9b3c
00000320: d10b f9bc 5f94 c53c 52e7 06bc 60c4 88bb
00000330: 0670 e53b 5561 4abc f5ee da3c d0d4 673c
00000340: 2ecd 0fbc c8f8 ce3b db51 8abc 15b1 973c
00000350: c5f6 d0bb 6857 b8ba e6f5 eebc 6a90 6a3b
00000360: aaca 083b 0fe3 d03c 535f 263d c198 023c
00000370: 71bb 0a3c f6d4 e33b e622 683b 23ec 273c
00000380: 1259 953b 6f6b e03c 4eda b83c a2df 3aba
00000390: 626e e43c e478 433c 9ae7 a23c b1c8 a63c
000003a0: 5556 0abd 100c 7cbb b349 c6bc 4239 933c
000003b0: 3833 903b 5f22 39bb 036a 82bc 2004 1dbd
000003c0: e2a1 f4bb 6172 eebc 2d0c a43d cc8a 63bc
000003d0: 404b 68bc 234b dd3c ea5f 72bc 73c0 c33b
000003e0: 076c 20bb 330c 58bc c17f 363c c309 623c
000003f0: 7c2c a13c cc3d 843c b88e a53c 31be b7bb

module.b_classifier.fcc.bias f4 [2]
-0.019604094 -0.008344048
00000000: c498 a0bc 79b5 08bc
